<?xml version="1.0" ?>
<net name="torch-jit-export" version="11">
	<layers>
		<layer id="0" name="input" type="Parameter" version="opset1">
			<data element_type="f32" shape="1,3,64,256"/>
			<rt_info>
				<attribute name="fused_names" value="431, input" version="0"/>
			</rt_info>
			<output>
				<port id="0" names="431,input" precision="FP32">
					<dim>1</dim>
					<dim>3</dim>
					<dim>64</dim>
					<dim>256</dim>
				</port>
			</output>
		</layer>
		<layer id="1" name="MLM_VRM.Prediction.pp.f0_embedding.weight" type="Const" version="opset1">
			<data element_type="f32" offset="0" shape="26, 512" size="53248"/>
			<rt_info>
				<attribute name="fused_names" value="MLM_VRM.Prediction.pp.f0_embedding.weight" version="0"/>
			</rt_info>
			<output>
				<port id="0" names="MLM_VRM.Prediction.pp.f0_embedding.weight" precision="FP32">
					<dim>26</dim>
					<dim>512</dim>
				</port>
			</output>
		</layer>
		<layer id="2" name="1092" type="Const" version="opset1">
			<data element_type="i64" offset="53248" shape="1, 26" size="208"/>
			<rt_info>
				<attribute name="fused_names" value="1092" version="0"/>
			</rt_info>
			<output>
				<port id="0" names="1092" precision="I64">
					<dim>1</dim>
					<dim>26</dim>
				</port>
			</output>
		</layer>
		<layer id="3" name="1337" type="Const" version="opset1">
			<data element_type="f32" offset="53456" shape="32, 3, 3, 3" size="3456"/>
			<rt_info>
				<attribute name="fused_names" value="1337" version="0"/>
			</rt_info>
			<output>
				<port id="0" names="1337" precision="FP32">
					<dim>32</dim>
					<dim>3</dim>
					<dim>3</dim>
					<dim>3</dim>
				</port>
			</output>
		</layer>
		<layer id="4" name="Convolution_213" type="Convolution" version="opset1">
			<data auto_pad="explicit" dilations="1, 1" pads_begin="1, 1" pads_end="1, 1" strides="1, 1"/>
			<rt_info>
				<attribute name="fused_names" value="Convolution_213" version="0"/>
			</rt_info>
			<input>
				<port id="0" precision="FP32">
					<dim>1</dim>
					<dim>3</dim>
					<dim>64</dim>
					<dim>256</dim>
				</port>
				<port id="1" precision="FP32">
					<dim>32</dim>
					<dim>3</dim>
					<dim>3</dim>
					<dim>3</dim>
				</port>
			</input>
			<output>
				<port id="2" precision="FP32">
					<dim>1</dim>
					<dim>32</dim>
					<dim>64</dim>
					<dim>256</dim>
				</port>
			</output>
		</layer>
		<layer id="5" name="Reshape_233" type="Const" version="opset1">
			<data element_type="f32" offset="56912" shape="1, 32, 1, 1" size="128"/>
			<output>
				<port id="0" precision="FP32">
					<dim>1</dim>
					<dim>32</dim>
					<dim>1</dim>
					<dim>1</dim>
				</port>
			</output>
		</layer>
		<layer id="6" name="1336" type="Add" version="opset1">
			<data auto_broadcast="numpy"/>
			<rt_info>
				<attribute name="fused_names" value="1336, Concat_232, Constant_216, Reshape_233" version="0"/>
			</rt_info>
			<input>
				<port id="0" precision="FP32">
					<dim>1</dim>
					<dim>32</dim>
					<dim>64</dim>
					<dim>256</dim>
				</port>
				<port id="1" precision="FP32">
					<dim>1</dim>
					<dim>32</dim>
					<dim>1</dim>
					<dim>1</dim>
				</port>
			</input>
			<output>
				<port id="2" names="1336" precision="FP32">
					<dim>1</dim>
					<dim>32</dim>
					<dim>64</dim>
					<dim>256</dim>
				</port>
			</output>
		</layer>
		<layer id="7" name="434" type="ReLU" version="opset1">
			<rt_info>
				<attribute name="fused_names" value="434, 435" version="0"/>
			</rt_info>
			<input>
				<port id="0" precision="FP32">
					<dim>1</dim>
					<dim>32</dim>
					<dim>64</dim>
					<dim>256</dim>
				</port>
			</input>
			<output>
				<port id="1" names="434,435" precision="FP32">
					<dim>1</dim>
					<dim>32</dim>
					<dim>64</dim>
					<dim>256</dim>
				</port>
			</output>
		</layer>
		<layer id="8" name="1340" type="Const" version="opset1">
			<data element_type="f32" offset="57040" shape="32, 32, 1, 1" size="4096"/>
			<rt_info>
				<attribute name="fused_names" value="1340" version="0"/>
			</rt_info>
			<output>
				<port id="0" names="1340" precision="FP32">
					<dim>32</dim>
					<dim>32</dim>
					<dim>1</dim>
					<dim>1</dim>
				</port>
			</output>
		</layer>
		<layer id="9" name="Convolution_263" type="Convolution" version="opset1">
			<data auto_pad="explicit" dilations="1, 1" pads_begin="0, 0" pads_end="0, 0" strides="1, 1"/>
			<rt_info>
				<attribute name="fused_names" value="Convolution_263" version="0"/>
			</rt_info>
			<input>
				<port id="0" precision="FP32">
					<dim>1</dim>
					<dim>32</dim>
					<dim>64</dim>
					<dim>256</dim>
				</port>
				<port id="1" precision="FP32">
					<dim>32</dim>
					<dim>32</dim>
					<dim>1</dim>
					<dim>1</dim>
				</port>
			</input>
			<output>
				<port id="2" precision="FP32">
					<dim>1</dim>
					<dim>32</dim>
					<dim>64</dim>
					<dim>256</dim>
				</port>
			</output>
		</layer>
		<layer id="10" name="Reshape_283" type="Const" version="opset1">
			<data element_type="f32" offset="61136" shape="1, 32, 1, 1" size="128"/>
			<output>
				<port id="0" precision="FP32">
					<dim>1</dim>
					<dim>32</dim>
					<dim>1</dim>
					<dim>1</dim>
				</port>
			</output>
		</layer>
		<layer id="11" name="1339" type="Add" version="opset1">
			<data auto_broadcast="numpy"/>
			<rt_info>
				<attribute name="fused_names" value="1339, Concat_282, Constant_266, Reshape_283" version="0"/>
			</rt_info>
			<input>
				<port id="0" precision="FP32">
					<dim>1</dim>
					<dim>32</dim>
					<dim>64</dim>
					<dim>256</dim>
				</port>
				<port id="1" precision="FP32">
					<dim>1</dim>
					<dim>32</dim>
					<dim>1</dim>
					<dim>1</dim>
				</port>
			</input>
			<output>
				<port id="2" names="1339" precision="FP32">
					<dim>1</dim>
					<dim>32</dim>
					<dim>64</dim>
					<dim>256</dim>
				</port>
			</output>
		</layer>
		<layer id="12" name="438" type="ReLU" version="opset1">
			<rt_info>
				<attribute name="fused_names" value="438" version="0"/>
			</rt_info>
			<input>
				<port id="0" precision="FP32">
					<dim>1</dim>
					<dim>32</dim>
					<dim>64</dim>
					<dim>256</dim>
				</port>
			</input>
			<output>
				<port id="1" names="438" precision="FP32">
					<dim>1</dim>
					<dim>32</dim>
					<dim>64</dim>
					<dim>256</dim>
				</port>
			</output>
		</layer>
		<layer id="13" name="1343" type="Const" version="opset1">
			<data element_type="f32" offset="61264" shape="32, 32, 3, 3" size="36864"/>
			<rt_info>
				<attribute name="fused_names" value="1343" version="0"/>
			</rt_info>
			<output>
				<port id="0" names="1343" precision="FP32">
					<dim>32</dim>
					<dim>32</dim>
					<dim>3</dim>
					<dim>3</dim>
				</port>
			</output>
		</layer>
		<layer id="14" name="Convolution_312" type="Convolution" version="opset1">
			<data auto_pad="explicit" dilations="1, 1" pads_begin="1, 1" pads_end="1, 1" strides="2, 2"/>
			<rt_info>
				<attribute name="fused_names" value="Convolution_312" version="0"/>
			</rt_info>
			<input>
				<port id="0" precision="FP32">
					<dim>1</dim>
					<dim>32</dim>
					<dim>64</dim>
					<dim>256</dim>
				</port>
				<port id="1" precision="FP32">
					<dim>32</dim>
					<dim>32</dim>
					<dim>3</dim>
					<dim>3</dim>
				</port>
			</input>
			<output>
				<port id="2" precision="FP32">
					<dim>1</dim>
					<dim>32</dim>
					<dim>32</dim>
					<dim>128</dim>
				</port>
			</output>
		</layer>
		<layer id="15" name="Reshape_332" type="Const" version="opset1">
			<data element_type="f32" offset="98128" shape="1, 32, 1, 1" size="128"/>
			<output>
				<port id="0" precision="FP32">
					<dim>1</dim>
					<dim>32</dim>
					<dim>1</dim>
					<dim>1</dim>
				</port>
			</output>
		</layer>
		<layer id="16" name="1342" type="Add" version="opset1">
			<data auto_broadcast="numpy"/>
			<rt_info>
				<attribute name="fused_names" value="1342, Concat_331, Constant_315, Reshape_332" version="0"/>
			</rt_info>
			<input>
				<port id="0" precision="FP32">
					<dim>1</dim>
					<dim>32</dim>
					<dim>32</dim>
					<dim>128</dim>
				</port>
				<port id="1" precision="FP32">
					<dim>1</dim>
					<dim>32</dim>
					<dim>1</dim>
					<dim>1</dim>
				</port>
			</input>
			<output>
				<port id="2" names="1342" precision="FP32">
					<dim>1</dim>
					<dim>32</dim>
					<dim>32</dim>
					<dim>128</dim>
				</port>
			</output>
		</layer>
		<layer id="17" name="1346" type="Const" version="opset1">
			<data element_type="f32" offset="98256" shape="32, 32, 1, 1" size="4096"/>
			<rt_info>
				<attribute name="fused_names" value="1346" version="0"/>
			</rt_info>
			<output>
				<port id="0" names="1346" precision="FP32">
					<dim>32</dim>
					<dim>32</dim>
					<dim>1</dim>
					<dim>1</dim>
				</port>
			</output>
		</layer>
		<layer id="18" name="Convolution_360" type="Convolution" version="opset1">
			<data auto_pad="explicit" dilations="1, 1" pads_begin="0, 0" pads_end="0, 0" strides="2, 2"/>
			<rt_info>
				<attribute name="fused_names" value="Convolution_360" version="0"/>
			</rt_info>
			<input>
				<port id="0" precision="FP32">
					<dim>1</dim>
					<dim>32</dim>
					<dim>64</dim>
					<dim>256</dim>
				</port>
				<port id="1" precision="FP32">
					<dim>32</dim>
					<dim>32</dim>
					<dim>1</dim>
					<dim>1</dim>
				</port>
			</input>
			<output>
				<port id="2" precision="FP32">
					<dim>1</dim>
					<dim>32</dim>
					<dim>32</dim>
					<dim>128</dim>
				</port>
			</output>
		</layer>
		<layer id="19" name="Reshape_380" type="Const" version="opset1">
			<data element_type="f32" offset="102352" shape="1, 32, 1, 1" size="128"/>
			<output>
				<port id="0" precision="FP32">
					<dim>1</dim>
					<dim>32</dim>
					<dim>1</dim>
					<dim>1</dim>
				</port>
			</output>
		</layer>
		<layer id="20" name="1345" type="Add" version="opset1">
			<data auto_broadcast="numpy"/>
			<rt_info>
				<attribute name="fused_names" value="1345, Concat_379, Constant_363, Reshape_380" version="0"/>
			</rt_info>
			<input>
				<port id="0" precision="FP32">
					<dim>1</dim>
					<dim>32</dim>
					<dim>32</dim>
					<dim>128</dim>
				</port>
				<port id="1" precision="FP32">
					<dim>1</dim>
					<dim>32</dim>
					<dim>1</dim>
					<dim>1</dim>
				</port>
			</input>
			<output>
				<port id="2" names="1345" precision="FP32">
					<dim>1</dim>
					<dim>32</dim>
					<dim>32</dim>
					<dim>128</dim>
				</port>
			</output>
		</layer>
		<layer id="21" name="443" type="Add" version="opset1">
			<data auto_broadcast="numpy"/>
			<rt_info>
				<attribute name="fused_names" value="443" version="0"/>
			</rt_info>
			<input>
				<port id="0" precision="FP32">
					<dim>1</dim>
					<dim>32</dim>
					<dim>32</dim>
					<dim>128</dim>
				</port>
				<port id="1" precision="FP32">
					<dim>1</dim>
					<dim>32</dim>
					<dim>32</dim>
					<dim>128</dim>
				</port>
			</input>
			<output>
				<port id="2" names="443" precision="FP32">
					<dim>1</dim>
					<dim>32</dim>
					<dim>32</dim>
					<dim>128</dim>
				</port>
			</output>
		</layer>
		<layer id="22" name="444" type="ReLU" version="opset1">
			<rt_info>
				<attribute name="fused_names" value="444" version="0"/>
			</rt_info>
			<input>
				<port id="0" precision="FP32">
					<dim>1</dim>
					<dim>32</dim>
					<dim>32</dim>
					<dim>128</dim>
				</port>
			</input>
			<output>
				<port id="1" names="444" precision="FP32">
					<dim>1</dim>
					<dim>32</dim>
					<dim>32</dim>
					<dim>128</dim>
				</port>
			</output>
		</layer>
		<layer id="23" name="1349" type="Const" version="opset1">
			<data element_type="f32" offset="102480" shape="32, 32, 1, 1" size="4096"/>
			<rt_info>
				<attribute name="fused_names" value="1349" version="0"/>
			</rt_info>
			<output>
				<port id="0" names="1349" precision="FP32">
					<dim>32</dim>
					<dim>32</dim>
					<dim>1</dim>
					<dim>1</dim>
				</port>
			</output>
		</layer>
		<layer id="24" name="Convolution_410" type="Convolution" version="opset1">
			<data auto_pad="explicit" dilations="1, 1" pads_begin="0, 0" pads_end="0, 0" strides="1, 1"/>
			<rt_info>
				<attribute name="fused_names" value="Convolution_410" version="0"/>
			</rt_info>
			<input>
				<port id="0" precision="FP32">
					<dim>1</dim>
					<dim>32</dim>
					<dim>32</dim>
					<dim>128</dim>
				</port>
				<port id="1" precision="FP32">
					<dim>32</dim>
					<dim>32</dim>
					<dim>1</dim>
					<dim>1</dim>
				</port>
			</input>
			<output>
				<port id="2" precision="FP32">
					<dim>1</dim>
					<dim>32</dim>
					<dim>32</dim>
					<dim>128</dim>
				</port>
			</output>
		</layer>
		<layer id="25" name="Reshape_430" type="Const" version="opset1">
			<data element_type="f32" offset="106576" shape="1, 32, 1, 1" size="128"/>
			<output>
				<port id="0" precision="FP32">
					<dim>1</dim>
					<dim>32</dim>
					<dim>1</dim>
					<dim>1</dim>
				</port>
			</output>
		</layer>
		<layer id="26" name="1348" type="Add" version="opset1">
			<data auto_broadcast="numpy"/>
			<rt_info>
				<attribute name="fused_names" value="1348, Concat_429, Constant_413, Reshape_430" version="0"/>
			</rt_info>
			<input>
				<port id="0" precision="FP32">
					<dim>1</dim>
					<dim>32</dim>
					<dim>32</dim>
					<dim>128</dim>
				</port>
				<port id="1" precision="FP32">
					<dim>1</dim>
					<dim>32</dim>
					<dim>1</dim>
					<dim>1</dim>
				</port>
			</input>
			<output>
				<port id="2" names="1348" precision="FP32">
					<dim>1</dim>
					<dim>32</dim>
					<dim>32</dim>
					<dim>128</dim>
				</port>
			</output>
		</layer>
		<layer id="27" name="447" type="ReLU" version="opset1">
			<rt_info>
				<attribute name="fused_names" value="447" version="0"/>
			</rt_info>
			<input>
				<port id="0" precision="FP32">
					<dim>1</dim>
					<dim>32</dim>
					<dim>32</dim>
					<dim>128</dim>
				</port>
			</input>
			<output>
				<port id="1" names="447" precision="FP32">
					<dim>1</dim>
					<dim>32</dim>
					<dim>32</dim>
					<dim>128</dim>
				</port>
			</output>
		</layer>
		<layer id="28" name="1352" type="Const" version="opset1">
			<data element_type="f32" offset="106704" shape="32, 32, 3, 3" size="36864"/>
			<rt_info>
				<attribute name="fused_names" value="1352" version="0"/>
			</rt_info>
			<output>
				<port id="0" names="1352" precision="FP32">
					<dim>32</dim>
					<dim>32</dim>
					<dim>3</dim>
					<dim>3</dim>
				</port>
			</output>
		</layer>
		<layer id="29" name="Convolution_459" type="Convolution" version="opset1">
			<data auto_pad="explicit" dilations="1, 1" pads_begin="1, 1" pads_end="1, 1" strides="1, 1"/>
			<rt_info>
				<attribute name="fused_names" value="Convolution_459" version="0"/>
			</rt_info>
			<input>
				<port id="0" precision="FP32">
					<dim>1</dim>
					<dim>32</dim>
					<dim>32</dim>
					<dim>128</dim>
				</port>
				<port id="1" precision="FP32">
					<dim>32</dim>
					<dim>32</dim>
					<dim>3</dim>
					<dim>3</dim>
				</port>
			</input>
			<output>
				<port id="2" precision="FP32">
					<dim>1</dim>
					<dim>32</dim>
					<dim>32</dim>
					<dim>128</dim>
				</port>
			</output>
		</layer>
		<layer id="30" name="Reshape_479" type="Const" version="opset1">
			<data element_type="f32" offset="143568" shape="1, 32, 1, 1" size="128"/>
			<output>
				<port id="0" precision="FP32">
					<dim>1</dim>
					<dim>32</dim>
					<dim>1</dim>
					<dim>1</dim>
				</port>
			</output>
		</layer>
		<layer id="31" name="1351" type="Add" version="opset1">
			<data auto_broadcast="numpy"/>
			<rt_info>
				<attribute name="fused_names" value="1351, Concat_478, Constant_462, Reshape_479" version="0"/>
			</rt_info>
			<input>
				<port id="0" precision="FP32">
					<dim>1</dim>
					<dim>32</dim>
					<dim>32</dim>
					<dim>128</dim>
				</port>
				<port id="1" precision="FP32">
					<dim>1</dim>
					<dim>32</dim>
					<dim>1</dim>
					<dim>1</dim>
				</port>
			</input>
			<output>
				<port id="2" names="1351" precision="FP32">
					<dim>1</dim>
					<dim>32</dim>
					<dim>32</dim>
					<dim>128</dim>
				</port>
			</output>
		</layer>
		<layer id="32" name="450" type="Add" version="opset1">
			<data auto_broadcast="numpy"/>
			<rt_info>
				<attribute name="fused_names" value="450" version="0"/>
			</rt_info>
			<input>
				<port id="0" precision="FP32">
					<dim>1</dim>
					<dim>32</dim>
					<dim>32</dim>
					<dim>128</dim>
				</port>
				<port id="1" precision="FP32">
					<dim>1</dim>
					<dim>32</dim>
					<dim>32</dim>
					<dim>128</dim>
				</port>
			</input>
			<output>
				<port id="2" names="450" precision="FP32">
					<dim>1</dim>
					<dim>32</dim>
					<dim>32</dim>
					<dim>128</dim>
				</port>
			</output>
		</layer>
		<layer id="33" name="451" type="ReLU" version="opset1">
			<rt_info>
				<attribute name="fused_names" value="451" version="0"/>
			</rt_info>
			<input>
				<port id="0" precision="FP32">
					<dim>1</dim>
					<dim>32</dim>
					<dim>32</dim>
					<dim>128</dim>
				</port>
			</input>
			<output>
				<port id="1" names="451" precision="FP32">
					<dim>1</dim>
					<dim>32</dim>
					<dim>32</dim>
					<dim>128</dim>
				</port>
			</output>
		</layer>
		<layer id="34" name="1355" type="Const" version="opset1">
			<data element_type="f32" offset="143696" shape="32, 32, 1, 1" size="4096"/>
			<rt_info>
				<attribute name="fused_names" value="1355" version="0"/>
			</rt_info>
			<output>
				<port id="0" names="1355" precision="FP32">
					<dim>32</dim>
					<dim>32</dim>
					<dim>1</dim>
					<dim>1</dim>
				</port>
			</output>
		</layer>
		<layer id="35" name="Convolution_509" type="Convolution" version="opset1">
			<data auto_pad="explicit" dilations="1, 1" pads_begin="0, 0" pads_end="0, 0" strides="1, 1"/>
			<rt_info>
				<attribute name="fused_names" value="Convolution_509" version="0"/>
			</rt_info>
			<input>
				<port id="0" precision="FP32">
					<dim>1</dim>
					<dim>32</dim>
					<dim>32</dim>
					<dim>128</dim>
				</port>
				<port id="1" precision="FP32">
					<dim>32</dim>
					<dim>32</dim>
					<dim>1</dim>
					<dim>1</dim>
				</port>
			</input>
			<output>
				<port id="2" precision="FP32">
					<dim>1</dim>
					<dim>32</dim>
					<dim>32</dim>
					<dim>128</dim>
				</port>
			</output>
		</layer>
		<layer id="36" name="Reshape_529" type="Const" version="opset1">
			<data element_type="f32" offset="147792" shape="1, 32, 1, 1" size="128"/>
			<output>
				<port id="0" precision="FP32">
					<dim>1</dim>
					<dim>32</dim>
					<dim>1</dim>
					<dim>1</dim>
				</port>
			</output>
		</layer>
		<layer id="37" name="1354" type="Add" version="opset1">
			<data auto_broadcast="numpy"/>
			<rt_info>
				<attribute name="fused_names" value="1354, Concat_528, Constant_512, Reshape_529" version="0"/>
			</rt_info>
			<input>
				<port id="0" precision="FP32">
					<dim>1</dim>
					<dim>32</dim>
					<dim>32</dim>
					<dim>128</dim>
				</port>
				<port id="1" precision="FP32">
					<dim>1</dim>
					<dim>32</dim>
					<dim>1</dim>
					<dim>1</dim>
				</port>
			</input>
			<output>
				<port id="2" names="1354" precision="FP32">
					<dim>1</dim>
					<dim>32</dim>
					<dim>32</dim>
					<dim>128</dim>
				</port>
			</output>
		</layer>
		<layer id="38" name="454" type="ReLU" version="opset1">
			<rt_info>
				<attribute name="fused_names" value="454" version="0"/>
			</rt_info>
			<input>
				<port id="0" precision="FP32">
					<dim>1</dim>
					<dim>32</dim>
					<dim>32</dim>
					<dim>128</dim>
				</port>
			</input>
			<output>
				<port id="1" names="454" precision="FP32">
					<dim>1</dim>
					<dim>32</dim>
					<dim>32</dim>
					<dim>128</dim>
				</port>
			</output>
		</layer>
		<layer id="39" name="1358" type="Const" version="opset1">
			<data element_type="f32" offset="147920" shape="32, 32, 3, 3" size="36864"/>
			<rt_info>
				<attribute name="fused_names" value="1358" version="0"/>
			</rt_info>
			<output>
				<port id="0" names="1358" precision="FP32">
					<dim>32</dim>
					<dim>32</dim>
					<dim>3</dim>
					<dim>3</dim>
				</port>
			</output>
		</layer>
		<layer id="40" name="Convolution_558" type="Convolution" version="opset1">
			<data auto_pad="explicit" dilations="1, 1" pads_begin="1, 1" pads_end="1, 1" strides="1, 1"/>
			<rt_info>
				<attribute name="fused_names" value="Convolution_558" version="0"/>
			</rt_info>
			<input>
				<port id="0" precision="FP32">
					<dim>1</dim>
					<dim>32</dim>
					<dim>32</dim>
					<dim>128</dim>
				</port>
				<port id="1" precision="FP32">
					<dim>32</dim>
					<dim>32</dim>
					<dim>3</dim>
					<dim>3</dim>
				</port>
			</input>
			<output>
				<port id="2" precision="FP32">
					<dim>1</dim>
					<dim>32</dim>
					<dim>32</dim>
					<dim>128</dim>
				</port>
			</output>
		</layer>
		<layer id="41" name="Reshape_578" type="Const" version="opset1">
			<data element_type="f32" offset="184784" shape="1, 32, 1, 1" size="128"/>
			<output>
				<port id="0" precision="FP32">
					<dim>1</dim>
					<dim>32</dim>
					<dim>1</dim>
					<dim>1</dim>
				</port>
			</output>
		</layer>
		<layer id="42" name="1357" type="Add" version="opset1">
			<data auto_broadcast="numpy"/>
			<rt_info>
				<attribute name="fused_names" value="1357, Concat_577, Constant_561, Reshape_578" version="0"/>
			</rt_info>
			<input>
				<port id="0" precision="FP32">
					<dim>1</dim>
					<dim>32</dim>
					<dim>32</dim>
					<dim>128</dim>
				</port>
				<port id="1" precision="FP32">
					<dim>1</dim>
					<dim>32</dim>
					<dim>1</dim>
					<dim>1</dim>
				</port>
			</input>
			<output>
				<port id="2" names="1357" precision="FP32">
					<dim>1</dim>
					<dim>32</dim>
					<dim>32</dim>
					<dim>128</dim>
				</port>
			</output>
		</layer>
		<layer id="43" name="457" type="Add" version="opset1">
			<data auto_broadcast="numpy"/>
			<rt_info>
				<attribute name="fused_names" value="457" version="0"/>
			</rt_info>
			<input>
				<port id="0" precision="FP32">
					<dim>1</dim>
					<dim>32</dim>
					<dim>32</dim>
					<dim>128</dim>
				</port>
				<port id="1" precision="FP32">
					<dim>1</dim>
					<dim>32</dim>
					<dim>32</dim>
					<dim>128</dim>
				</port>
			</input>
			<output>
				<port id="2" names="457" precision="FP32">
					<dim>1</dim>
					<dim>32</dim>
					<dim>32</dim>
					<dim>128</dim>
				</port>
			</output>
		</layer>
		<layer id="44" name="458" type="ReLU" version="opset1">
			<rt_info>
				<attribute name="fused_names" value="458" version="0"/>
			</rt_info>
			<input>
				<port id="0" precision="FP32">
					<dim>1</dim>
					<dim>32</dim>
					<dim>32</dim>
					<dim>128</dim>
				</port>
			</input>
			<output>
				<port id="1" names="458" precision="FP32">
					<dim>1</dim>
					<dim>32</dim>
					<dim>32</dim>
					<dim>128</dim>
				</port>
			</output>
		</layer>
		<layer id="45" name="1361" type="Const" version="opset1">
			<data element_type="f32" offset="184912" shape="64, 32, 1, 1" size="8192"/>
			<rt_info>
				<attribute name="fused_names" value="1361" version="0"/>
			</rt_info>
			<output>
				<port id="0" names="1361" precision="FP32">
					<dim>64</dim>
					<dim>32</dim>
					<dim>1</dim>
					<dim>1</dim>
				</port>
			</output>
		</layer>
		<layer id="46" name="Convolution_608" type="Convolution" version="opset1">
			<data auto_pad="explicit" dilations="1, 1" pads_begin="0, 0" pads_end="0, 0" strides="1, 1"/>
			<rt_info>
				<attribute name="fused_names" value="Convolution_608" version="0"/>
			</rt_info>
			<input>
				<port id="0" precision="FP32">
					<dim>1</dim>
					<dim>32</dim>
					<dim>32</dim>
					<dim>128</dim>
				</port>
				<port id="1" precision="FP32">
					<dim>64</dim>
					<dim>32</dim>
					<dim>1</dim>
					<dim>1</dim>
				</port>
			</input>
			<output>
				<port id="2" precision="FP32">
					<dim>1</dim>
					<dim>64</dim>
					<dim>32</dim>
					<dim>128</dim>
				</port>
			</output>
		</layer>
		<layer id="47" name="Reshape_628" type="Const" version="opset1">
			<data element_type="f32" offset="193104" shape="1, 64, 1, 1" size="256"/>
			<output>
				<port id="0" precision="FP32">
					<dim>1</dim>
					<dim>64</dim>
					<dim>1</dim>
					<dim>1</dim>
				</port>
			</output>
		</layer>
		<layer id="48" name="1360" type="Add" version="opset1">
			<data auto_broadcast="numpy"/>
			<rt_info>
				<attribute name="fused_names" value="1360, Concat_627, Constant_611, Reshape_628" version="0"/>
			</rt_info>
			<input>
				<port id="0" precision="FP32">
					<dim>1</dim>
					<dim>64</dim>
					<dim>32</dim>
					<dim>128</dim>
				</port>
				<port id="1" precision="FP32">
					<dim>1</dim>
					<dim>64</dim>
					<dim>1</dim>
					<dim>1</dim>
				</port>
			</input>
			<output>
				<port id="2" names="1360" precision="FP32">
					<dim>1</dim>
					<dim>64</dim>
					<dim>32</dim>
					<dim>128</dim>
				</port>
			</output>
		</layer>
		<layer id="49" name="461" type="ReLU" version="opset1">
			<rt_info>
				<attribute name="fused_names" value="461" version="0"/>
			</rt_info>
			<input>
				<port id="0" precision="FP32">
					<dim>1</dim>
					<dim>64</dim>
					<dim>32</dim>
					<dim>128</dim>
				</port>
			</input>
			<output>
				<port id="1" names="461" precision="FP32">
					<dim>1</dim>
					<dim>64</dim>
					<dim>32</dim>
					<dim>128</dim>
				</port>
			</output>
		</layer>
		<layer id="50" name="1364" type="Const" version="opset1">
			<data element_type="f32" offset="193360" shape="64, 64, 3, 3" size="147456"/>
			<rt_info>
				<attribute name="fused_names" value="1364" version="0"/>
			</rt_info>
			<output>
				<port id="0" names="1364" precision="FP32">
					<dim>64</dim>
					<dim>64</dim>
					<dim>3</dim>
					<dim>3</dim>
				</port>
			</output>
		</layer>
		<layer id="51" name="Convolution_657" type="Convolution" version="opset1">
			<data auto_pad="explicit" dilations="1, 1" pads_begin="1, 1" pads_end="1, 1" strides="2, 2"/>
			<rt_info>
				<attribute name="fused_names" value="Convolution_657" version="0"/>
			</rt_info>
			<input>
				<port id="0" precision="FP32">
					<dim>1</dim>
					<dim>64</dim>
					<dim>32</dim>
					<dim>128</dim>
				</port>
				<port id="1" precision="FP32">
					<dim>64</dim>
					<dim>64</dim>
					<dim>3</dim>
					<dim>3</dim>
				</port>
			</input>
			<output>
				<port id="2" precision="FP32">
					<dim>1</dim>
					<dim>64</dim>
					<dim>16</dim>
					<dim>64</dim>
				</port>
			</output>
		</layer>
		<layer id="52" name="Reshape_677" type="Const" version="opset1">
			<data element_type="f32" offset="340816" shape="1, 64, 1, 1" size="256"/>
			<output>
				<port id="0" precision="FP32">
					<dim>1</dim>
					<dim>64</dim>
					<dim>1</dim>
					<dim>1</dim>
				</port>
			</output>
		</layer>
		<layer id="53" name="1363" type="Add" version="opset1">
			<data auto_broadcast="numpy"/>
			<rt_info>
				<attribute name="fused_names" value="1363, Concat_676, Constant_660, Reshape_677" version="0"/>
			</rt_info>
			<input>
				<port id="0" precision="FP32">
					<dim>1</dim>
					<dim>64</dim>
					<dim>16</dim>
					<dim>64</dim>
				</port>
				<port id="1" precision="FP32">
					<dim>1</dim>
					<dim>64</dim>
					<dim>1</dim>
					<dim>1</dim>
				</port>
			</input>
			<output>
				<port id="2" names="1363" precision="FP32">
					<dim>1</dim>
					<dim>64</dim>
					<dim>16</dim>
					<dim>64</dim>
				</port>
			</output>
		</layer>
		<layer id="54" name="1367" type="Const" version="opset1">
			<data element_type="f32" offset="341072" shape="64, 32, 1, 1" size="8192"/>
			<rt_info>
				<attribute name="fused_names" value="1367" version="0"/>
			</rt_info>
			<output>
				<port id="0" names="1367" precision="FP32">
					<dim>64</dim>
					<dim>32</dim>
					<dim>1</dim>
					<dim>1</dim>
				</port>
			</output>
		</layer>
		<layer id="55" name="Convolution_705" type="Convolution" version="opset1">
			<data auto_pad="explicit" dilations="1, 1" pads_begin="0, 0" pads_end="0, 0" strides="2, 2"/>
			<rt_info>
				<attribute name="fused_names" value="Convolution_705" version="0"/>
			</rt_info>
			<input>
				<port id="0" precision="FP32">
					<dim>1</dim>
					<dim>32</dim>
					<dim>32</dim>
					<dim>128</dim>
				</port>
				<port id="1" precision="FP32">
					<dim>64</dim>
					<dim>32</dim>
					<dim>1</dim>
					<dim>1</dim>
				</port>
			</input>
			<output>
				<port id="2" precision="FP32">
					<dim>1</dim>
					<dim>64</dim>
					<dim>16</dim>
					<dim>64</dim>
				</port>
			</output>
		</layer>
		<layer id="56" name="Reshape_725" type="Const" version="opset1">
			<data element_type="f32" offset="349264" shape="1, 64, 1, 1" size="256"/>
			<output>
				<port id="0" precision="FP32">
					<dim>1</dim>
					<dim>64</dim>
					<dim>1</dim>
					<dim>1</dim>
				</port>
			</output>
		</layer>
		<layer id="57" name="1366" type="Add" version="opset1">
			<data auto_broadcast="numpy"/>
			<rt_info>
				<attribute name="fused_names" value="1366, Concat_724, Constant_708, Reshape_725" version="0"/>
			</rt_info>
			<input>
				<port id="0" precision="FP32">
					<dim>1</dim>
					<dim>64</dim>
					<dim>16</dim>
					<dim>64</dim>
				</port>
				<port id="1" precision="FP32">
					<dim>1</dim>
					<dim>64</dim>
					<dim>1</dim>
					<dim>1</dim>
				</port>
			</input>
			<output>
				<port id="2" names="1366" precision="FP32">
					<dim>1</dim>
					<dim>64</dim>
					<dim>16</dim>
					<dim>64</dim>
				</port>
			</output>
		</layer>
		<layer id="58" name="466" type="Add" version="opset1">
			<data auto_broadcast="numpy"/>
			<rt_info>
				<attribute name="fused_names" value="466" version="0"/>
			</rt_info>
			<input>
				<port id="0" precision="FP32">
					<dim>1</dim>
					<dim>64</dim>
					<dim>16</dim>
					<dim>64</dim>
				</port>
				<port id="1" precision="FP32">
					<dim>1</dim>
					<dim>64</dim>
					<dim>16</dim>
					<dim>64</dim>
				</port>
			</input>
			<output>
				<port id="2" names="466" precision="FP32">
					<dim>1</dim>
					<dim>64</dim>
					<dim>16</dim>
					<dim>64</dim>
				</port>
			</output>
		</layer>
		<layer id="59" name="467" type="ReLU" version="opset1">
			<rt_info>
				<attribute name="fused_names" value="467" version="0"/>
			</rt_info>
			<input>
				<port id="0" precision="FP32">
					<dim>1</dim>
					<dim>64</dim>
					<dim>16</dim>
					<dim>64</dim>
				</port>
			</input>
			<output>
				<port id="1" names="467" precision="FP32">
					<dim>1</dim>
					<dim>64</dim>
					<dim>16</dim>
					<dim>64</dim>
				</port>
			</output>
		</layer>
		<layer id="60" name="1370" type="Const" version="opset1">
			<data element_type="f32" offset="349520" shape="64, 64, 1, 1" size="16384"/>
			<rt_info>
				<attribute name="fused_names" value="1370" version="0"/>
			</rt_info>
			<output>
				<port id="0" names="1370" precision="FP32">
					<dim>64</dim>
					<dim>64</dim>
					<dim>1</dim>
					<dim>1</dim>
				</port>
			</output>
		</layer>
		<layer id="61" name="Convolution_755" type="Convolution" version="opset1">
			<data auto_pad="explicit" dilations="1, 1" pads_begin="0, 0" pads_end="0, 0" strides="1, 1"/>
			<rt_info>
				<attribute name="fused_names" value="Convolution_755" version="0"/>
			</rt_info>
			<input>
				<port id="0" precision="FP32">
					<dim>1</dim>
					<dim>64</dim>
					<dim>16</dim>
					<dim>64</dim>
				</port>
				<port id="1" precision="FP32">
					<dim>64</dim>
					<dim>64</dim>
					<dim>1</dim>
					<dim>1</dim>
				</port>
			</input>
			<output>
				<port id="2" precision="FP32">
					<dim>1</dim>
					<dim>64</dim>
					<dim>16</dim>
					<dim>64</dim>
				</port>
			</output>
		</layer>
		<layer id="62" name="Reshape_775" type="Const" version="opset1">
			<data element_type="f32" offset="365904" shape="1, 64, 1, 1" size="256"/>
			<output>
				<port id="0" precision="FP32">
					<dim>1</dim>
					<dim>64</dim>
					<dim>1</dim>
					<dim>1</dim>
				</port>
			</output>
		</layer>
		<layer id="63" name="1369" type="Add" version="opset1">
			<data auto_broadcast="numpy"/>
			<rt_info>
				<attribute name="fused_names" value="1369, Concat_774, Constant_758, Reshape_775" version="0"/>
			</rt_info>
			<input>
				<port id="0" precision="FP32">
					<dim>1</dim>
					<dim>64</dim>
					<dim>16</dim>
					<dim>64</dim>
				</port>
				<port id="1" precision="FP32">
					<dim>1</dim>
					<dim>64</dim>
					<dim>1</dim>
					<dim>1</dim>
				</port>
			</input>
			<output>
				<port id="2" names="1369" precision="FP32">
					<dim>1</dim>
					<dim>64</dim>
					<dim>16</dim>
					<dim>64</dim>
				</port>
			</output>
		</layer>
		<layer id="64" name="470" type="ReLU" version="opset1">
			<rt_info>
				<attribute name="fused_names" value="470" version="0"/>
			</rt_info>
			<input>
				<port id="0" precision="FP32">
					<dim>1</dim>
					<dim>64</dim>
					<dim>16</dim>
					<dim>64</dim>
				</port>
			</input>
			<output>
				<port id="1" names="470" precision="FP32">
					<dim>1</dim>
					<dim>64</dim>
					<dim>16</dim>
					<dim>64</dim>
				</port>
			</output>
		</layer>
		<layer id="65" name="1373" type="Const" version="opset1">
			<data element_type="f32" offset="366160" shape="64, 64, 3, 3" size="147456"/>
			<rt_info>
				<attribute name="fused_names" value="1373" version="0"/>
			</rt_info>
			<output>
				<port id="0" names="1373" precision="FP32">
					<dim>64</dim>
					<dim>64</dim>
					<dim>3</dim>
					<dim>3</dim>
				</port>
			</output>
		</layer>
		<layer id="66" name="Convolution_804" type="Convolution" version="opset1">
			<data auto_pad="explicit" dilations="1, 1" pads_begin="1, 1" pads_end="1, 1" strides="1, 1"/>
			<rt_info>
				<attribute name="fused_names" value="Convolution_804" version="0"/>
			</rt_info>
			<input>
				<port id="0" precision="FP32">
					<dim>1</dim>
					<dim>64</dim>
					<dim>16</dim>
					<dim>64</dim>
				</port>
				<port id="1" precision="FP32">
					<dim>64</dim>
					<dim>64</dim>
					<dim>3</dim>
					<dim>3</dim>
				</port>
			</input>
			<output>
				<port id="2" precision="FP32">
					<dim>1</dim>
					<dim>64</dim>
					<dim>16</dim>
					<dim>64</dim>
				</port>
			</output>
		</layer>
		<layer id="67" name="Reshape_824" type="Const" version="opset1">
			<data element_type="f32" offset="513616" shape="1, 64, 1, 1" size="256"/>
			<output>
				<port id="0" precision="FP32">
					<dim>1</dim>
					<dim>64</dim>
					<dim>1</dim>
					<dim>1</dim>
				</port>
			</output>
		</layer>
		<layer id="68" name="1372" type="Add" version="opset1">
			<data auto_broadcast="numpy"/>
			<rt_info>
				<attribute name="fused_names" value="1372, Concat_823, Constant_807, Reshape_824" version="0"/>
			</rt_info>
			<input>
				<port id="0" precision="FP32">
					<dim>1</dim>
					<dim>64</dim>
					<dim>16</dim>
					<dim>64</dim>
				</port>
				<port id="1" precision="FP32">
					<dim>1</dim>
					<dim>64</dim>
					<dim>1</dim>
					<dim>1</dim>
				</port>
			</input>
			<output>
				<port id="2" names="1372" precision="FP32">
					<dim>1</dim>
					<dim>64</dim>
					<dim>16</dim>
					<dim>64</dim>
				</port>
			</output>
		</layer>
		<layer id="69" name="473" type="Add" version="opset1">
			<data auto_broadcast="numpy"/>
			<rt_info>
				<attribute name="fused_names" value="473" version="0"/>
			</rt_info>
			<input>
				<port id="0" precision="FP32">
					<dim>1</dim>
					<dim>64</dim>
					<dim>16</dim>
					<dim>64</dim>
				</port>
				<port id="1" precision="FP32">
					<dim>1</dim>
					<dim>64</dim>
					<dim>16</dim>
					<dim>64</dim>
				</port>
			</input>
			<output>
				<port id="2" names="473" precision="FP32">
					<dim>1</dim>
					<dim>64</dim>
					<dim>16</dim>
					<dim>64</dim>
				</port>
			</output>
		</layer>
		<layer id="70" name="474" type="ReLU" version="opset1">
			<rt_info>
				<attribute name="fused_names" value="474" version="0"/>
			</rt_info>
			<input>
				<port id="0" precision="FP32">
					<dim>1</dim>
					<dim>64</dim>
					<dim>16</dim>
					<dim>64</dim>
				</port>
			</input>
			<output>
				<port id="1" names="474" precision="FP32">
					<dim>1</dim>
					<dim>64</dim>
					<dim>16</dim>
					<dim>64</dim>
				</port>
			</output>
		</layer>
		<layer id="71" name="1376" type="Const" version="opset1">
			<data element_type="f32" offset="513872" shape="64, 64, 1, 1" size="16384"/>
			<rt_info>
				<attribute name="fused_names" value="1376" version="0"/>
			</rt_info>
			<output>
				<port id="0" names="1376" precision="FP32">
					<dim>64</dim>
					<dim>64</dim>
					<dim>1</dim>
					<dim>1</dim>
				</port>
			</output>
		</layer>
		<layer id="72" name="Convolution_854" type="Convolution" version="opset1">
			<data auto_pad="explicit" dilations="1, 1" pads_begin="0, 0" pads_end="0, 0" strides="1, 1"/>
			<rt_info>
				<attribute name="fused_names" value="Convolution_854" version="0"/>
			</rt_info>
			<input>
				<port id="0" precision="FP32">
					<dim>1</dim>
					<dim>64</dim>
					<dim>16</dim>
					<dim>64</dim>
				</port>
				<port id="1" precision="FP32">
					<dim>64</dim>
					<dim>64</dim>
					<dim>1</dim>
					<dim>1</dim>
				</port>
			</input>
			<output>
				<port id="2" precision="FP32">
					<dim>1</dim>
					<dim>64</dim>
					<dim>16</dim>
					<dim>64</dim>
				</port>
			</output>
		</layer>
		<layer id="73" name="Reshape_874" type="Const" version="opset1">
			<data element_type="f32" offset="530256" shape="1, 64, 1, 1" size="256"/>
			<output>
				<port id="0" precision="FP32">
					<dim>1</dim>
					<dim>64</dim>
					<dim>1</dim>
					<dim>1</dim>
				</port>
			</output>
		</layer>
		<layer id="74" name="1375" type="Add" version="opset1">
			<data auto_broadcast="numpy"/>
			<rt_info>
				<attribute name="fused_names" value="1375, Concat_873, Constant_857, Reshape_874" version="0"/>
			</rt_info>
			<input>
				<port id="0" precision="FP32">
					<dim>1</dim>
					<dim>64</dim>
					<dim>16</dim>
					<dim>64</dim>
				</port>
				<port id="1" precision="FP32">
					<dim>1</dim>
					<dim>64</dim>
					<dim>1</dim>
					<dim>1</dim>
				</port>
			</input>
			<output>
				<port id="2" names="1375" precision="FP32">
					<dim>1</dim>
					<dim>64</dim>
					<dim>16</dim>
					<dim>64</dim>
				</port>
			</output>
		</layer>
		<layer id="75" name="477" type="ReLU" version="opset1">
			<rt_info>
				<attribute name="fused_names" value="477" version="0"/>
			</rt_info>
			<input>
				<port id="0" precision="FP32">
					<dim>1</dim>
					<dim>64</dim>
					<dim>16</dim>
					<dim>64</dim>
				</port>
			</input>
			<output>
				<port id="1" names="477" precision="FP32">
					<dim>1</dim>
					<dim>64</dim>
					<dim>16</dim>
					<dim>64</dim>
				</port>
			</output>
		</layer>
		<layer id="76" name="1379" type="Const" version="opset1">
			<data element_type="f32" offset="530512" shape="64, 64, 3, 3" size="147456"/>
			<rt_info>
				<attribute name="fused_names" value="1379" version="0"/>
			</rt_info>
			<output>
				<port id="0" names="1379" precision="FP32">
					<dim>64</dim>
					<dim>64</dim>
					<dim>3</dim>
					<dim>3</dim>
				</port>
			</output>
		</layer>
		<layer id="77" name="Convolution_903" type="Convolution" version="opset1">
			<data auto_pad="explicit" dilations="1, 1" pads_begin="1, 1" pads_end="1, 1" strides="1, 1"/>
			<rt_info>
				<attribute name="fused_names" value="Convolution_903" version="0"/>
			</rt_info>
			<input>
				<port id="0" precision="FP32">
					<dim>1</dim>
					<dim>64</dim>
					<dim>16</dim>
					<dim>64</dim>
				</port>
				<port id="1" precision="FP32">
					<dim>64</dim>
					<dim>64</dim>
					<dim>3</dim>
					<dim>3</dim>
				</port>
			</input>
			<output>
				<port id="2" precision="FP32">
					<dim>1</dim>
					<dim>64</dim>
					<dim>16</dim>
					<dim>64</dim>
				</port>
			</output>
		</layer>
		<layer id="78" name="Reshape_923" type="Const" version="opset1">
			<data element_type="f32" offset="677968" shape="1, 64, 1, 1" size="256"/>
			<output>
				<port id="0" precision="FP32">
					<dim>1</dim>
					<dim>64</dim>
					<dim>1</dim>
					<dim>1</dim>
				</port>
			</output>
		</layer>
		<layer id="79" name="1378" type="Add" version="opset1">
			<data auto_broadcast="numpy"/>
			<rt_info>
				<attribute name="fused_names" value="1378, Concat_922, Constant_906, Reshape_923" version="0"/>
			</rt_info>
			<input>
				<port id="0" precision="FP32">
					<dim>1</dim>
					<dim>64</dim>
					<dim>16</dim>
					<dim>64</dim>
				</port>
				<port id="1" precision="FP32">
					<dim>1</dim>
					<dim>64</dim>
					<dim>1</dim>
					<dim>1</dim>
				</port>
			</input>
			<output>
				<port id="2" names="1378" precision="FP32">
					<dim>1</dim>
					<dim>64</dim>
					<dim>16</dim>
					<dim>64</dim>
				</port>
			</output>
		</layer>
		<layer id="80" name="480" type="Add" version="opset1">
			<data auto_broadcast="numpy"/>
			<rt_info>
				<attribute name="fused_names" value="480" version="0"/>
			</rt_info>
			<input>
				<port id="0" precision="FP32">
					<dim>1</dim>
					<dim>64</dim>
					<dim>16</dim>
					<dim>64</dim>
				</port>
				<port id="1" precision="FP32">
					<dim>1</dim>
					<dim>64</dim>
					<dim>16</dim>
					<dim>64</dim>
				</port>
			</input>
			<output>
				<port id="2" names="480" precision="FP32">
					<dim>1</dim>
					<dim>64</dim>
					<dim>16</dim>
					<dim>64</dim>
				</port>
			</output>
		</layer>
		<layer id="81" name="481" type="ReLU" version="opset1">
			<rt_info>
				<attribute name="fused_names" value="481" version="0"/>
			</rt_info>
			<input>
				<port id="0" precision="FP32">
					<dim>1</dim>
					<dim>64</dim>
					<dim>16</dim>
					<dim>64</dim>
				</port>
			</input>
			<output>
				<port id="1" names="481" precision="FP32">
					<dim>1</dim>
					<dim>64</dim>
					<dim>16</dim>
					<dim>64</dim>
				</port>
			</output>
		</layer>
		<layer id="82" name="1382" type="Const" version="opset1">
			<data element_type="f32" offset="678224" shape="64, 64, 1, 1" size="16384"/>
			<rt_info>
				<attribute name="fused_names" value="1382" version="0"/>
			</rt_info>
			<output>
				<port id="0" names="1382" precision="FP32">
					<dim>64</dim>
					<dim>64</dim>
					<dim>1</dim>
					<dim>1</dim>
				</port>
			</output>
		</layer>
		<layer id="83" name="Convolution_953" type="Convolution" version="opset1">
			<data auto_pad="explicit" dilations="1, 1" pads_begin="0, 0" pads_end="0, 0" strides="1, 1"/>
			<rt_info>
				<attribute name="fused_names" value="Convolution_953" version="0"/>
			</rt_info>
			<input>
				<port id="0" precision="FP32">
					<dim>1</dim>
					<dim>64</dim>
					<dim>16</dim>
					<dim>64</dim>
				</port>
				<port id="1" precision="FP32">
					<dim>64</dim>
					<dim>64</dim>
					<dim>1</dim>
					<dim>1</dim>
				</port>
			</input>
			<output>
				<port id="2" precision="FP32">
					<dim>1</dim>
					<dim>64</dim>
					<dim>16</dim>
					<dim>64</dim>
				</port>
			</output>
		</layer>
		<layer id="84" name="Reshape_973" type="Const" version="opset1">
			<data element_type="f32" offset="694608" shape="1, 64, 1, 1" size="256"/>
			<output>
				<port id="0" precision="FP32">
					<dim>1</dim>
					<dim>64</dim>
					<dim>1</dim>
					<dim>1</dim>
				</port>
			</output>
		</layer>
		<layer id="85" name="1381" type="Add" version="opset1">
			<data auto_broadcast="numpy"/>
			<rt_info>
				<attribute name="fused_names" value="1381, Concat_972, Constant_956, Reshape_973" version="0"/>
			</rt_info>
			<input>
				<port id="0" precision="FP32">
					<dim>1</dim>
					<dim>64</dim>
					<dim>16</dim>
					<dim>64</dim>
				</port>
				<port id="1" precision="FP32">
					<dim>1</dim>
					<dim>64</dim>
					<dim>1</dim>
					<dim>1</dim>
				</port>
			</input>
			<output>
				<port id="2" names="1381" precision="FP32">
					<dim>1</dim>
					<dim>64</dim>
					<dim>16</dim>
					<dim>64</dim>
				</port>
			</output>
		</layer>
		<layer id="86" name="484" type="ReLU" version="opset1">
			<rt_info>
				<attribute name="fused_names" value="484" version="0"/>
			</rt_info>
			<input>
				<port id="0" precision="FP32">
					<dim>1</dim>
					<dim>64</dim>
					<dim>16</dim>
					<dim>64</dim>
				</port>
			</input>
			<output>
				<port id="1" names="484" precision="FP32">
					<dim>1</dim>
					<dim>64</dim>
					<dim>16</dim>
					<dim>64</dim>
				</port>
			</output>
		</layer>
		<layer id="87" name="1385" type="Const" version="opset1">
			<data element_type="f32" offset="694864" shape="64, 64, 3, 3" size="147456"/>
			<rt_info>
				<attribute name="fused_names" value="1385" version="0"/>
			</rt_info>
			<output>
				<port id="0" names="1385" precision="FP32">
					<dim>64</dim>
					<dim>64</dim>
					<dim>3</dim>
					<dim>3</dim>
				</port>
			</output>
		</layer>
		<layer id="88" name="Convolution_1002" type="Convolution" version="opset1">
			<data auto_pad="explicit" dilations="1, 1" pads_begin="1, 1" pads_end="1, 1" strides="1, 1"/>
			<rt_info>
				<attribute name="fused_names" value="Convolution_1002" version="0"/>
			</rt_info>
			<input>
				<port id="0" precision="FP32">
					<dim>1</dim>
					<dim>64</dim>
					<dim>16</dim>
					<dim>64</dim>
				</port>
				<port id="1" precision="FP32">
					<dim>64</dim>
					<dim>64</dim>
					<dim>3</dim>
					<dim>3</dim>
				</port>
			</input>
			<output>
				<port id="2" precision="FP32">
					<dim>1</dim>
					<dim>64</dim>
					<dim>16</dim>
					<dim>64</dim>
				</port>
			</output>
		</layer>
		<layer id="89" name="Reshape_1022" type="Const" version="opset1">
			<data element_type="f32" offset="842320" shape="1, 64, 1, 1" size="256"/>
			<output>
				<port id="0" precision="FP32">
					<dim>1</dim>
					<dim>64</dim>
					<dim>1</dim>
					<dim>1</dim>
				</port>
			</output>
		</layer>
		<layer id="90" name="1384" type="Add" version="opset1">
			<data auto_broadcast="numpy"/>
			<rt_info>
				<attribute name="fused_names" value="1384, Concat_1021, Constant_1005, Reshape_1022" version="0"/>
			</rt_info>
			<input>
				<port id="0" precision="FP32">
					<dim>1</dim>
					<dim>64</dim>
					<dim>16</dim>
					<dim>64</dim>
				</port>
				<port id="1" precision="FP32">
					<dim>1</dim>
					<dim>64</dim>
					<dim>1</dim>
					<dim>1</dim>
				</port>
			</input>
			<output>
				<port id="2" names="1384" precision="FP32">
					<dim>1</dim>
					<dim>64</dim>
					<dim>16</dim>
					<dim>64</dim>
				</port>
			</output>
		</layer>
		<layer id="91" name="487" type="Add" version="opset1">
			<data auto_broadcast="numpy"/>
			<rt_info>
				<attribute name="fused_names" value="487" version="0"/>
			</rt_info>
			<input>
				<port id="0" precision="FP32">
					<dim>1</dim>
					<dim>64</dim>
					<dim>16</dim>
					<dim>64</dim>
				</port>
				<port id="1" precision="FP32">
					<dim>1</dim>
					<dim>64</dim>
					<dim>16</dim>
					<dim>64</dim>
				</port>
			</input>
			<output>
				<port id="2" names="487" precision="FP32">
					<dim>1</dim>
					<dim>64</dim>
					<dim>16</dim>
					<dim>64</dim>
				</port>
			</output>
		</layer>
		<layer id="92" name="488" type="ReLU" version="opset1">
			<rt_info>
				<attribute name="fused_names" value="488" version="0"/>
			</rt_info>
			<input>
				<port id="0" precision="FP32">
					<dim>1</dim>
					<dim>64</dim>
					<dim>16</dim>
					<dim>64</dim>
				</port>
			</input>
			<output>
				<port id="1" names="488" precision="FP32">
					<dim>1</dim>
					<dim>64</dim>
					<dim>16</dim>
					<dim>64</dim>
				</port>
			</output>
		</layer>
		<layer id="93" name="1388" type="Const" version="opset1">
			<data element_type="f32" offset="842576" shape="128, 64, 1, 1" size="32768"/>
			<rt_info>
				<attribute name="fused_names" value="1388" version="0"/>
			</rt_info>
			<output>
				<port id="0" names="1388" precision="FP32">
					<dim>128</dim>
					<dim>64</dim>
					<dim>1</dim>
					<dim>1</dim>
				</port>
			</output>
		</layer>
		<layer id="94" name="Convolution_1052" type="Convolution" version="opset1">
			<data auto_pad="explicit" dilations="1, 1" pads_begin="0, 0" pads_end="0, 0" strides="1, 1"/>
			<rt_info>
				<attribute name="fused_names" value="Convolution_1052" version="0"/>
			</rt_info>
			<input>
				<port id="0" precision="FP32">
					<dim>1</dim>
					<dim>64</dim>
					<dim>16</dim>
					<dim>64</dim>
				</port>
				<port id="1" precision="FP32">
					<dim>128</dim>
					<dim>64</dim>
					<dim>1</dim>
					<dim>1</dim>
				</port>
			</input>
			<output>
				<port id="2" precision="FP32">
					<dim>1</dim>
					<dim>128</dim>
					<dim>16</dim>
					<dim>64</dim>
				</port>
			</output>
		</layer>
		<layer id="95" name="Reshape_1072" type="Const" version="opset1">
			<data element_type="f32" offset="875344" shape="1, 128, 1, 1" size="512"/>
			<output>
				<port id="0" precision="FP32">
					<dim>1</dim>
					<dim>128</dim>
					<dim>1</dim>
					<dim>1</dim>
				</port>
			</output>
		</layer>
		<layer id="96" name="1387" type="Add" version="opset1">
			<data auto_broadcast="numpy"/>
			<rt_info>
				<attribute name="fused_names" value="1387, Concat_1071, Constant_1055, Reshape_1072" version="0"/>
			</rt_info>
			<input>
				<port id="0" precision="FP32">
					<dim>1</dim>
					<dim>128</dim>
					<dim>16</dim>
					<dim>64</dim>
				</port>
				<port id="1" precision="FP32">
					<dim>1</dim>
					<dim>128</dim>
					<dim>1</dim>
					<dim>1</dim>
				</port>
			</input>
			<output>
				<port id="2" names="1387" precision="FP32">
					<dim>1</dim>
					<dim>128</dim>
					<dim>16</dim>
					<dim>64</dim>
				</port>
			</output>
		</layer>
		<layer id="97" name="491" type="ReLU" version="opset1">
			<rt_info>
				<attribute name="fused_names" value="491" version="0"/>
			</rt_info>
			<input>
				<port id="0" precision="FP32">
					<dim>1</dim>
					<dim>128</dim>
					<dim>16</dim>
					<dim>64</dim>
				</port>
			</input>
			<output>
				<port id="1" names="491" precision="FP32">
					<dim>1</dim>
					<dim>128</dim>
					<dim>16</dim>
					<dim>64</dim>
				</port>
			</output>
		</layer>
		<layer id="98" name="1391" type="Const" version="opset1">
			<data element_type="f32" offset="875856" shape="128, 128, 3, 3" size="589824"/>
			<rt_info>
				<attribute name="fused_names" value="1391" version="0"/>
			</rt_info>
			<output>
				<port id="0" names="1391" precision="FP32">
					<dim>128</dim>
					<dim>128</dim>
					<dim>3</dim>
					<dim>3</dim>
				</port>
			</output>
		</layer>
		<layer id="99" name="Convolution_1101" type="Convolution" version="opset1">
			<data auto_pad="explicit" dilations="1, 1" pads_begin="1, 1" pads_end="1, 1" strides="2, 2"/>
			<rt_info>
				<attribute name="fused_names" value="Convolution_1101" version="0"/>
			</rt_info>
			<input>
				<port id="0" precision="FP32">
					<dim>1</dim>
					<dim>128</dim>
					<dim>16</dim>
					<dim>64</dim>
				</port>
				<port id="1" precision="FP32">
					<dim>128</dim>
					<dim>128</dim>
					<dim>3</dim>
					<dim>3</dim>
				</port>
			</input>
			<output>
				<port id="2" precision="FP32">
					<dim>1</dim>
					<dim>128</dim>
					<dim>8</dim>
					<dim>32</dim>
				</port>
			</output>
		</layer>
		<layer id="100" name="Reshape_1121" type="Const" version="opset1">
			<data element_type="f32" offset="1465680" shape="1, 128, 1, 1" size="512"/>
			<output>
				<port id="0" precision="FP32">
					<dim>1</dim>
					<dim>128</dim>
					<dim>1</dim>
					<dim>1</dim>
				</port>
			</output>
		</layer>
		<layer id="101" name="1390" type="Add" version="opset1">
			<data auto_broadcast="numpy"/>
			<rt_info>
				<attribute name="fused_names" value="1390, Concat_1120, Constant_1104, Reshape_1121" version="0"/>
			</rt_info>
			<input>
				<port id="0" precision="FP32">
					<dim>1</dim>
					<dim>128</dim>
					<dim>8</dim>
					<dim>32</dim>
				</port>
				<port id="1" precision="FP32">
					<dim>1</dim>
					<dim>128</dim>
					<dim>1</dim>
					<dim>1</dim>
				</port>
			</input>
			<output>
				<port id="2" names="1390" precision="FP32">
					<dim>1</dim>
					<dim>128</dim>
					<dim>8</dim>
					<dim>32</dim>
				</port>
			</output>
		</layer>
		<layer id="102" name="1394" type="Const" version="opset1">
			<data element_type="f32" offset="1466192" shape="128, 64, 1, 1" size="32768"/>
			<rt_info>
				<attribute name="fused_names" value="1394" version="0"/>
			</rt_info>
			<output>
				<port id="0" names="1394" precision="FP32">
					<dim>128</dim>
					<dim>64</dim>
					<dim>1</dim>
					<dim>1</dim>
				</port>
			</output>
		</layer>
		<layer id="103" name="Convolution_1149" type="Convolution" version="opset1">
			<data auto_pad="explicit" dilations="1, 1" pads_begin="0, 0" pads_end="0, 0" strides="2, 2"/>
			<rt_info>
				<attribute name="fused_names" value="Convolution_1149" version="0"/>
			</rt_info>
			<input>
				<port id="0" precision="FP32">
					<dim>1</dim>
					<dim>64</dim>
					<dim>16</dim>
					<dim>64</dim>
				</port>
				<port id="1" precision="FP32">
					<dim>128</dim>
					<dim>64</dim>
					<dim>1</dim>
					<dim>1</dim>
				</port>
			</input>
			<output>
				<port id="2" precision="FP32">
					<dim>1</dim>
					<dim>128</dim>
					<dim>8</dim>
					<dim>32</dim>
				</port>
			</output>
		</layer>
		<layer id="104" name="Reshape_1169" type="Const" version="opset1">
			<data element_type="f32" offset="1498960" shape="1, 128, 1, 1" size="512"/>
			<output>
				<port id="0" precision="FP32">
					<dim>1</dim>
					<dim>128</dim>
					<dim>1</dim>
					<dim>1</dim>
				</port>
			</output>
		</layer>
		<layer id="105" name="1393" type="Add" version="opset1">
			<data auto_broadcast="numpy"/>
			<rt_info>
				<attribute name="fused_names" value="1393, Concat_1168, Constant_1152, Reshape_1169" version="0"/>
			</rt_info>
			<input>
				<port id="0" precision="FP32">
					<dim>1</dim>
					<dim>128</dim>
					<dim>8</dim>
					<dim>32</dim>
				</port>
				<port id="1" precision="FP32">
					<dim>1</dim>
					<dim>128</dim>
					<dim>1</dim>
					<dim>1</dim>
				</port>
			</input>
			<output>
				<port id="2" names="1393" precision="FP32">
					<dim>1</dim>
					<dim>128</dim>
					<dim>8</dim>
					<dim>32</dim>
				</port>
			</output>
		</layer>
		<layer id="106" name="496" type="Add" version="opset1">
			<data auto_broadcast="numpy"/>
			<rt_info>
				<attribute name="fused_names" value="496" version="0"/>
			</rt_info>
			<input>
				<port id="0" precision="FP32">
					<dim>1</dim>
					<dim>128</dim>
					<dim>8</dim>
					<dim>32</dim>
				</port>
				<port id="1" precision="FP32">
					<dim>1</dim>
					<dim>128</dim>
					<dim>8</dim>
					<dim>32</dim>
				</port>
			</input>
			<output>
				<port id="2" names="496" precision="FP32">
					<dim>1</dim>
					<dim>128</dim>
					<dim>8</dim>
					<dim>32</dim>
				</port>
			</output>
		</layer>
		<layer id="107" name="497" type="ReLU" version="opset1">
			<rt_info>
				<attribute name="fused_names" value="497" version="0"/>
			</rt_info>
			<input>
				<port id="0" precision="FP32">
					<dim>1</dim>
					<dim>128</dim>
					<dim>8</dim>
					<dim>32</dim>
				</port>
			</input>
			<output>
				<port id="1" names="497" precision="FP32">
					<dim>1</dim>
					<dim>128</dim>
					<dim>8</dim>
					<dim>32</dim>
				</port>
			</output>
		</layer>
		<layer id="108" name="1397" type="Const" version="opset1">
			<data element_type="f32" offset="1499472" shape="128, 128, 1, 1" size="65536"/>
			<rt_info>
				<attribute name="fused_names" value="1397" version="0"/>
			</rt_info>
			<output>
				<port id="0" names="1397" precision="FP32">
					<dim>128</dim>
					<dim>128</dim>
					<dim>1</dim>
					<dim>1</dim>
				</port>
			</output>
		</layer>
		<layer id="109" name="Convolution_1199" type="Convolution" version="opset1">
			<data auto_pad="explicit" dilations="1, 1" pads_begin="0, 0" pads_end="0, 0" strides="1, 1"/>
			<rt_info>
				<attribute name="fused_names" value="Convolution_1199" version="0"/>
			</rt_info>
			<input>
				<port id="0" precision="FP32">
					<dim>1</dim>
					<dim>128</dim>
					<dim>8</dim>
					<dim>32</dim>
				</port>
				<port id="1" precision="FP32">
					<dim>128</dim>
					<dim>128</dim>
					<dim>1</dim>
					<dim>1</dim>
				</port>
			</input>
			<output>
				<port id="2" precision="FP32">
					<dim>1</dim>
					<dim>128</dim>
					<dim>8</dim>
					<dim>32</dim>
				</port>
			</output>
		</layer>
		<layer id="110" name="Reshape_1219" type="Const" version="opset1">
			<data element_type="f32" offset="1565008" shape="1, 128, 1, 1" size="512"/>
			<output>
				<port id="0" precision="FP32">
					<dim>1</dim>
					<dim>128</dim>
					<dim>1</dim>
					<dim>1</dim>
				</port>
			</output>
		</layer>
		<layer id="111" name="1396" type="Add" version="opset1">
			<data auto_broadcast="numpy"/>
			<rt_info>
				<attribute name="fused_names" value="1396, Concat_1218, Constant_1202, Reshape_1219" version="0"/>
			</rt_info>
			<input>
				<port id="0" precision="FP32">
					<dim>1</dim>
					<dim>128</dim>
					<dim>8</dim>
					<dim>32</dim>
				</port>
				<port id="1" precision="FP32">
					<dim>1</dim>
					<dim>128</dim>
					<dim>1</dim>
					<dim>1</dim>
				</port>
			</input>
			<output>
				<port id="2" names="1396" precision="FP32">
					<dim>1</dim>
					<dim>128</dim>
					<dim>8</dim>
					<dim>32</dim>
				</port>
			</output>
		</layer>
		<layer id="112" name="500" type="ReLU" version="opset1">
			<rt_info>
				<attribute name="fused_names" value="500" version="0"/>
			</rt_info>
			<input>
				<port id="0" precision="FP32">
					<dim>1</dim>
					<dim>128</dim>
					<dim>8</dim>
					<dim>32</dim>
				</port>
			</input>
			<output>
				<port id="1" names="500" precision="FP32">
					<dim>1</dim>
					<dim>128</dim>
					<dim>8</dim>
					<dim>32</dim>
				</port>
			</output>
		</layer>
		<layer id="113" name="1400" type="Const" version="opset1">
			<data element_type="f32" offset="1565520" shape="128, 128, 3, 3" size="589824"/>
			<rt_info>
				<attribute name="fused_names" value="1400" version="0"/>
			</rt_info>
			<output>
				<port id="0" names="1400" precision="FP32">
					<dim>128</dim>
					<dim>128</dim>
					<dim>3</dim>
					<dim>3</dim>
				</port>
			</output>
		</layer>
		<layer id="114" name="Convolution_1248" type="Convolution" version="opset1">
			<data auto_pad="explicit" dilations="1, 1" pads_begin="1, 1" pads_end="1, 1" strides="1, 1"/>
			<rt_info>
				<attribute name="fused_names" value="Convolution_1248" version="0"/>
			</rt_info>
			<input>
				<port id="0" precision="FP32">
					<dim>1</dim>
					<dim>128</dim>
					<dim>8</dim>
					<dim>32</dim>
				</port>
				<port id="1" precision="FP32">
					<dim>128</dim>
					<dim>128</dim>
					<dim>3</dim>
					<dim>3</dim>
				</port>
			</input>
			<output>
				<port id="2" precision="FP32">
					<dim>1</dim>
					<dim>128</dim>
					<dim>8</dim>
					<dim>32</dim>
				</port>
			</output>
		</layer>
		<layer id="115" name="Reshape_1268" type="Const" version="opset1">
			<data element_type="f32" offset="2155344" shape="1, 128, 1, 1" size="512"/>
			<output>
				<port id="0" precision="FP32">
					<dim>1</dim>
					<dim>128</dim>
					<dim>1</dim>
					<dim>1</dim>
				</port>
			</output>
		</layer>
		<layer id="116" name="1399" type="Add" version="opset1">
			<data auto_broadcast="numpy"/>
			<rt_info>
				<attribute name="fused_names" value="1399, Concat_1267, Constant_1251, Reshape_1268" version="0"/>
			</rt_info>
			<input>
				<port id="0" precision="FP32">
					<dim>1</dim>
					<dim>128</dim>
					<dim>8</dim>
					<dim>32</dim>
				</port>
				<port id="1" precision="FP32">
					<dim>1</dim>
					<dim>128</dim>
					<dim>1</dim>
					<dim>1</dim>
				</port>
			</input>
			<output>
				<port id="2" names="1399" precision="FP32">
					<dim>1</dim>
					<dim>128</dim>
					<dim>8</dim>
					<dim>32</dim>
				</port>
			</output>
		</layer>
		<layer id="117" name="503" type="Add" version="opset1">
			<data auto_broadcast="numpy"/>
			<rt_info>
				<attribute name="fused_names" value="503" version="0"/>
			</rt_info>
			<input>
				<port id="0" precision="FP32">
					<dim>1</dim>
					<dim>128</dim>
					<dim>8</dim>
					<dim>32</dim>
				</port>
				<port id="1" precision="FP32">
					<dim>1</dim>
					<dim>128</dim>
					<dim>8</dim>
					<dim>32</dim>
				</port>
			</input>
			<output>
				<port id="2" names="503" precision="FP32">
					<dim>1</dim>
					<dim>128</dim>
					<dim>8</dim>
					<dim>32</dim>
				</port>
			</output>
		</layer>
		<layer id="118" name="504" type="ReLU" version="opset1">
			<rt_info>
				<attribute name="fused_names" value="504" version="0"/>
			</rt_info>
			<input>
				<port id="0" precision="FP32">
					<dim>1</dim>
					<dim>128</dim>
					<dim>8</dim>
					<dim>32</dim>
				</port>
			</input>
			<output>
				<port id="1" names="504" precision="FP32">
					<dim>1</dim>
					<dim>128</dim>
					<dim>8</dim>
					<dim>32</dim>
				</port>
			</output>
		</layer>
		<layer id="119" name="1403" type="Const" version="opset1">
			<data element_type="f32" offset="2155856" shape="128, 128, 1, 1" size="65536"/>
			<rt_info>
				<attribute name="fused_names" value="1403" version="0"/>
			</rt_info>
			<output>
				<port id="0" names="1403" precision="FP32">
					<dim>128</dim>
					<dim>128</dim>
					<dim>1</dim>
					<dim>1</dim>
				</port>
			</output>
		</layer>
		<layer id="120" name="Convolution_1298" type="Convolution" version="opset1">
			<data auto_pad="explicit" dilations="1, 1" pads_begin="0, 0" pads_end="0, 0" strides="1, 1"/>
			<rt_info>
				<attribute name="fused_names" value="Convolution_1298" version="0"/>
			</rt_info>
			<input>
				<port id="0" precision="FP32">
					<dim>1</dim>
					<dim>128</dim>
					<dim>8</dim>
					<dim>32</dim>
				</port>
				<port id="1" precision="FP32">
					<dim>128</dim>
					<dim>128</dim>
					<dim>1</dim>
					<dim>1</dim>
				</port>
			</input>
			<output>
				<port id="2" precision="FP32">
					<dim>1</dim>
					<dim>128</dim>
					<dim>8</dim>
					<dim>32</dim>
				</port>
			</output>
		</layer>
		<layer id="121" name="Reshape_1318" type="Const" version="opset1">
			<data element_type="f32" offset="2221392" shape="1, 128, 1, 1" size="512"/>
			<output>
				<port id="0" precision="FP32">
					<dim>1</dim>
					<dim>128</dim>
					<dim>1</dim>
					<dim>1</dim>
				</port>
			</output>
		</layer>
		<layer id="122" name="1402" type="Add" version="opset1">
			<data auto_broadcast="numpy"/>
			<rt_info>
				<attribute name="fused_names" value="1402, Concat_1317, Constant_1301, Reshape_1318" version="0"/>
			</rt_info>
			<input>
				<port id="0" precision="FP32">
					<dim>1</dim>
					<dim>128</dim>
					<dim>8</dim>
					<dim>32</dim>
				</port>
				<port id="1" precision="FP32">
					<dim>1</dim>
					<dim>128</dim>
					<dim>1</dim>
					<dim>1</dim>
				</port>
			</input>
			<output>
				<port id="2" names="1402" precision="FP32">
					<dim>1</dim>
					<dim>128</dim>
					<dim>8</dim>
					<dim>32</dim>
				</port>
			</output>
		</layer>
		<layer id="123" name="507" type="ReLU" version="opset1">
			<rt_info>
				<attribute name="fused_names" value="507" version="0"/>
			</rt_info>
			<input>
				<port id="0" precision="FP32">
					<dim>1</dim>
					<dim>128</dim>
					<dim>8</dim>
					<dim>32</dim>
				</port>
			</input>
			<output>
				<port id="1" names="507" precision="FP32">
					<dim>1</dim>
					<dim>128</dim>
					<dim>8</dim>
					<dim>32</dim>
				</port>
			</output>
		</layer>
		<layer id="124" name="1406" type="Const" version="opset1">
			<data element_type="f32" offset="2221904" shape="128, 128, 3, 3" size="589824"/>
			<rt_info>
				<attribute name="fused_names" value="1406" version="0"/>
			</rt_info>
			<output>
				<port id="0" names="1406" precision="FP32">
					<dim>128</dim>
					<dim>128</dim>
					<dim>3</dim>
					<dim>3</dim>
				</port>
			</output>
		</layer>
		<layer id="125" name="Convolution_1347" type="Convolution" version="opset1">
			<data auto_pad="explicit" dilations="1, 1" pads_begin="1, 1" pads_end="1, 1" strides="1, 1"/>
			<rt_info>
				<attribute name="fused_names" value="Convolution_1347" version="0"/>
			</rt_info>
			<input>
				<port id="0" precision="FP32">
					<dim>1</dim>
					<dim>128</dim>
					<dim>8</dim>
					<dim>32</dim>
				</port>
				<port id="1" precision="FP32">
					<dim>128</dim>
					<dim>128</dim>
					<dim>3</dim>
					<dim>3</dim>
				</port>
			</input>
			<output>
				<port id="2" precision="FP32">
					<dim>1</dim>
					<dim>128</dim>
					<dim>8</dim>
					<dim>32</dim>
				</port>
			</output>
		</layer>
		<layer id="126" name="Reshape_1367" type="Const" version="opset1">
			<data element_type="f32" offset="2811728" shape="1, 128, 1, 1" size="512"/>
			<output>
				<port id="0" precision="FP32">
					<dim>1</dim>
					<dim>128</dim>
					<dim>1</dim>
					<dim>1</dim>
				</port>
			</output>
		</layer>
		<layer id="127" name="1405" type="Add" version="opset1">
			<data auto_broadcast="numpy"/>
			<rt_info>
				<attribute name="fused_names" value="1405, Concat_1366, Constant_1350, Reshape_1367" version="0"/>
			</rt_info>
			<input>
				<port id="0" precision="FP32">
					<dim>1</dim>
					<dim>128</dim>
					<dim>8</dim>
					<dim>32</dim>
				</port>
				<port id="1" precision="FP32">
					<dim>1</dim>
					<dim>128</dim>
					<dim>1</dim>
					<dim>1</dim>
				</port>
			</input>
			<output>
				<port id="2" names="1405" precision="FP32">
					<dim>1</dim>
					<dim>128</dim>
					<dim>8</dim>
					<dim>32</dim>
				</port>
			</output>
		</layer>
		<layer id="128" name="510" type="Add" version="opset1">
			<data auto_broadcast="numpy"/>
			<rt_info>
				<attribute name="fused_names" value="510" version="0"/>
			</rt_info>
			<input>
				<port id="0" precision="FP32">
					<dim>1</dim>
					<dim>128</dim>
					<dim>8</dim>
					<dim>32</dim>
				</port>
				<port id="1" precision="FP32">
					<dim>1</dim>
					<dim>128</dim>
					<dim>8</dim>
					<dim>32</dim>
				</port>
			</input>
			<output>
				<port id="2" names="510" precision="FP32">
					<dim>1</dim>
					<dim>128</dim>
					<dim>8</dim>
					<dim>32</dim>
				</port>
			</output>
		</layer>
		<layer id="129" name="511" type="ReLU" version="opset1">
			<rt_info>
				<attribute name="fused_names" value="511" version="0"/>
			</rt_info>
			<input>
				<port id="0" precision="FP32">
					<dim>1</dim>
					<dim>128</dim>
					<dim>8</dim>
					<dim>32</dim>
				</port>
			</input>
			<output>
				<port id="1" names="511" precision="FP32">
					<dim>1</dim>
					<dim>128</dim>
					<dim>8</dim>
					<dim>32</dim>
				</port>
			</output>
		</layer>
		<layer id="130" name="1409" type="Const" version="opset1">
			<data element_type="f32" offset="2812240" shape="128, 128, 1, 1" size="65536"/>
			<rt_info>
				<attribute name="fused_names" value="1409" version="0"/>
			</rt_info>
			<output>
				<port id="0" names="1409" precision="FP32">
					<dim>128</dim>
					<dim>128</dim>
					<dim>1</dim>
					<dim>1</dim>
				</port>
			</output>
		</layer>
		<layer id="131" name="Convolution_1397" type="Convolution" version="opset1">
			<data auto_pad="explicit" dilations="1, 1" pads_begin="0, 0" pads_end="0, 0" strides="1, 1"/>
			<rt_info>
				<attribute name="fused_names" value="Convolution_1397" version="0"/>
			</rt_info>
			<input>
				<port id="0" precision="FP32">
					<dim>1</dim>
					<dim>128</dim>
					<dim>8</dim>
					<dim>32</dim>
				</port>
				<port id="1" precision="FP32">
					<dim>128</dim>
					<dim>128</dim>
					<dim>1</dim>
					<dim>1</dim>
				</port>
			</input>
			<output>
				<port id="2" precision="FP32">
					<dim>1</dim>
					<dim>128</dim>
					<dim>8</dim>
					<dim>32</dim>
				</port>
			</output>
		</layer>
		<layer id="132" name="Reshape_1417" type="Const" version="opset1">
			<data element_type="f32" offset="2877776" shape="1, 128, 1, 1" size="512"/>
			<output>
				<port id="0" precision="FP32">
					<dim>1</dim>
					<dim>128</dim>
					<dim>1</dim>
					<dim>1</dim>
				</port>
			</output>
		</layer>
		<layer id="133" name="1408" type="Add" version="opset1">
			<data auto_broadcast="numpy"/>
			<rt_info>
				<attribute name="fused_names" value="1408, Concat_1416, Constant_1400, Reshape_1417" version="0"/>
			</rt_info>
			<input>
				<port id="0" precision="FP32">
					<dim>1</dim>
					<dim>128</dim>
					<dim>8</dim>
					<dim>32</dim>
				</port>
				<port id="1" precision="FP32">
					<dim>1</dim>
					<dim>128</dim>
					<dim>1</dim>
					<dim>1</dim>
				</port>
			</input>
			<output>
				<port id="2" names="1408" precision="FP32">
					<dim>1</dim>
					<dim>128</dim>
					<dim>8</dim>
					<dim>32</dim>
				</port>
			</output>
		</layer>
		<layer id="134" name="514" type="ReLU" version="opset1">
			<rt_info>
				<attribute name="fused_names" value="514" version="0"/>
			</rt_info>
			<input>
				<port id="0" precision="FP32">
					<dim>1</dim>
					<dim>128</dim>
					<dim>8</dim>
					<dim>32</dim>
				</port>
			</input>
			<output>
				<port id="1" names="514" precision="FP32">
					<dim>1</dim>
					<dim>128</dim>
					<dim>8</dim>
					<dim>32</dim>
				</port>
			</output>
		</layer>
		<layer id="135" name="1412" type="Const" version="opset1">
			<data element_type="f32" offset="2878288" shape="128, 128, 3, 3" size="589824"/>
			<rt_info>
				<attribute name="fused_names" value="1412" version="0"/>
			</rt_info>
			<output>
				<port id="0" names="1412" precision="FP32">
					<dim>128</dim>
					<dim>128</dim>
					<dim>3</dim>
					<dim>3</dim>
				</port>
			</output>
		</layer>
		<layer id="136" name="Convolution_1446" type="Convolution" version="opset1">
			<data auto_pad="explicit" dilations="1, 1" pads_begin="1, 1" pads_end="1, 1" strides="1, 1"/>
			<rt_info>
				<attribute name="fused_names" value="Convolution_1446" version="0"/>
			</rt_info>
			<input>
				<port id="0" precision="FP32">
					<dim>1</dim>
					<dim>128</dim>
					<dim>8</dim>
					<dim>32</dim>
				</port>
				<port id="1" precision="FP32">
					<dim>128</dim>
					<dim>128</dim>
					<dim>3</dim>
					<dim>3</dim>
				</port>
			</input>
			<output>
				<port id="2" precision="FP32">
					<dim>1</dim>
					<dim>128</dim>
					<dim>8</dim>
					<dim>32</dim>
				</port>
			</output>
		</layer>
		<layer id="137" name="Reshape_1466" type="Const" version="opset1">
			<data element_type="f32" offset="3468112" shape="1, 128, 1, 1" size="512"/>
			<output>
				<port id="0" precision="FP32">
					<dim>1</dim>
					<dim>128</dim>
					<dim>1</dim>
					<dim>1</dim>
				</port>
			</output>
		</layer>
		<layer id="138" name="1411" type="Add" version="opset1">
			<data auto_broadcast="numpy"/>
			<rt_info>
				<attribute name="fused_names" value="1411, Concat_1465, Constant_1449, Reshape_1466" version="0"/>
			</rt_info>
			<input>
				<port id="0" precision="FP32">
					<dim>1</dim>
					<dim>128</dim>
					<dim>8</dim>
					<dim>32</dim>
				</port>
				<port id="1" precision="FP32">
					<dim>1</dim>
					<dim>128</dim>
					<dim>1</dim>
					<dim>1</dim>
				</port>
			</input>
			<output>
				<port id="2" names="1411" precision="FP32">
					<dim>1</dim>
					<dim>128</dim>
					<dim>8</dim>
					<dim>32</dim>
				</port>
			</output>
		</layer>
		<layer id="139" name="517" type="Add" version="opset1">
			<data auto_broadcast="numpy"/>
			<rt_info>
				<attribute name="fused_names" value="517" version="0"/>
			</rt_info>
			<input>
				<port id="0" precision="FP32">
					<dim>1</dim>
					<dim>128</dim>
					<dim>8</dim>
					<dim>32</dim>
				</port>
				<port id="1" precision="FP32">
					<dim>1</dim>
					<dim>128</dim>
					<dim>8</dim>
					<dim>32</dim>
				</port>
			</input>
			<output>
				<port id="2" names="517" precision="FP32">
					<dim>1</dim>
					<dim>128</dim>
					<dim>8</dim>
					<dim>32</dim>
				</port>
			</output>
		</layer>
		<layer id="140" name="518" type="ReLU" version="opset1">
			<rt_info>
				<attribute name="fused_names" value="518" version="0"/>
			</rt_info>
			<input>
				<port id="0" precision="FP32">
					<dim>1</dim>
					<dim>128</dim>
					<dim>8</dim>
					<dim>32</dim>
				</port>
			</input>
			<output>
				<port id="1" names="518" precision="FP32">
					<dim>1</dim>
					<dim>128</dim>
					<dim>8</dim>
					<dim>32</dim>
				</port>
			</output>
		</layer>
		<layer id="141" name="1415" type="Const" version="opset1">
			<data element_type="f32" offset="3468624" shape="128, 128, 1, 1" size="65536"/>
			<rt_info>
				<attribute name="fused_names" value="1415" version="0"/>
			</rt_info>
			<output>
				<port id="0" names="1415" precision="FP32">
					<dim>128</dim>
					<dim>128</dim>
					<dim>1</dim>
					<dim>1</dim>
				</port>
			</output>
		</layer>
		<layer id="142" name="Convolution_1496" type="Convolution" version="opset1">
			<data auto_pad="explicit" dilations="1, 1" pads_begin="0, 0" pads_end="0, 0" strides="1, 1"/>
			<rt_info>
				<attribute name="fused_names" value="Convolution_1496" version="0"/>
			</rt_info>
			<input>
				<port id="0" precision="FP32">
					<dim>1</dim>
					<dim>128</dim>
					<dim>8</dim>
					<dim>32</dim>
				</port>
				<port id="1" precision="FP32">
					<dim>128</dim>
					<dim>128</dim>
					<dim>1</dim>
					<dim>1</dim>
				</port>
			</input>
			<output>
				<port id="2" precision="FP32">
					<dim>1</dim>
					<dim>128</dim>
					<dim>8</dim>
					<dim>32</dim>
				</port>
			</output>
		</layer>
		<layer id="143" name="Reshape_1516" type="Const" version="opset1">
			<data element_type="f32" offset="3534160" shape="1, 128, 1, 1" size="512"/>
			<output>
				<port id="0" precision="FP32">
					<dim>1</dim>
					<dim>128</dim>
					<dim>1</dim>
					<dim>1</dim>
				</port>
			</output>
		</layer>
		<layer id="144" name="1414" type="Add" version="opset1">
			<data auto_broadcast="numpy"/>
			<rt_info>
				<attribute name="fused_names" value="1414, Concat_1515, Constant_1499, Reshape_1516" version="0"/>
			</rt_info>
			<input>
				<port id="0" precision="FP32">
					<dim>1</dim>
					<dim>128</dim>
					<dim>8</dim>
					<dim>32</dim>
				</port>
				<port id="1" precision="FP32">
					<dim>1</dim>
					<dim>128</dim>
					<dim>1</dim>
					<dim>1</dim>
				</port>
			</input>
			<output>
				<port id="2" names="1414" precision="FP32">
					<dim>1</dim>
					<dim>128</dim>
					<dim>8</dim>
					<dim>32</dim>
				</port>
			</output>
		</layer>
		<layer id="145" name="521" type="ReLU" version="opset1">
			<rt_info>
				<attribute name="fused_names" value="521" version="0"/>
			</rt_info>
			<input>
				<port id="0" precision="FP32">
					<dim>1</dim>
					<dim>128</dim>
					<dim>8</dim>
					<dim>32</dim>
				</port>
			</input>
			<output>
				<port id="1" names="521" precision="FP32">
					<dim>1</dim>
					<dim>128</dim>
					<dim>8</dim>
					<dim>32</dim>
				</port>
			</output>
		</layer>
		<layer id="146" name="1418" type="Const" version="opset1">
			<data element_type="f32" offset="3534672" shape="128, 128, 3, 3" size="589824"/>
			<rt_info>
				<attribute name="fused_names" value="1418" version="0"/>
			</rt_info>
			<output>
				<port id="0" names="1418" precision="FP32">
					<dim>128</dim>
					<dim>128</dim>
					<dim>3</dim>
					<dim>3</dim>
				</port>
			</output>
		</layer>
		<layer id="147" name="Convolution_1545" type="Convolution" version="opset1">
			<data auto_pad="explicit" dilations="1, 1" pads_begin="1, 1" pads_end="1, 1" strides="1, 1"/>
			<rt_info>
				<attribute name="fused_names" value="Convolution_1545" version="0"/>
			</rt_info>
			<input>
				<port id="0" precision="FP32">
					<dim>1</dim>
					<dim>128</dim>
					<dim>8</dim>
					<dim>32</dim>
				</port>
				<port id="1" precision="FP32">
					<dim>128</dim>
					<dim>128</dim>
					<dim>3</dim>
					<dim>3</dim>
				</port>
			</input>
			<output>
				<port id="2" precision="FP32">
					<dim>1</dim>
					<dim>128</dim>
					<dim>8</dim>
					<dim>32</dim>
				</port>
			</output>
		</layer>
		<layer id="148" name="Reshape_1565" type="Const" version="opset1">
			<data element_type="f32" offset="4124496" shape="1, 128, 1, 1" size="512"/>
			<output>
				<port id="0" precision="FP32">
					<dim>1</dim>
					<dim>128</dim>
					<dim>1</dim>
					<dim>1</dim>
				</port>
			</output>
		</layer>
		<layer id="149" name="1417" type="Add" version="opset1">
			<data auto_broadcast="numpy"/>
			<rt_info>
				<attribute name="fused_names" value="1417, Concat_1564, Constant_1548, Reshape_1565" version="0"/>
			</rt_info>
			<input>
				<port id="0" precision="FP32">
					<dim>1</dim>
					<dim>128</dim>
					<dim>8</dim>
					<dim>32</dim>
				</port>
				<port id="1" precision="FP32">
					<dim>1</dim>
					<dim>128</dim>
					<dim>1</dim>
					<dim>1</dim>
				</port>
			</input>
			<output>
				<port id="2" names="1417" precision="FP32">
					<dim>1</dim>
					<dim>128</dim>
					<dim>8</dim>
					<dim>32</dim>
				</port>
			</output>
		</layer>
		<layer id="150" name="524" type="Add" version="opset1">
			<data auto_broadcast="numpy"/>
			<rt_info>
				<attribute name="fused_names" value="524" version="0"/>
			</rt_info>
			<input>
				<port id="0" precision="FP32">
					<dim>1</dim>
					<dim>128</dim>
					<dim>8</dim>
					<dim>32</dim>
				</port>
				<port id="1" precision="FP32">
					<dim>1</dim>
					<dim>128</dim>
					<dim>8</dim>
					<dim>32</dim>
				</port>
			</input>
			<output>
				<port id="2" names="524" precision="FP32">
					<dim>1</dim>
					<dim>128</dim>
					<dim>8</dim>
					<dim>32</dim>
				</port>
			</output>
		</layer>
		<layer id="151" name="525" type="ReLU" version="opset1">
			<rt_info>
				<attribute name="fused_names" value="525" version="0"/>
			</rt_info>
			<input>
				<port id="0" precision="FP32">
					<dim>1</dim>
					<dim>128</dim>
					<dim>8</dim>
					<dim>32</dim>
				</port>
			</input>
			<output>
				<port id="1" names="525" precision="FP32">
					<dim>1</dim>
					<dim>128</dim>
					<dim>8</dim>
					<dim>32</dim>
				</port>
			</output>
		</layer>
		<layer id="152" name="1421" type="Const" version="opset1">
			<data element_type="f32" offset="4125008" shape="128, 128, 1, 1" size="65536"/>
			<rt_info>
				<attribute name="fused_names" value="1421" version="0"/>
			</rt_info>
			<output>
				<port id="0" names="1421" precision="FP32">
					<dim>128</dim>
					<dim>128</dim>
					<dim>1</dim>
					<dim>1</dim>
				</port>
			</output>
		</layer>
		<layer id="153" name="Convolution_1595" type="Convolution" version="opset1">
			<data auto_pad="explicit" dilations="1, 1" pads_begin="0, 0" pads_end="0, 0" strides="1, 1"/>
			<rt_info>
				<attribute name="fused_names" value="Convolution_1595" version="0"/>
			</rt_info>
			<input>
				<port id="0" precision="FP32">
					<dim>1</dim>
					<dim>128</dim>
					<dim>8</dim>
					<dim>32</dim>
				</port>
				<port id="1" precision="FP32">
					<dim>128</dim>
					<dim>128</dim>
					<dim>1</dim>
					<dim>1</dim>
				</port>
			</input>
			<output>
				<port id="2" precision="FP32">
					<dim>1</dim>
					<dim>128</dim>
					<dim>8</dim>
					<dim>32</dim>
				</port>
			</output>
		</layer>
		<layer id="154" name="Reshape_1615" type="Const" version="opset1">
			<data element_type="f32" offset="4190544" shape="1, 128, 1, 1" size="512"/>
			<output>
				<port id="0" precision="FP32">
					<dim>1</dim>
					<dim>128</dim>
					<dim>1</dim>
					<dim>1</dim>
				</port>
			</output>
		</layer>
		<layer id="155" name="1420" type="Add" version="opset1">
			<data auto_broadcast="numpy"/>
			<rt_info>
				<attribute name="fused_names" value="1420, Concat_1614, Constant_1598, Reshape_1615" version="0"/>
			</rt_info>
			<input>
				<port id="0" precision="FP32">
					<dim>1</dim>
					<dim>128</dim>
					<dim>8</dim>
					<dim>32</dim>
				</port>
				<port id="1" precision="FP32">
					<dim>1</dim>
					<dim>128</dim>
					<dim>1</dim>
					<dim>1</dim>
				</port>
			</input>
			<output>
				<port id="2" names="1420" precision="FP32">
					<dim>1</dim>
					<dim>128</dim>
					<dim>8</dim>
					<dim>32</dim>
				</port>
			</output>
		</layer>
		<layer id="156" name="528" type="ReLU" version="opset1">
			<rt_info>
				<attribute name="fused_names" value="528" version="0"/>
			</rt_info>
			<input>
				<port id="0" precision="FP32">
					<dim>1</dim>
					<dim>128</dim>
					<dim>8</dim>
					<dim>32</dim>
				</port>
			</input>
			<output>
				<port id="1" names="528" precision="FP32">
					<dim>1</dim>
					<dim>128</dim>
					<dim>8</dim>
					<dim>32</dim>
				</port>
			</output>
		</layer>
		<layer id="157" name="1424" type="Const" version="opset1">
			<data element_type="f32" offset="4191056" shape="128, 128, 3, 3" size="589824"/>
			<rt_info>
				<attribute name="fused_names" value="1424" version="0"/>
			</rt_info>
			<output>
				<port id="0" names="1424" precision="FP32">
					<dim>128</dim>
					<dim>128</dim>
					<dim>3</dim>
					<dim>3</dim>
				</port>
			</output>
		</layer>
		<layer id="158" name="Convolution_1644" type="Convolution" version="opset1">
			<data auto_pad="explicit" dilations="1, 1" pads_begin="1, 1" pads_end="1, 1" strides="1, 1"/>
			<rt_info>
				<attribute name="fused_names" value="Convolution_1644" version="0"/>
			</rt_info>
			<input>
				<port id="0" precision="FP32">
					<dim>1</dim>
					<dim>128</dim>
					<dim>8</dim>
					<dim>32</dim>
				</port>
				<port id="1" precision="FP32">
					<dim>128</dim>
					<dim>128</dim>
					<dim>3</dim>
					<dim>3</dim>
				</port>
			</input>
			<output>
				<port id="2" precision="FP32">
					<dim>1</dim>
					<dim>128</dim>
					<dim>8</dim>
					<dim>32</dim>
				</port>
			</output>
		</layer>
		<layer id="159" name="Reshape_1664" type="Const" version="opset1">
			<data element_type="f32" offset="4780880" shape="1, 128, 1, 1" size="512"/>
			<output>
				<port id="0" precision="FP32">
					<dim>1</dim>
					<dim>128</dim>
					<dim>1</dim>
					<dim>1</dim>
				</port>
			</output>
		</layer>
		<layer id="160" name="1423" type="Add" version="opset1">
			<data auto_broadcast="numpy"/>
			<rt_info>
				<attribute name="fused_names" value="1423, Concat_1663, Constant_1647, Reshape_1664" version="0"/>
			</rt_info>
			<input>
				<port id="0" precision="FP32">
					<dim>1</dim>
					<dim>128</dim>
					<dim>8</dim>
					<dim>32</dim>
				</port>
				<port id="1" precision="FP32">
					<dim>1</dim>
					<dim>128</dim>
					<dim>1</dim>
					<dim>1</dim>
				</port>
			</input>
			<output>
				<port id="2" names="1423" precision="FP32">
					<dim>1</dim>
					<dim>128</dim>
					<dim>8</dim>
					<dim>32</dim>
				</port>
			</output>
		</layer>
		<layer id="161" name="531" type="Add" version="opset1">
			<data auto_broadcast="numpy"/>
			<rt_info>
				<attribute name="fused_names" value="531" version="0"/>
			</rt_info>
			<input>
				<port id="0" precision="FP32">
					<dim>1</dim>
					<dim>128</dim>
					<dim>8</dim>
					<dim>32</dim>
				</port>
				<port id="1" precision="FP32">
					<dim>1</dim>
					<dim>128</dim>
					<dim>8</dim>
					<dim>32</dim>
				</port>
			</input>
			<output>
				<port id="2" names="531" precision="FP32">
					<dim>1</dim>
					<dim>128</dim>
					<dim>8</dim>
					<dim>32</dim>
				</port>
			</output>
		</layer>
		<layer id="162" name="532" type="ReLU" version="opset1">
			<rt_info>
				<attribute name="fused_names" value="532" version="0"/>
			</rt_info>
			<input>
				<port id="0" precision="FP32">
					<dim>1</dim>
					<dim>128</dim>
					<dim>8</dim>
					<dim>32</dim>
				</port>
			</input>
			<output>
				<port id="1" names="532" precision="FP32">
					<dim>1</dim>
					<dim>128</dim>
					<dim>8</dim>
					<dim>32</dim>
				</port>
			</output>
		</layer>
		<layer id="163" name="1427" type="Const" version="opset1">
			<data element_type="f32" offset="4781392" shape="256, 128, 1, 1" size="131072"/>
			<rt_info>
				<attribute name="fused_names" value="1427" version="0"/>
			</rt_info>
			<output>
				<port id="0" names="1427" precision="FP32">
					<dim>256</dim>
					<dim>128</dim>
					<dim>1</dim>
					<dim>1</dim>
				</port>
			</output>
		</layer>
		<layer id="164" name="Convolution_1694" type="Convolution" version="opset1">
			<data auto_pad="explicit" dilations="1, 1" pads_begin="0, 0" pads_end="0, 0" strides="1, 1"/>
			<rt_info>
				<attribute name="fused_names" value="Convolution_1694" version="0"/>
			</rt_info>
			<input>
				<port id="0" precision="FP32">
					<dim>1</dim>
					<dim>128</dim>
					<dim>8</dim>
					<dim>32</dim>
				</port>
				<port id="1" precision="FP32">
					<dim>256</dim>
					<dim>128</dim>
					<dim>1</dim>
					<dim>1</dim>
				</port>
			</input>
			<output>
				<port id="2" precision="FP32">
					<dim>1</dim>
					<dim>256</dim>
					<dim>8</dim>
					<dim>32</dim>
				</port>
			</output>
		</layer>
		<layer id="165" name="Reshape_1714" type="Const" version="opset1">
			<data element_type="f32" offset="4912464" shape="1, 256, 1, 1" size="1024"/>
			<output>
				<port id="0" precision="FP32">
					<dim>1</dim>
					<dim>256</dim>
					<dim>1</dim>
					<dim>1</dim>
				</port>
			</output>
		</layer>
		<layer id="166" name="1426" type="Add" version="opset1">
			<data auto_broadcast="numpy"/>
			<rt_info>
				<attribute name="fused_names" value="1426, Concat_1713, Constant_1697, Reshape_1714" version="0"/>
			</rt_info>
			<input>
				<port id="0" precision="FP32">
					<dim>1</dim>
					<dim>256</dim>
					<dim>8</dim>
					<dim>32</dim>
				</port>
				<port id="1" precision="FP32">
					<dim>1</dim>
					<dim>256</dim>
					<dim>1</dim>
					<dim>1</dim>
				</port>
			</input>
			<output>
				<port id="2" names="1426" precision="FP32">
					<dim>1</dim>
					<dim>256</dim>
					<dim>8</dim>
					<dim>32</dim>
				</port>
			</output>
		</layer>
		<layer id="167" name="535" type="ReLU" version="opset1">
			<rt_info>
				<attribute name="fused_names" value="535" version="0"/>
			</rt_info>
			<input>
				<port id="0" precision="FP32">
					<dim>1</dim>
					<dim>256</dim>
					<dim>8</dim>
					<dim>32</dim>
				</port>
			</input>
			<output>
				<port id="1" names="535" precision="FP32">
					<dim>1</dim>
					<dim>256</dim>
					<dim>8</dim>
					<dim>32</dim>
				</port>
			</output>
		</layer>
		<layer id="168" name="1430" type="Const" version="opset1">
			<data element_type="f32" offset="4913488" shape="256, 256, 3, 3" size="2359296"/>
			<rt_info>
				<attribute name="fused_names" value="1430" version="0"/>
			</rt_info>
			<output>
				<port id="0" names="1430" precision="FP32">
					<dim>256</dim>
					<dim>256</dim>
					<dim>3</dim>
					<dim>3</dim>
				</port>
			</output>
		</layer>
		<layer id="169" name="Convolution_1743" type="Convolution" version="opset1">
			<data auto_pad="explicit" dilations="1, 1" pads_begin="1, 1" pads_end="1, 1" strides="1, 1"/>
			<rt_info>
				<attribute name="fused_names" value="Convolution_1743" version="0"/>
			</rt_info>
			<input>
				<port id="0" precision="FP32">
					<dim>1</dim>
					<dim>256</dim>
					<dim>8</dim>
					<dim>32</dim>
				</port>
				<port id="1" precision="FP32">
					<dim>256</dim>
					<dim>256</dim>
					<dim>3</dim>
					<dim>3</dim>
				</port>
			</input>
			<output>
				<port id="2" precision="FP32">
					<dim>1</dim>
					<dim>256</dim>
					<dim>8</dim>
					<dim>32</dim>
				</port>
			</output>
		</layer>
		<layer id="170" name="Reshape_1763" type="Const" version="opset1">
			<data element_type="f32" offset="7272784" shape="1, 256, 1, 1" size="1024"/>
			<output>
				<port id="0" precision="FP32">
					<dim>1</dim>
					<dim>256</dim>
					<dim>1</dim>
					<dim>1</dim>
				</port>
			</output>
		</layer>
		<layer id="171" name="1429" type="Add" version="opset1">
			<data auto_broadcast="numpy"/>
			<rt_info>
				<attribute name="fused_names" value="1429, Concat_1762, Constant_1746, Reshape_1763" version="0"/>
			</rt_info>
			<input>
				<port id="0" precision="FP32">
					<dim>1</dim>
					<dim>256</dim>
					<dim>8</dim>
					<dim>32</dim>
				</port>
				<port id="1" precision="FP32">
					<dim>1</dim>
					<dim>256</dim>
					<dim>1</dim>
					<dim>1</dim>
				</port>
			</input>
			<output>
				<port id="2" names="1429" precision="FP32">
					<dim>1</dim>
					<dim>256</dim>
					<dim>8</dim>
					<dim>32</dim>
				</port>
			</output>
		</layer>
		<layer id="172" name="1433" type="Const" version="opset1">
			<data element_type="f32" offset="7273808" shape="256, 128, 1, 1" size="131072"/>
			<rt_info>
				<attribute name="fused_names" value="1433" version="0"/>
			</rt_info>
			<output>
				<port id="0" names="1433" precision="FP32">
					<dim>256</dim>
					<dim>128</dim>
					<dim>1</dim>
					<dim>1</dim>
				</port>
			</output>
		</layer>
		<layer id="173" name="Convolution_1791" type="Convolution" version="opset1">
			<data auto_pad="explicit" dilations="1, 1" pads_begin="0, 0" pads_end="0, 0" strides="1, 1"/>
			<rt_info>
				<attribute name="fused_names" value="Convolution_1791" version="0"/>
			</rt_info>
			<input>
				<port id="0" precision="FP32">
					<dim>1</dim>
					<dim>128</dim>
					<dim>8</dim>
					<dim>32</dim>
				</port>
				<port id="1" precision="FP32">
					<dim>256</dim>
					<dim>128</dim>
					<dim>1</dim>
					<dim>1</dim>
				</port>
			</input>
			<output>
				<port id="2" precision="FP32">
					<dim>1</dim>
					<dim>256</dim>
					<dim>8</dim>
					<dim>32</dim>
				</port>
			</output>
		</layer>
		<layer id="174" name="Reshape_1811" type="Const" version="opset1">
			<data element_type="f32" offset="7404880" shape="1, 256, 1, 1" size="1024"/>
			<output>
				<port id="0" precision="FP32">
					<dim>1</dim>
					<dim>256</dim>
					<dim>1</dim>
					<dim>1</dim>
				</port>
			</output>
		</layer>
		<layer id="175" name="1432" type="Add" version="opset1">
			<data auto_broadcast="numpy"/>
			<rt_info>
				<attribute name="fused_names" value="1432, Concat_1810, Constant_1794, Reshape_1811" version="0"/>
			</rt_info>
			<input>
				<port id="0" precision="FP32">
					<dim>1</dim>
					<dim>256</dim>
					<dim>8</dim>
					<dim>32</dim>
				</port>
				<port id="1" precision="FP32">
					<dim>1</dim>
					<dim>256</dim>
					<dim>1</dim>
					<dim>1</dim>
				</port>
			</input>
			<output>
				<port id="2" names="1432" precision="FP32">
					<dim>1</dim>
					<dim>256</dim>
					<dim>8</dim>
					<dim>32</dim>
				</port>
			</output>
		</layer>
		<layer id="176" name="540" type="Add" version="opset1">
			<data auto_broadcast="numpy"/>
			<rt_info>
				<attribute name="fused_names" value="540" version="0"/>
			</rt_info>
			<input>
				<port id="0" precision="FP32">
					<dim>1</dim>
					<dim>256</dim>
					<dim>8</dim>
					<dim>32</dim>
				</port>
				<port id="1" precision="FP32">
					<dim>1</dim>
					<dim>256</dim>
					<dim>8</dim>
					<dim>32</dim>
				</port>
			</input>
			<output>
				<port id="2" names="540" precision="FP32">
					<dim>1</dim>
					<dim>256</dim>
					<dim>8</dim>
					<dim>32</dim>
				</port>
			</output>
		</layer>
		<layer id="177" name="541" type="ReLU" version="opset1">
			<rt_info>
				<attribute name="fused_names" value="541" version="0"/>
			</rt_info>
			<input>
				<port id="0" precision="FP32">
					<dim>1</dim>
					<dim>256</dim>
					<dim>8</dim>
					<dim>32</dim>
				</port>
			</input>
			<output>
				<port id="1" names="541" precision="FP32">
					<dim>1</dim>
					<dim>256</dim>
					<dim>8</dim>
					<dim>32</dim>
				</port>
			</output>
		</layer>
		<layer id="178" name="1436" type="Const" version="opset1">
			<data element_type="f32" offset="7405904" shape="256, 256, 1, 1" size="262144"/>
			<rt_info>
				<attribute name="fused_names" value="1436" version="0"/>
			</rt_info>
			<output>
				<port id="0" names="1436" precision="FP32">
					<dim>256</dim>
					<dim>256</dim>
					<dim>1</dim>
					<dim>1</dim>
				</port>
			</output>
		</layer>
		<layer id="179" name="Convolution_1841" type="Convolution" version="opset1">
			<data auto_pad="explicit" dilations="1, 1" pads_begin="0, 0" pads_end="0, 0" strides="1, 1"/>
			<rt_info>
				<attribute name="fused_names" value="Convolution_1841" version="0"/>
			</rt_info>
			<input>
				<port id="0" precision="FP32">
					<dim>1</dim>
					<dim>256</dim>
					<dim>8</dim>
					<dim>32</dim>
				</port>
				<port id="1" precision="FP32">
					<dim>256</dim>
					<dim>256</dim>
					<dim>1</dim>
					<dim>1</dim>
				</port>
			</input>
			<output>
				<port id="2" precision="FP32">
					<dim>1</dim>
					<dim>256</dim>
					<dim>8</dim>
					<dim>32</dim>
				</port>
			</output>
		</layer>
		<layer id="180" name="Reshape_1861" type="Const" version="opset1">
			<data element_type="f32" offset="7668048" shape="1, 256, 1, 1" size="1024"/>
			<output>
				<port id="0" precision="FP32">
					<dim>1</dim>
					<dim>256</dim>
					<dim>1</dim>
					<dim>1</dim>
				</port>
			</output>
		</layer>
		<layer id="181" name="1435" type="Add" version="opset1">
			<data auto_broadcast="numpy"/>
			<rt_info>
				<attribute name="fused_names" value="1435, Concat_1860, Constant_1844, Reshape_1861" version="0"/>
			</rt_info>
			<input>
				<port id="0" precision="FP32">
					<dim>1</dim>
					<dim>256</dim>
					<dim>8</dim>
					<dim>32</dim>
				</port>
				<port id="1" precision="FP32">
					<dim>1</dim>
					<dim>256</dim>
					<dim>1</dim>
					<dim>1</dim>
				</port>
			</input>
			<output>
				<port id="2" names="1435" precision="FP32">
					<dim>1</dim>
					<dim>256</dim>
					<dim>8</dim>
					<dim>32</dim>
				</port>
			</output>
		</layer>
		<layer id="182" name="544" type="ReLU" version="opset1">
			<rt_info>
				<attribute name="fused_names" value="544" version="0"/>
			</rt_info>
			<input>
				<port id="0" precision="FP32">
					<dim>1</dim>
					<dim>256</dim>
					<dim>8</dim>
					<dim>32</dim>
				</port>
			</input>
			<output>
				<port id="1" names="544" precision="FP32">
					<dim>1</dim>
					<dim>256</dim>
					<dim>8</dim>
					<dim>32</dim>
				</port>
			</output>
		</layer>
		<layer id="183" name="1439" type="Const" version="opset1">
			<data element_type="f32" offset="7669072" shape="256, 256, 3, 3" size="2359296"/>
			<rt_info>
				<attribute name="fused_names" value="1439" version="0"/>
			</rt_info>
			<output>
				<port id="0" names="1439" precision="FP32">
					<dim>256</dim>
					<dim>256</dim>
					<dim>3</dim>
					<dim>3</dim>
				</port>
			</output>
		</layer>
		<layer id="184" name="Convolution_1890" type="Convolution" version="opset1">
			<data auto_pad="explicit" dilations="1, 1" pads_begin="1, 1" pads_end="1, 1" strides="1, 1"/>
			<rt_info>
				<attribute name="fused_names" value="Convolution_1890" version="0"/>
			</rt_info>
			<input>
				<port id="0" precision="FP32">
					<dim>1</dim>
					<dim>256</dim>
					<dim>8</dim>
					<dim>32</dim>
				</port>
				<port id="1" precision="FP32">
					<dim>256</dim>
					<dim>256</dim>
					<dim>3</dim>
					<dim>3</dim>
				</port>
			</input>
			<output>
				<port id="2" precision="FP32">
					<dim>1</dim>
					<dim>256</dim>
					<dim>8</dim>
					<dim>32</dim>
				</port>
			</output>
		</layer>
		<layer id="185" name="Reshape_1910" type="Const" version="opset1">
			<data element_type="f32" offset="10028368" shape="1, 256, 1, 1" size="1024"/>
			<output>
				<port id="0" precision="FP32">
					<dim>1</dim>
					<dim>256</dim>
					<dim>1</dim>
					<dim>1</dim>
				</port>
			</output>
		</layer>
		<layer id="186" name="1438" type="Add" version="opset1">
			<data auto_broadcast="numpy"/>
			<rt_info>
				<attribute name="fused_names" value="1438, Concat_1909, Constant_1893, Reshape_1910" version="0"/>
			</rt_info>
			<input>
				<port id="0" precision="FP32">
					<dim>1</dim>
					<dim>256</dim>
					<dim>8</dim>
					<dim>32</dim>
				</port>
				<port id="1" precision="FP32">
					<dim>1</dim>
					<dim>256</dim>
					<dim>1</dim>
					<dim>1</dim>
				</port>
			</input>
			<output>
				<port id="2" names="1438" precision="FP32">
					<dim>1</dim>
					<dim>256</dim>
					<dim>8</dim>
					<dim>32</dim>
				</port>
			</output>
		</layer>
		<layer id="187" name="547" type="Add" version="opset1">
			<data auto_broadcast="numpy"/>
			<rt_info>
				<attribute name="fused_names" value="547" version="0"/>
			</rt_info>
			<input>
				<port id="0" precision="FP32">
					<dim>1</dim>
					<dim>256</dim>
					<dim>8</dim>
					<dim>32</dim>
				</port>
				<port id="1" precision="FP32">
					<dim>1</dim>
					<dim>256</dim>
					<dim>8</dim>
					<dim>32</dim>
				</port>
			</input>
			<output>
				<port id="2" names="547" precision="FP32">
					<dim>1</dim>
					<dim>256</dim>
					<dim>8</dim>
					<dim>32</dim>
				</port>
			</output>
		</layer>
		<layer id="188" name="548" type="ReLU" version="opset1">
			<rt_info>
				<attribute name="fused_names" value="548" version="0"/>
			</rt_info>
			<input>
				<port id="0" precision="FP32">
					<dim>1</dim>
					<dim>256</dim>
					<dim>8</dim>
					<dim>32</dim>
				</port>
			</input>
			<output>
				<port id="1" names="548" precision="FP32">
					<dim>1</dim>
					<dim>256</dim>
					<dim>8</dim>
					<dim>32</dim>
				</port>
			</output>
		</layer>
		<layer id="189" name="1442" type="Const" version="opset1">
			<data element_type="f32" offset="10029392" shape="256, 256, 1, 1" size="262144"/>
			<rt_info>
				<attribute name="fused_names" value="1442" version="0"/>
			</rt_info>
			<output>
				<port id="0" names="1442" precision="FP32">
					<dim>256</dim>
					<dim>256</dim>
					<dim>1</dim>
					<dim>1</dim>
				</port>
			</output>
		</layer>
		<layer id="190" name="Convolution_1940" type="Convolution" version="opset1">
			<data auto_pad="explicit" dilations="1, 1" pads_begin="0, 0" pads_end="0, 0" strides="1, 1"/>
			<rt_info>
				<attribute name="fused_names" value="Convolution_1940" version="0"/>
			</rt_info>
			<input>
				<port id="0" precision="FP32">
					<dim>1</dim>
					<dim>256</dim>
					<dim>8</dim>
					<dim>32</dim>
				</port>
				<port id="1" precision="FP32">
					<dim>256</dim>
					<dim>256</dim>
					<dim>1</dim>
					<dim>1</dim>
				</port>
			</input>
			<output>
				<port id="2" precision="FP32">
					<dim>1</dim>
					<dim>256</dim>
					<dim>8</dim>
					<dim>32</dim>
				</port>
			</output>
		</layer>
		<layer id="191" name="Reshape_1960" type="Const" version="opset1">
			<data element_type="f32" offset="10291536" shape="1, 256, 1, 1" size="1024"/>
			<output>
				<port id="0" precision="FP32">
					<dim>1</dim>
					<dim>256</dim>
					<dim>1</dim>
					<dim>1</dim>
				</port>
			</output>
		</layer>
		<layer id="192" name="1441" type="Add" version="opset1">
			<data auto_broadcast="numpy"/>
			<rt_info>
				<attribute name="fused_names" value="1441, Concat_1959, Constant_1943, Reshape_1960" version="0"/>
			</rt_info>
			<input>
				<port id="0" precision="FP32">
					<dim>1</dim>
					<dim>256</dim>
					<dim>8</dim>
					<dim>32</dim>
				</port>
				<port id="1" precision="FP32">
					<dim>1</dim>
					<dim>256</dim>
					<dim>1</dim>
					<dim>1</dim>
				</port>
			</input>
			<output>
				<port id="2" names="1441" precision="FP32">
					<dim>1</dim>
					<dim>256</dim>
					<dim>8</dim>
					<dim>32</dim>
				</port>
			</output>
		</layer>
		<layer id="193" name="551" type="ReLU" version="opset1">
			<rt_info>
				<attribute name="fused_names" value="551" version="0"/>
			</rt_info>
			<input>
				<port id="0" precision="FP32">
					<dim>1</dim>
					<dim>256</dim>
					<dim>8</dim>
					<dim>32</dim>
				</port>
			</input>
			<output>
				<port id="1" names="551" precision="FP32">
					<dim>1</dim>
					<dim>256</dim>
					<dim>8</dim>
					<dim>32</dim>
				</port>
			</output>
		</layer>
		<layer id="194" name="1445" type="Const" version="opset1">
			<data element_type="f32" offset="10292560" shape="256, 256, 3, 3" size="2359296"/>
			<rt_info>
				<attribute name="fused_names" value="1445" version="0"/>
			</rt_info>
			<output>
				<port id="0" names="1445" precision="FP32">
					<dim>256</dim>
					<dim>256</dim>
					<dim>3</dim>
					<dim>3</dim>
				</port>
			</output>
		</layer>
		<layer id="195" name="Convolution_1989" type="Convolution" version="opset1">
			<data auto_pad="explicit" dilations="1, 1" pads_begin="1, 1" pads_end="1, 1" strides="1, 1"/>
			<rt_info>
				<attribute name="fused_names" value="Convolution_1989" version="0"/>
			</rt_info>
			<input>
				<port id="0" precision="FP32">
					<dim>1</dim>
					<dim>256</dim>
					<dim>8</dim>
					<dim>32</dim>
				</port>
				<port id="1" precision="FP32">
					<dim>256</dim>
					<dim>256</dim>
					<dim>3</dim>
					<dim>3</dim>
				</port>
			</input>
			<output>
				<port id="2" precision="FP32">
					<dim>1</dim>
					<dim>256</dim>
					<dim>8</dim>
					<dim>32</dim>
				</port>
			</output>
		</layer>
		<layer id="196" name="Reshape_2009" type="Const" version="opset1">
			<data element_type="f32" offset="12651856" shape="1, 256, 1, 1" size="1024"/>
			<output>
				<port id="0" precision="FP32">
					<dim>1</dim>
					<dim>256</dim>
					<dim>1</dim>
					<dim>1</dim>
				</port>
			</output>
		</layer>
		<layer id="197" name="1444" type="Add" version="opset1">
			<data auto_broadcast="numpy"/>
			<rt_info>
				<attribute name="fused_names" value="1444, Concat_2008, Constant_1992, Reshape_2009" version="0"/>
			</rt_info>
			<input>
				<port id="0" precision="FP32">
					<dim>1</dim>
					<dim>256</dim>
					<dim>8</dim>
					<dim>32</dim>
				</port>
				<port id="1" precision="FP32">
					<dim>1</dim>
					<dim>256</dim>
					<dim>1</dim>
					<dim>1</dim>
				</port>
			</input>
			<output>
				<port id="2" names="1444" precision="FP32">
					<dim>1</dim>
					<dim>256</dim>
					<dim>8</dim>
					<dim>32</dim>
				</port>
			</output>
		</layer>
		<layer id="198" name="554" type="Add" version="opset1">
			<data auto_broadcast="numpy"/>
			<rt_info>
				<attribute name="fused_names" value="554" version="0"/>
			</rt_info>
			<input>
				<port id="0" precision="FP32">
					<dim>1</dim>
					<dim>256</dim>
					<dim>8</dim>
					<dim>32</dim>
				</port>
				<port id="1" precision="FP32">
					<dim>1</dim>
					<dim>256</dim>
					<dim>8</dim>
					<dim>32</dim>
				</port>
			</input>
			<output>
				<port id="2" names="554" precision="FP32">
					<dim>1</dim>
					<dim>256</dim>
					<dim>8</dim>
					<dim>32</dim>
				</port>
			</output>
		</layer>
		<layer id="199" name="555" type="ReLU" version="opset1">
			<rt_info>
				<attribute name="fused_names" value="555" version="0"/>
			</rt_info>
			<input>
				<port id="0" precision="FP32">
					<dim>1</dim>
					<dim>256</dim>
					<dim>8</dim>
					<dim>32</dim>
				</port>
			</input>
			<output>
				<port id="1" names="555" precision="FP32">
					<dim>1</dim>
					<dim>256</dim>
					<dim>8</dim>
					<dim>32</dim>
				</port>
			</output>
		</layer>
		<layer id="200" name="1448" type="Const" version="opset1">
			<data element_type="f32" offset="12652880" shape="256, 256, 1, 1" size="262144"/>
			<rt_info>
				<attribute name="fused_names" value="1448" version="0"/>
			</rt_info>
			<output>
				<port id="0" names="1448" precision="FP32">
					<dim>256</dim>
					<dim>256</dim>
					<dim>1</dim>
					<dim>1</dim>
				</port>
			</output>
		</layer>
		<layer id="201" name="Convolution_2039" type="Convolution" version="opset1">
			<data auto_pad="explicit" dilations="1, 1" pads_begin="0, 0" pads_end="0, 0" strides="1, 1"/>
			<rt_info>
				<attribute name="fused_names" value="Convolution_2039" version="0"/>
			</rt_info>
			<input>
				<port id="0" precision="FP32">
					<dim>1</dim>
					<dim>256</dim>
					<dim>8</dim>
					<dim>32</dim>
				</port>
				<port id="1" precision="FP32">
					<dim>256</dim>
					<dim>256</dim>
					<dim>1</dim>
					<dim>1</dim>
				</port>
			</input>
			<output>
				<port id="2" precision="FP32">
					<dim>1</dim>
					<dim>256</dim>
					<dim>8</dim>
					<dim>32</dim>
				</port>
			</output>
		</layer>
		<layer id="202" name="Reshape_2059" type="Const" version="opset1">
			<data element_type="f32" offset="12915024" shape="1, 256, 1, 1" size="1024"/>
			<output>
				<port id="0" precision="FP32">
					<dim>1</dim>
					<dim>256</dim>
					<dim>1</dim>
					<dim>1</dim>
				</port>
			</output>
		</layer>
		<layer id="203" name="1447" type="Add" version="opset1">
			<data auto_broadcast="numpy"/>
			<rt_info>
				<attribute name="fused_names" value="1447, Concat_2058, Constant_2042, Reshape_2059" version="0"/>
			</rt_info>
			<input>
				<port id="0" precision="FP32">
					<dim>1</dim>
					<dim>256</dim>
					<dim>8</dim>
					<dim>32</dim>
				</port>
				<port id="1" precision="FP32">
					<dim>1</dim>
					<dim>256</dim>
					<dim>1</dim>
					<dim>1</dim>
				</port>
			</input>
			<output>
				<port id="2" names="1447" precision="FP32">
					<dim>1</dim>
					<dim>256</dim>
					<dim>8</dim>
					<dim>32</dim>
				</port>
			</output>
		</layer>
		<layer id="204" name="558" type="ReLU" version="opset1">
			<rt_info>
				<attribute name="fused_names" value="558" version="0"/>
			</rt_info>
			<input>
				<port id="0" precision="FP32">
					<dim>1</dim>
					<dim>256</dim>
					<dim>8</dim>
					<dim>32</dim>
				</port>
			</input>
			<output>
				<port id="1" names="558" precision="FP32">
					<dim>1</dim>
					<dim>256</dim>
					<dim>8</dim>
					<dim>32</dim>
				</port>
			</output>
		</layer>
		<layer id="205" name="1451" type="Const" version="opset1">
			<data element_type="f32" offset="12916048" shape="256, 256, 3, 3" size="2359296"/>
			<rt_info>
				<attribute name="fused_names" value="1451" version="0"/>
			</rt_info>
			<output>
				<port id="0" names="1451" precision="FP32">
					<dim>256</dim>
					<dim>256</dim>
					<dim>3</dim>
					<dim>3</dim>
				</port>
			</output>
		</layer>
		<layer id="206" name="Convolution_2088" type="Convolution" version="opset1">
			<data auto_pad="explicit" dilations="1, 1" pads_begin="1, 1" pads_end="1, 1" strides="1, 1"/>
			<rt_info>
				<attribute name="fused_names" value="Convolution_2088" version="0"/>
			</rt_info>
			<input>
				<port id="0" precision="FP32">
					<dim>1</dim>
					<dim>256</dim>
					<dim>8</dim>
					<dim>32</dim>
				</port>
				<port id="1" precision="FP32">
					<dim>256</dim>
					<dim>256</dim>
					<dim>3</dim>
					<dim>3</dim>
				</port>
			</input>
			<output>
				<port id="2" precision="FP32">
					<dim>1</dim>
					<dim>256</dim>
					<dim>8</dim>
					<dim>32</dim>
				</port>
			</output>
		</layer>
		<layer id="207" name="Reshape_2108" type="Const" version="opset1">
			<data element_type="f32" offset="15275344" shape="1, 256, 1, 1" size="1024"/>
			<output>
				<port id="0" precision="FP32">
					<dim>1</dim>
					<dim>256</dim>
					<dim>1</dim>
					<dim>1</dim>
				</port>
			</output>
		</layer>
		<layer id="208" name="1450" type="Add" version="opset1">
			<data auto_broadcast="numpy"/>
			<rt_info>
				<attribute name="fused_names" value="1450, Concat_2107, Constant_2091, Reshape_2108" version="0"/>
			</rt_info>
			<input>
				<port id="0" precision="FP32">
					<dim>1</dim>
					<dim>256</dim>
					<dim>8</dim>
					<dim>32</dim>
				</port>
				<port id="1" precision="FP32">
					<dim>1</dim>
					<dim>256</dim>
					<dim>1</dim>
					<dim>1</dim>
				</port>
			</input>
			<output>
				<port id="2" names="1450" precision="FP32">
					<dim>1</dim>
					<dim>256</dim>
					<dim>8</dim>
					<dim>32</dim>
				</port>
			</output>
		</layer>
		<layer id="209" name="561" type="Add" version="opset1">
			<data auto_broadcast="numpy"/>
			<rt_info>
				<attribute name="fused_names" value="561" version="0"/>
			</rt_info>
			<input>
				<port id="0" precision="FP32">
					<dim>1</dim>
					<dim>256</dim>
					<dim>8</dim>
					<dim>32</dim>
				</port>
				<port id="1" precision="FP32">
					<dim>1</dim>
					<dim>256</dim>
					<dim>8</dim>
					<dim>32</dim>
				</port>
			</input>
			<output>
				<port id="2" names="561" precision="FP32">
					<dim>1</dim>
					<dim>256</dim>
					<dim>8</dim>
					<dim>32</dim>
				</port>
			</output>
		</layer>
		<layer id="210" name="562" type="ReLU" version="opset1">
			<rt_info>
				<attribute name="fused_names" value="562" version="0"/>
			</rt_info>
			<input>
				<port id="0" precision="FP32">
					<dim>1</dim>
					<dim>256</dim>
					<dim>8</dim>
					<dim>32</dim>
				</port>
			</input>
			<output>
				<port id="1" names="562" precision="FP32">
					<dim>1</dim>
					<dim>256</dim>
					<dim>8</dim>
					<dim>32</dim>
				</port>
			</output>
		</layer>
		<layer id="211" name="1454" type="Const" version="opset1">
			<data element_type="f32" offset="15276368" shape="256, 256, 1, 1" size="262144"/>
			<rt_info>
				<attribute name="fused_names" value="1454" version="0"/>
			</rt_info>
			<output>
				<port id="0" names="1454" precision="FP32">
					<dim>256</dim>
					<dim>256</dim>
					<dim>1</dim>
					<dim>1</dim>
				</port>
			</output>
		</layer>
		<layer id="212" name="Convolution_2138" type="Convolution" version="opset1">
			<data auto_pad="explicit" dilations="1, 1" pads_begin="0, 0" pads_end="0, 0" strides="1, 1"/>
			<rt_info>
				<attribute name="fused_names" value="Convolution_2138" version="0"/>
			</rt_info>
			<input>
				<port id="0" precision="FP32">
					<dim>1</dim>
					<dim>256</dim>
					<dim>8</dim>
					<dim>32</dim>
				</port>
				<port id="1" precision="FP32">
					<dim>256</dim>
					<dim>256</dim>
					<dim>1</dim>
					<dim>1</dim>
				</port>
			</input>
			<output>
				<port id="2" precision="FP32">
					<dim>1</dim>
					<dim>256</dim>
					<dim>8</dim>
					<dim>32</dim>
				</port>
			</output>
		</layer>
		<layer id="213" name="Reshape_2158" type="Const" version="opset1">
			<data element_type="f32" offset="15538512" shape="1, 256, 1, 1" size="1024"/>
			<output>
				<port id="0" precision="FP32">
					<dim>1</dim>
					<dim>256</dim>
					<dim>1</dim>
					<dim>1</dim>
				</port>
			</output>
		</layer>
		<layer id="214" name="1453" type="Add" version="opset1">
			<data auto_broadcast="numpy"/>
			<rt_info>
				<attribute name="fused_names" value="1453, Concat_2157, Constant_2141, Reshape_2158" version="0"/>
			</rt_info>
			<input>
				<port id="0" precision="FP32">
					<dim>1</dim>
					<dim>256</dim>
					<dim>8</dim>
					<dim>32</dim>
				</port>
				<port id="1" precision="FP32">
					<dim>1</dim>
					<dim>256</dim>
					<dim>1</dim>
					<dim>1</dim>
				</port>
			</input>
			<output>
				<port id="2" names="1453" precision="FP32">
					<dim>1</dim>
					<dim>256</dim>
					<dim>8</dim>
					<dim>32</dim>
				</port>
			</output>
		</layer>
		<layer id="215" name="565" type="ReLU" version="opset1">
			<rt_info>
				<attribute name="fused_names" value="565" version="0"/>
			</rt_info>
			<input>
				<port id="0" precision="FP32">
					<dim>1</dim>
					<dim>256</dim>
					<dim>8</dim>
					<dim>32</dim>
				</port>
			</input>
			<output>
				<port id="1" names="565" precision="FP32">
					<dim>1</dim>
					<dim>256</dim>
					<dim>8</dim>
					<dim>32</dim>
				</port>
			</output>
		</layer>
		<layer id="216" name="1457" type="Const" version="opset1">
			<data element_type="f32" offset="15539536" shape="256, 256, 3, 3" size="2359296"/>
			<rt_info>
				<attribute name="fused_names" value="1457" version="0"/>
			</rt_info>
			<output>
				<port id="0" names="1457" precision="FP32">
					<dim>256</dim>
					<dim>256</dim>
					<dim>3</dim>
					<dim>3</dim>
				</port>
			</output>
		</layer>
		<layer id="217" name="Convolution_2187" type="Convolution" version="opset1">
			<data auto_pad="explicit" dilations="1, 1" pads_begin="1, 1" pads_end="1, 1" strides="1, 1"/>
			<rt_info>
				<attribute name="fused_names" value="Convolution_2187" version="0"/>
			</rt_info>
			<input>
				<port id="0" precision="FP32">
					<dim>1</dim>
					<dim>256</dim>
					<dim>8</dim>
					<dim>32</dim>
				</port>
				<port id="1" precision="FP32">
					<dim>256</dim>
					<dim>256</dim>
					<dim>3</dim>
					<dim>3</dim>
				</port>
			</input>
			<output>
				<port id="2" precision="FP32">
					<dim>1</dim>
					<dim>256</dim>
					<dim>8</dim>
					<dim>32</dim>
				</port>
			</output>
		</layer>
		<layer id="218" name="Reshape_2207" type="Const" version="opset1">
			<data element_type="f32" offset="17898832" shape="1, 256, 1, 1" size="1024"/>
			<output>
				<port id="0" precision="FP32">
					<dim>1</dim>
					<dim>256</dim>
					<dim>1</dim>
					<dim>1</dim>
				</port>
			</output>
		</layer>
		<layer id="219" name="1456" type="Add" version="opset1">
			<data auto_broadcast="numpy"/>
			<rt_info>
				<attribute name="fused_names" value="1456, Concat_2206, Constant_2190, Reshape_2207" version="0"/>
			</rt_info>
			<input>
				<port id="0" precision="FP32">
					<dim>1</dim>
					<dim>256</dim>
					<dim>8</dim>
					<dim>32</dim>
				</port>
				<port id="1" precision="FP32">
					<dim>1</dim>
					<dim>256</dim>
					<dim>1</dim>
					<dim>1</dim>
				</port>
			</input>
			<output>
				<port id="2" names="1456" precision="FP32">
					<dim>1</dim>
					<dim>256</dim>
					<dim>8</dim>
					<dim>32</dim>
				</port>
			</output>
		</layer>
		<layer id="220" name="568" type="Add" version="opset1">
			<data auto_broadcast="numpy"/>
			<rt_info>
				<attribute name="fused_names" value="568" version="0"/>
			</rt_info>
			<input>
				<port id="0" precision="FP32">
					<dim>1</dim>
					<dim>256</dim>
					<dim>8</dim>
					<dim>32</dim>
				</port>
				<port id="1" precision="FP32">
					<dim>1</dim>
					<dim>256</dim>
					<dim>8</dim>
					<dim>32</dim>
				</port>
			</input>
			<output>
				<port id="2" names="568" precision="FP32">
					<dim>1</dim>
					<dim>256</dim>
					<dim>8</dim>
					<dim>32</dim>
				</port>
			</output>
		</layer>
		<layer id="221" name="569" type="ReLU" version="opset1">
			<rt_info>
				<attribute name="fused_names" value="569" version="0"/>
			</rt_info>
			<input>
				<port id="0" precision="FP32">
					<dim>1</dim>
					<dim>256</dim>
					<dim>8</dim>
					<dim>32</dim>
				</port>
			</input>
			<output>
				<port id="1" names="569" precision="FP32">
					<dim>1</dim>
					<dim>256</dim>
					<dim>8</dim>
					<dim>32</dim>
				</port>
			</output>
		</layer>
		<layer id="222" name="1460" type="Const" version="opset1">
			<data element_type="f32" offset="17899856" shape="256, 256, 1, 1" size="262144"/>
			<rt_info>
				<attribute name="fused_names" value="1460" version="0"/>
			</rt_info>
			<output>
				<port id="0" names="1460" precision="FP32">
					<dim>256</dim>
					<dim>256</dim>
					<dim>1</dim>
					<dim>1</dim>
				</port>
			</output>
		</layer>
		<layer id="223" name="Convolution_2237" type="Convolution" version="opset1">
			<data auto_pad="explicit" dilations="1, 1" pads_begin="0, 0" pads_end="0, 0" strides="1, 1"/>
			<rt_info>
				<attribute name="fused_names" value="Convolution_2237" version="0"/>
			</rt_info>
			<input>
				<port id="0" precision="FP32">
					<dim>1</dim>
					<dim>256</dim>
					<dim>8</dim>
					<dim>32</dim>
				</port>
				<port id="1" precision="FP32">
					<dim>256</dim>
					<dim>256</dim>
					<dim>1</dim>
					<dim>1</dim>
				</port>
			</input>
			<output>
				<port id="2" precision="FP32">
					<dim>1</dim>
					<dim>256</dim>
					<dim>8</dim>
					<dim>32</dim>
				</port>
			</output>
		</layer>
		<layer id="224" name="Reshape_2257" type="Const" version="opset1">
			<data element_type="f32" offset="18162000" shape="1, 256, 1, 1" size="1024"/>
			<output>
				<port id="0" precision="FP32">
					<dim>1</dim>
					<dim>256</dim>
					<dim>1</dim>
					<dim>1</dim>
				</port>
			</output>
		</layer>
		<layer id="225" name="1459" type="Add" version="opset1">
			<data auto_broadcast="numpy"/>
			<rt_info>
				<attribute name="fused_names" value="1459, Concat_2256, Constant_2240, Reshape_2257" version="0"/>
			</rt_info>
			<input>
				<port id="0" precision="FP32">
					<dim>1</dim>
					<dim>256</dim>
					<dim>8</dim>
					<dim>32</dim>
				</port>
				<port id="1" precision="FP32">
					<dim>1</dim>
					<dim>256</dim>
					<dim>1</dim>
					<dim>1</dim>
				</port>
			</input>
			<output>
				<port id="2" names="1459" precision="FP32">
					<dim>1</dim>
					<dim>256</dim>
					<dim>8</dim>
					<dim>32</dim>
				</port>
			</output>
		</layer>
		<layer id="226" name="572" type="ReLU" version="opset1">
			<rt_info>
				<attribute name="fused_names" value="572" version="0"/>
			</rt_info>
			<input>
				<port id="0" precision="FP32">
					<dim>1</dim>
					<dim>256</dim>
					<dim>8</dim>
					<dim>32</dim>
				</port>
			</input>
			<output>
				<port id="1" names="572" precision="FP32">
					<dim>1</dim>
					<dim>256</dim>
					<dim>8</dim>
					<dim>32</dim>
				</port>
			</output>
		</layer>
		<layer id="227" name="1463" type="Const" version="opset1">
			<data element_type="f32" offset="18163024" shape="256, 256, 3, 3" size="2359296"/>
			<rt_info>
				<attribute name="fused_names" value="1463" version="0"/>
			</rt_info>
			<output>
				<port id="0" names="1463" precision="FP32">
					<dim>256</dim>
					<dim>256</dim>
					<dim>3</dim>
					<dim>3</dim>
				</port>
			</output>
		</layer>
		<layer id="228" name="Convolution_2286" type="Convolution" version="opset1">
			<data auto_pad="explicit" dilations="1, 1" pads_begin="1, 1" pads_end="1, 1" strides="1, 1"/>
			<rt_info>
				<attribute name="fused_names" value="Convolution_2286" version="0"/>
			</rt_info>
			<input>
				<port id="0" precision="FP32">
					<dim>1</dim>
					<dim>256</dim>
					<dim>8</dim>
					<dim>32</dim>
				</port>
				<port id="1" precision="FP32">
					<dim>256</dim>
					<dim>256</dim>
					<dim>3</dim>
					<dim>3</dim>
				</port>
			</input>
			<output>
				<port id="2" precision="FP32">
					<dim>1</dim>
					<dim>256</dim>
					<dim>8</dim>
					<dim>32</dim>
				</port>
			</output>
		</layer>
		<layer id="229" name="Reshape_2306" type="Const" version="opset1">
			<data element_type="f32" offset="20522320" shape="1, 256, 1, 1" size="1024"/>
			<output>
				<port id="0" precision="FP32">
					<dim>1</dim>
					<dim>256</dim>
					<dim>1</dim>
					<dim>1</dim>
				</port>
			</output>
		</layer>
		<layer id="230" name="1462" type="Add" version="opset1">
			<data auto_broadcast="numpy"/>
			<rt_info>
				<attribute name="fused_names" value="1462, Concat_2305, Constant_2289, Reshape_2306" version="0"/>
			</rt_info>
			<input>
				<port id="0" precision="FP32">
					<dim>1</dim>
					<dim>256</dim>
					<dim>8</dim>
					<dim>32</dim>
				</port>
				<port id="1" precision="FP32">
					<dim>1</dim>
					<dim>256</dim>
					<dim>1</dim>
					<dim>1</dim>
				</port>
			</input>
			<output>
				<port id="2" names="1462" precision="FP32">
					<dim>1</dim>
					<dim>256</dim>
					<dim>8</dim>
					<dim>32</dim>
				</port>
			</output>
		</layer>
		<layer id="231" name="575" type="Add" version="opset1">
			<data auto_broadcast="numpy"/>
			<rt_info>
				<attribute name="fused_names" value="575" version="0"/>
			</rt_info>
			<input>
				<port id="0" precision="FP32">
					<dim>1</dim>
					<dim>256</dim>
					<dim>8</dim>
					<dim>32</dim>
				</port>
				<port id="1" precision="FP32">
					<dim>1</dim>
					<dim>256</dim>
					<dim>8</dim>
					<dim>32</dim>
				</port>
			</input>
			<output>
				<port id="2" names="575" precision="FP32">
					<dim>1</dim>
					<dim>256</dim>
					<dim>8</dim>
					<dim>32</dim>
				</port>
			</output>
		</layer>
		<layer id="232" name="576" type="ReLU" version="opset1">
			<rt_info>
				<attribute name="fused_names" value="576" version="0"/>
			</rt_info>
			<input>
				<port id="0" precision="FP32">
					<dim>1</dim>
					<dim>256</dim>
					<dim>8</dim>
					<dim>32</dim>
				</port>
			</input>
			<output>
				<port id="1" names="576" precision="FP32">
					<dim>1</dim>
					<dim>256</dim>
					<dim>8</dim>
					<dim>32</dim>
				</port>
			</output>
		</layer>
		<layer id="233" name="1466" type="Const" version="opset1">
			<data element_type="f32" offset="20523344" shape="512, 256, 1, 1" size="524288"/>
			<rt_info>
				<attribute name="fused_names" value="1466" version="0"/>
			</rt_info>
			<output>
				<port id="0" names="1466" precision="FP32">
					<dim>512</dim>
					<dim>256</dim>
					<dim>1</dim>
					<dim>1</dim>
				</port>
			</output>
		</layer>
		<layer id="234" name="Convolution_2336" type="Convolution" version="opset1">
			<data auto_pad="explicit" dilations="1, 1" pads_begin="0, 0" pads_end="0, 0" strides="1, 1"/>
			<rt_info>
				<attribute name="fused_names" value="Convolution_2336" version="0"/>
			</rt_info>
			<input>
				<port id="0" precision="FP32">
					<dim>1</dim>
					<dim>256</dim>
					<dim>8</dim>
					<dim>32</dim>
				</port>
				<port id="1" precision="FP32">
					<dim>512</dim>
					<dim>256</dim>
					<dim>1</dim>
					<dim>1</dim>
				</port>
			</input>
			<output>
				<port id="2" precision="FP32">
					<dim>1</dim>
					<dim>512</dim>
					<dim>8</dim>
					<dim>32</dim>
				</port>
			</output>
		</layer>
		<layer id="235" name="Reshape_2356" type="Const" version="opset1">
			<data element_type="f32" offset="21047632" shape="1, 512, 1, 1" size="2048"/>
			<output>
				<port id="0" precision="FP32">
					<dim>1</dim>
					<dim>512</dim>
					<dim>1</dim>
					<dim>1</dim>
				</port>
			</output>
		</layer>
		<layer id="236" name="1465" type="Add" version="opset1">
			<data auto_broadcast="numpy"/>
			<rt_info>
				<attribute name="fused_names" value="1465, Concat_2355, Constant_2339, Reshape_2356" version="0"/>
			</rt_info>
			<input>
				<port id="0" precision="FP32">
					<dim>1</dim>
					<dim>512</dim>
					<dim>8</dim>
					<dim>32</dim>
				</port>
				<port id="1" precision="FP32">
					<dim>1</dim>
					<dim>512</dim>
					<dim>1</dim>
					<dim>1</dim>
				</port>
			</input>
			<output>
				<port id="2" names="1465" precision="FP32">
					<dim>1</dim>
					<dim>512</dim>
					<dim>8</dim>
					<dim>32</dim>
				</port>
			</output>
		</layer>
		<layer id="237" name="579" type="ReLU" version="opset1">
			<rt_info>
				<attribute name="fused_names" value="579" version="0"/>
			</rt_info>
			<input>
				<port id="0" precision="FP32">
					<dim>1</dim>
					<dim>512</dim>
					<dim>8</dim>
					<dim>32</dim>
				</port>
			</input>
			<output>
				<port id="1" names="579" precision="FP32">
					<dim>1</dim>
					<dim>512</dim>
					<dim>8</dim>
					<dim>32</dim>
				</port>
			</output>
		</layer>
		<layer id="238" name="1469" type="Const" version="opset1">
			<data element_type="f32" offset="21049680" shape="512, 512, 3, 3" size="9437184"/>
			<rt_info>
				<attribute name="fused_names" value="1469" version="0"/>
			</rt_info>
			<output>
				<port id="0" names="1469" precision="FP32">
					<dim>512</dim>
					<dim>512</dim>
					<dim>3</dim>
					<dim>3</dim>
				</port>
			</output>
		</layer>
		<layer id="239" name="Convolution_2385" type="Convolution" version="opset1">
			<data auto_pad="explicit" dilations="1, 1" pads_begin="1, 1" pads_end="1, 1" strides="1, 1"/>
			<rt_info>
				<attribute name="fused_names" value="Convolution_2385" version="0"/>
			</rt_info>
			<input>
				<port id="0" precision="FP32">
					<dim>1</dim>
					<dim>512</dim>
					<dim>8</dim>
					<dim>32</dim>
				</port>
				<port id="1" precision="FP32">
					<dim>512</dim>
					<dim>512</dim>
					<dim>3</dim>
					<dim>3</dim>
				</port>
			</input>
			<output>
				<port id="2" precision="FP32">
					<dim>1</dim>
					<dim>512</dim>
					<dim>8</dim>
					<dim>32</dim>
				</port>
			</output>
		</layer>
		<layer id="240" name="Reshape_2405" type="Const" version="opset1">
			<data element_type="f32" offset="30486864" shape="1, 512, 1, 1" size="2048"/>
			<output>
				<port id="0" precision="FP32">
					<dim>1</dim>
					<dim>512</dim>
					<dim>1</dim>
					<dim>1</dim>
				</port>
			</output>
		</layer>
		<layer id="241" name="1468" type="Add" version="opset1">
			<data auto_broadcast="numpy"/>
			<rt_info>
				<attribute name="fused_names" value="1468, Concat_2404, Constant_2388, Reshape_2405" version="0"/>
			</rt_info>
			<input>
				<port id="0" precision="FP32">
					<dim>1</dim>
					<dim>512</dim>
					<dim>8</dim>
					<dim>32</dim>
				</port>
				<port id="1" precision="FP32">
					<dim>1</dim>
					<dim>512</dim>
					<dim>1</dim>
					<dim>1</dim>
				</port>
			</input>
			<output>
				<port id="2" names="1468" precision="FP32">
					<dim>1</dim>
					<dim>512</dim>
					<dim>8</dim>
					<dim>32</dim>
				</port>
			</output>
		</layer>
		<layer id="242" name="1472" type="Const" version="opset1">
			<data element_type="f32" offset="30488912" shape="512, 256, 1, 1" size="524288"/>
			<rt_info>
				<attribute name="fused_names" value="1472" version="0"/>
			</rt_info>
			<output>
				<port id="0" names="1472" precision="FP32">
					<dim>512</dim>
					<dim>256</dim>
					<dim>1</dim>
					<dim>1</dim>
				</port>
			</output>
		</layer>
		<layer id="243" name="Convolution_2433" type="Convolution" version="opset1">
			<data auto_pad="explicit" dilations="1, 1" pads_begin="0, 0" pads_end="0, 0" strides="1, 1"/>
			<rt_info>
				<attribute name="fused_names" value="Convolution_2433" version="0"/>
			</rt_info>
			<input>
				<port id="0" precision="FP32">
					<dim>1</dim>
					<dim>256</dim>
					<dim>8</dim>
					<dim>32</dim>
				</port>
				<port id="1" precision="FP32">
					<dim>512</dim>
					<dim>256</dim>
					<dim>1</dim>
					<dim>1</dim>
				</port>
			</input>
			<output>
				<port id="2" precision="FP32">
					<dim>1</dim>
					<dim>512</dim>
					<dim>8</dim>
					<dim>32</dim>
				</port>
			</output>
		</layer>
		<layer id="244" name="Reshape_2453" type="Const" version="opset1">
			<data element_type="f32" offset="31013200" shape="1, 512, 1, 1" size="2048"/>
			<output>
				<port id="0" precision="FP32">
					<dim>1</dim>
					<dim>512</dim>
					<dim>1</dim>
					<dim>1</dim>
				</port>
			</output>
		</layer>
		<layer id="245" name="1471" type="Add" version="opset1">
			<data auto_broadcast="numpy"/>
			<rt_info>
				<attribute name="fused_names" value="1471, Concat_2452, Constant_2436, Reshape_2453" version="0"/>
			</rt_info>
			<input>
				<port id="0" precision="FP32">
					<dim>1</dim>
					<dim>512</dim>
					<dim>8</dim>
					<dim>32</dim>
				</port>
				<port id="1" precision="FP32">
					<dim>1</dim>
					<dim>512</dim>
					<dim>1</dim>
					<dim>1</dim>
				</port>
			</input>
			<output>
				<port id="2" names="1471" precision="FP32">
					<dim>1</dim>
					<dim>512</dim>
					<dim>8</dim>
					<dim>32</dim>
				</port>
			</output>
		</layer>
		<layer id="246" name="584" type="Add" version="opset1">
			<data auto_broadcast="numpy"/>
			<rt_info>
				<attribute name="fused_names" value="584" version="0"/>
			</rt_info>
			<input>
				<port id="0" precision="FP32">
					<dim>1</dim>
					<dim>512</dim>
					<dim>8</dim>
					<dim>32</dim>
				</port>
				<port id="1" precision="FP32">
					<dim>1</dim>
					<dim>512</dim>
					<dim>8</dim>
					<dim>32</dim>
				</port>
			</input>
			<output>
				<port id="2" names="584" precision="FP32">
					<dim>1</dim>
					<dim>512</dim>
					<dim>8</dim>
					<dim>32</dim>
				</port>
			</output>
		</layer>
		<layer id="247" name="585" type="ReLU" version="opset1">
			<rt_info>
				<attribute name="fused_names" value="585" version="0"/>
			</rt_info>
			<input>
				<port id="0" precision="FP32">
					<dim>1</dim>
					<dim>512</dim>
					<dim>8</dim>
					<dim>32</dim>
				</port>
			</input>
			<output>
				<port id="1" names="585" precision="FP32">
					<dim>1</dim>
					<dim>512</dim>
					<dim>8</dim>
					<dim>32</dim>
				</port>
			</output>
		</layer>
		<layer id="248" name="1475" type="Const" version="opset1">
			<data element_type="f32" offset="31015248" shape="512, 512, 1, 1" size="1048576"/>
			<rt_info>
				<attribute name="fused_names" value="1475" version="0"/>
			</rt_info>
			<output>
				<port id="0" names="1475" precision="FP32">
					<dim>512</dim>
					<dim>512</dim>
					<dim>1</dim>
					<dim>1</dim>
				</port>
			</output>
		</layer>
		<layer id="249" name="Convolution_2483" type="Convolution" version="opset1">
			<data auto_pad="explicit" dilations="1, 1" pads_begin="0, 0" pads_end="0, 0" strides="1, 1"/>
			<rt_info>
				<attribute name="fused_names" value="Convolution_2483" version="0"/>
			</rt_info>
			<input>
				<port id="0" precision="FP32">
					<dim>1</dim>
					<dim>512</dim>
					<dim>8</dim>
					<dim>32</dim>
				</port>
				<port id="1" precision="FP32">
					<dim>512</dim>
					<dim>512</dim>
					<dim>1</dim>
					<dim>1</dim>
				</port>
			</input>
			<output>
				<port id="2" precision="FP32">
					<dim>1</dim>
					<dim>512</dim>
					<dim>8</dim>
					<dim>32</dim>
				</port>
			</output>
		</layer>
		<layer id="250" name="Reshape_2503" type="Const" version="opset1">
			<data element_type="f32" offset="32063824" shape="1, 512, 1, 1" size="2048"/>
			<output>
				<port id="0" precision="FP32">
					<dim>1</dim>
					<dim>512</dim>
					<dim>1</dim>
					<dim>1</dim>
				</port>
			</output>
		</layer>
		<layer id="251" name="1474" type="Add" version="opset1">
			<data auto_broadcast="numpy"/>
			<rt_info>
				<attribute name="fused_names" value="1474, Concat_2502, Constant_2486, Reshape_2503" version="0"/>
			</rt_info>
			<input>
				<port id="0" precision="FP32">
					<dim>1</dim>
					<dim>512</dim>
					<dim>8</dim>
					<dim>32</dim>
				</port>
				<port id="1" precision="FP32">
					<dim>1</dim>
					<dim>512</dim>
					<dim>1</dim>
					<dim>1</dim>
				</port>
			</input>
			<output>
				<port id="2" names="1474" precision="FP32">
					<dim>1</dim>
					<dim>512</dim>
					<dim>8</dim>
					<dim>32</dim>
				</port>
			</output>
		</layer>
		<layer id="252" name="588" type="ReLU" version="opset1">
			<rt_info>
				<attribute name="fused_names" value="588" version="0"/>
			</rt_info>
			<input>
				<port id="0" precision="FP32">
					<dim>1</dim>
					<dim>512</dim>
					<dim>8</dim>
					<dim>32</dim>
				</port>
			</input>
			<output>
				<port id="1" names="588" precision="FP32">
					<dim>1</dim>
					<dim>512</dim>
					<dim>8</dim>
					<dim>32</dim>
				</port>
			</output>
		</layer>
		<layer id="253" name="1478" type="Const" version="opset1">
			<data element_type="f32" offset="32065872" shape="512, 512, 3, 3" size="9437184"/>
			<rt_info>
				<attribute name="fused_names" value="1478" version="0"/>
			</rt_info>
			<output>
				<port id="0" names="1478" precision="FP32">
					<dim>512</dim>
					<dim>512</dim>
					<dim>3</dim>
					<dim>3</dim>
				</port>
			</output>
		</layer>
		<layer id="254" name="Convolution_2532" type="Convolution" version="opset1">
			<data auto_pad="explicit" dilations="1, 1" pads_begin="1, 1" pads_end="1, 1" strides="1, 1"/>
			<rt_info>
				<attribute name="fused_names" value="Convolution_2532" version="0"/>
			</rt_info>
			<input>
				<port id="0" precision="FP32">
					<dim>1</dim>
					<dim>512</dim>
					<dim>8</dim>
					<dim>32</dim>
				</port>
				<port id="1" precision="FP32">
					<dim>512</dim>
					<dim>512</dim>
					<dim>3</dim>
					<dim>3</dim>
				</port>
			</input>
			<output>
				<port id="2" precision="FP32">
					<dim>1</dim>
					<dim>512</dim>
					<dim>8</dim>
					<dim>32</dim>
				</port>
			</output>
		</layer>
		<layer id="255" name="Reshape_2552" type="Const" version="opset1">
			<data element_type="f32" offset="41503056" shape="1, 512, 1, 1" size="2048"/>
			<output>
				<port id="0" precision="FP32">
					<dim>1</dim>
					<dim>512</dim>
					<dim>1</dim>
					<dim>1</dim>
				</port>
			</output>
		</layer>
		<layer id="256" name="1477" type="Add" version="opset1">
			<data auto_broadcast="numpy"/>
			<rt_info>
				<attribute name="fused_names" value="1477, Concat_2551, Constant_2535, Reshape_2552" version="0"/>
			</rt_info>
			<input>
				<port id="0" precision="FP32">
					<dim>1</dim>
					<dim>512</dim>
					<dim>8</dim>
					<dim>32</dim>
				</port>
				<port id="1" precision="FP32">
					<dim>1</dim>
					<dim>512</dim>
					<dim>1</dim>
					<dim>1</dim>
				</port>
			</input>
			<output>
				<port id="2" names="1477" precision="FP32">
					<dim>1</dim>
					<dim>512</dim>
					<dim>8</dim>
					<dim>32</dim>
				</port>
			</output>
		</layer>
		<layer id="257" name="591" type="Add" version="opset1">
			<data auto_broadcast="numpy"/>
			<rt_info>
				<attribute name="fused_names" value="591" version="0"/>
			</rt_info>
			<input>
				<port id="0" precision="FP32">
					<dim>1</dim>
					<dim>512</dim>
					<dim>8</dim>
					<dim>32</dim>
				</port>
				<port id="1" precision="FP32">
					<dim>1</dim>
					<dim>512</dim>
					<dim>8</dim>
					<dim>32</dim>
				</port>
			</input>
			<output>
				<port id="2" names="591" precision="FP32">
					<dim>1</dim>
					<dim>512</dim>
					<dim>8</dim>
					<dim>32</dim>
				</port>
			</output>
		</layer>
		<layer id="258" name="592" type="ReLU" version="opset1">
			<rt_info>
				<attribute name="fused_names" value="592" version="0"/>
			</rt_info>
			<input>
				<port id="0" precision="FP32">
					<dim>1</dim>
					<dim>512</dim>
					<dim>8</dim>
					<dim>32</dim>
				</port>
			</input>
			<output>
				<port id="1" names="592" precision="FP32">
					<dim>1</dim>
					<dim>512</dim>
					<dim>8</dim>
					<dim>32</dim>
				</port>
			</output>
		</layer>
		<layer id="259" name="1481" type="Const" version="opset1">
			<data element_type="f32" offset="41505104" shape="512, 512, 1, 1" size="1048576"/>
			<rt_info>
				<attribute name="fused_names" value="1481" version="0"/>
			</rt_info>
			<output>
				<port id="0" names="1481" precision="FP32">
					<dim>512</dim>
					<dim>512</dim>
					<dim>1</dim>
					<dim>1</dim>
				</port>
			</output>
		</layer>
		<layer id="260" name="Convolution_2582" type="Convolution" version="opset1">
			<data auto_pad="explicit" dilations="1, 1" pads_begin="0, 0" pads_end="0, 0" strides="1, 1"/>
			<rt_info>
				<attribute name="fused_names" value="Convolution_2582" version="0"/>
			</rt_info>
			<input>
				<port id="0" precision="FP32">
					<dim>1</dim>
					<dim>512</dim>
					<dim>8</dim>
					<dim>32</dim>
				</port>
				<port id="1" precision="FP32">
					<dim>512</dim>
					<dim>512</dim>
					<dim>1</dim>
					<dim>1</dim>
				</port>
			</input>
			<output>
				<port id="2" precision="FP32">
					<dim>1</dim>
					<dim>512</dim>
					<dim>8</dim>
					<dim>32</dim>
				</port>
			</output>
		</layer>
		<layer id="261" name="Reshape_2602" type="Const" version="opset1">
			<data element_type="f32" offset="42553680" shape="1, 512, 1, 1" size="2048"/>
			<output>
				<port id="0" precision="FP32">
					<dim>1</dim>
					<dim>512</dim>
					<dim>1</dim>
					<dim>1</dim>
				</port>
			</output>
		</layer>
		<layer id="262" name="1480" type="Add" version="opset1">
			<data auto_broadcast="numpy"/>
			<rt_info>
				<attribute name="fused_names" value="1480, Concat_2601, Constant_2585, Reshape_2602" version="0"/>
			</rt_info>
			<input>
				<port id="0" precision="FP32">
					<dim>1</dim>
					<dim>512</dim>
					<dim>8</dim>
					<dim>32</dim>
				</port>
				<port id="1" precision="FP32">
					<dim>1</dim>
					<dim>512</dim>
					<dim>1</dim>
					<dim>1</dim>
				</port>
			</input>
			<output>
				<port id="2" names="1480" precision="FP32">
					<dim>1</dim>
					<dim>512</dim>
					<dim>8</dim>
					<dim>32</dim>
				</port>
			</output>
		</layer>
		<layer id="263" name="595" type="ReLU" version="opset1">
			<rt_info>
				<attribute name="fused_names" value="595" version="0"/>
			</rt_info>
			<input>
				<port id="0" precision="FP32">
					<dim>1</dim>
					<dim>512</dim>
					<dim>8</dim>
					<dim>32</dim>
				</port>
			</input>
			<output>
				<port id="1" names="595" precision="FP32">
					<dim>1</dim>
					<dim>512</dim>
					<dim>8</dim>
					<dim>32</dim>
				</port>
			</output>
		</layer>
		<layer id="264" name="1484" type="Const" version="opset1">
			<data element_type="f32" offset="42555728" shape="512, 512, 3, 3" size="9437184"/>
			<rt_info>
				<attribute name="fused_names" value="1484" version="0"/>
			</rt_info>
			<output>
				<port id="0" names="1484" precision="FP32">
					<dim>512</dim>
					<dim>512</dim>
					<dim>3</dim>
					<dim>3</dim>
				</port>
			</output>
		</layer>
		<layer id="265" name="Convolution_2631" type="Convolution" version="opset1">
			<data auto_pad="explicit" dilations="1, 1" pads_begin="1, 1" pads_end="1, 1" strides="1, 1"/>
			<rt_info>
				<attribute name="fused_names" value="Convolution_2631" version="0"/>
			</rt_info>
			<input>
				<port id="0" precision="FP32">
					<dim>1</dim>
					<dim>512</dim>
					<dim>8</dim>
					<dim>32</dim>
				</port>
				<port id="1" precision="FP32">
					<dim>512</dim>
					<dim>512</dim>
					<dim>3</dim>
					<dim>3</dim>
				</port>
			</input>
			<output>
				<port id="2" precision="FP32">
					<dim>1</dim>
					<dim>512</dim>
					<dim>8</dim>
					<dim>32</dim>
				</port>
			</output>
		</layer>
		<layer id="266" name="Reshape_2651" type="Const" version="opset1">
			<data element_type="f32" offset="51992912" shape="1, 512, 1, 1" size="2048"/>
			<output>
				<port id="0" precision="FP32">
					<dim>1</dim>
					<dim>512</dim>
					<dim>1</dim>
					<dim>1</dim>
				</port>
			</output>
		</layer>
		<layer id="267" name="1483" type="Add" version="opset1">
			<data auto_broadcast="numpy"/>
			<rt_info>
				<attribute name="fused_names" value="1483, Concat_2650, Constant_2634, Reshape_2651" version="0"/>
			</rt_info>
			<input>
				<port id="0" precision="FP32">
					<dim>1</dim>
					<dim>512</dim>
					<dim>8</dim>
					<dim>32</dim>
				</port>
				<port id="1" precision="FP32">
					<dim>1</dim>
					<dim>512</dim>
					<dim>1</dim>
					<dim>1</dim>
				</port>
			</input>
			<output>
				<port id="2" names="1483" precision="FP32">
					<dim>1</dim>
					<dim>512</dim>
					<dim>8</dim>
					<dim>32</dim>
				</port>
			</output>
		</layer>
		<layer id="268" name="598" type="Add" version="opset1">
			<data auto_broadcast="numpy"/>
			<rt_info>
				<attribute name="fused_names" value="598" version="0"/>
			</rt_info>
			<input>
				<port id="0" precision="FP32">
					<dim>1</dim>
					<dim>512</dim>
					<dim>8</dim>
					<dim>32</dim>
				</port>
				<port id="1" precision="FP32">
					<dim>1</dim>
					<dim>512</dim>
					<dim>8</dim>
					<dim>32</dim>
				</port>
			</input>
			<output>
				<port id="2" names="598" precision="FP32">
					<dim>1</dim>
					<dim>512</dim>
					<dim>8</dim>
					<dim>32</dim>
				</port>
			</output>
		</layer>
		<layer id="269" name="599" type="ReLU" version="opset1">
			<rt_info>
				<attribute name="fused_names" value="599" version="0"/>
			</rt_info>
			<input>
				<port id="0" precision="FP32">
					<dim>1</dim>
					<dim>512</dim>
					<dim>8</dim>
					<dim>32</dim>
				</port>
			</input>
			<output>
				<port id="1" names="599" precision="FP32">
					<dim>1</dim>
					<dim>512</dim>
					<dim>8</dim>
					<dim>32</dim>
				</port>
			</output>
		</layer>
		<layer id="270" name="Constant_2689" type="Const" version="opset1">
			<data element_type="i64" offset="51994960" shape="4" size="32"/>
			<rt_info>
				<attribute name="fused_names" value="Constant_2689" version="0"/>
			</rt_info>
			<output>
				<port id="0" precision="I64">
					<dim>4</dim>
				</port>
			</output>
		</layer>
		<layer id="271" name="606" type="Transpose" version="opset1">
			<rt_info>
				<attribute name="fused_names" value="606" version="0"/>
			</rt_info>
			<input>
				<port id="0" precision="FP32">
					<dim>1</dim>
					<dim>512</dim>
					<dim>8</dim>
					<dim>32</dim>
				</port>
				<port id="1" precision="I64">
					<dim>4</dim>
				</port>
			</input>
			<output>
				<port id="2" names="606" precision="FP32">
					<dim>1</dim>
					<dim>512</dim>
					<dim>32</dim>
					<dim>8</dim>
				</port>
			</output>
		</layer>
		<layer id="272" name="600" type="ShapeOf" version="opset3">
			<data output_type="i64"/>
			<rt_info>
				<attribute name="fused_names" value="600, 603" version="0"/>
			</rt_info>
			<input>
				<port id="0" precision="FP32">
					<dim>1</dim>
					<dim>512</dim>
					<dim>8</dim>
					<dim>32</dim>
				</port>
			</input>
			<output>
				<port id="1" names="600,603" precision="I64">
					<dim>4</dim>
				</port>
			</output>
		</layer>
		<layer id="273" name="Constant_19367" type="Const" version="opset1">
			<data element_type="i64" offset="51994992" shape="2" size="16"/>
			<rt_info>
				<attribute name="fused_names" value="1486, 614" version="0"/>
			</rt_info>
			<output>
				<port id="0" precision="I64">
					<dim>2</dim>
				</port>
			</output>
		</layer>
		<layer id="274" name="Constant_19368" type="Const" version="opset1">
			<data element_type="i64" offset="51995008" shape="" size="8"/>
			<output>
				<port id="0" precision="I64"/>
			</output>
		</layer>
		<layer id="275" name="Gather_19369" type="Gather" version="opset8">
			<data batch_dims="0"/>
			<rt_info>
				<attribute name="fused_names" value="1486, 614" version="0"/>
			</rt_info>
			<input>
				<port id="0" precision="I64">
					<dim>4</dim>
				</port>
				<port id="1" precision="I64">
					<dim>2</dim>
				</port>
				<port id="2" precision="I64"/>
			</input>
			<output>
				<port id="3" precision="I64">
					<dim>2</dim>
				</port>
			</output>
		</layer>
		<layer id="276" name="1486" type="Const" version="opset1">
			<data element_type="i64" offset="51995016" shape="1" size="8"/>
			<rt_info>
				<attribute name="fused_names" value="1486" version="0"/>
			</rt_info>
			<output>
				<port id="0" names="1486" precision="I64">
					<dim>1</dim>
				</port>
			</output>
		</layer>
		<layer id="277" name="614" type="Concat" version="opset1">
			<data axis="0"/>
			<rt_info>
				<attribute name="fused_names" value="1486, 614" version="0"/>
			</rt_info>
			<input>
				<port id="0" precision="I64">
					<dim>2</dim>
				</port>
				<port id="1" precision="I64">
					<dim>1</dim>
				</port>
			</input>
			<output>
				<port id="2" names="614" precision="I64">
					<dim>3</dim>
				</port>
			</output>
		</layer>
		<layer id="278" name="615" type="Reshape" version="opset1">
			<data special_zero="true"/>
			<rt_info>
				<attribute name="fused_names" value="615" version="0"/>
			</rt_info>
			<input>
				<port id="0" precision="FP32">
					<dim>1</dim>
					<dim>512</dim>
					<dim>32</dim>
					<dim>8</dim>
				</port>
				<port id="1" precision="I64">
					<dim>3</dim>
				</port>
			</input>
			<output>
				<port id="2" names="615" precision="FP32">
					<dim>1</dim>
					<dim>512</dim>
					<dim>256</dim>
				</port>
			</output>
		</layer>
		<layer id="279" name="Constant_2741" type="Const" version="opset1">
			<data element_type="i64" offset="51995024" shape="3" size="24"/>
			<rt_info>
				<attribute name="fused_names" value="Constant_2741" version="0"/>
			</rt_info>
			<output>
				<port id="0" precision="I64">
					<dim>3</dim>
				</port>
			</output>
		</layer>
		<layer id="280" name="616" type="Transpose" version="opset1">
			<rt_info>
				<attribute name="fused_names" value="616" version="0"/>
			</rt_info>
			<input>
				<port id="0" precision="FP32">
					<dim>1</dim>
					<dim>512</dim>
					<dim>256</dim>
				</port>
				<port id="1" precision="I64">
					<dim>3</dim>
				</port>
			</input>
			<output>
				<port id="2" names="616" precision="FP32">
					<dim>1</dim>
					<dim>256</dim>
					<dim>512</dim>
				</port>
			</output>
		</layer>
		<layer id="281" name="MLM_VRM.SequenceModeling.position_enc.pos_table" type="Const" version="opset1">
			<data element_type="f32" offset="51995048" shape="1, 256, 512" size="524288"/>
			<rt_info>
				<attribute name="fused_names" value="MLM_VRM.SequenceModeling.position_enc.pos_table" version="0"/>
			</rt_info>
			<output>
				<port id="0" names="MLM_VRM.SequenceModeling.position_enc.pos_table" precision="FP32">
					<dim>1</dim>
					<dim>256</dim>
					<dim>512</dim>
				</port>
			</output>
		</layer>
		<layer id="282" name="Constant_21073" type="Const" version="opset1">
			<data element_type="i64" offset="52519336" shape="2" size="16"/>
			<rt_info>
				<attribute name="fused_names" value="629" version="0"/>
			</rt_info>
			<output>
				<port id="0" precision="I64">
					<dim>2</dim>
				</port>
			</output>
		</layer>
		<layer id="283" name="Constant_21074" type="Const" version="opset1">
			<data element_type="i64" offset="52519336" shape="2" size="16"/>
			<rt_info>
				<attribute name="fused_names" value="629" version="0"/>
			</rt_info>
			<output>
				<port id="0" precision="I64">
					<dim>2</dim>
				</port>
			</output>
		</layer>
		<layer id="284" name="Constant_21070" type="Const" version="opset1">
			<data element_type="i64" offset="52519352" shape="1" size="8"/>
			<rt_info>
				<attribute name="fused_names" value="629" version="0"/>
			</rt_info>
			<output>
				<port id="0" precision="I64">
					<dim>1</dim>
				</port>
			</output>
		</layer>
		<layer id="285" name="617" type="ShapeOf" version="opset3">
			<data output_type="i64"/>
			<rt_info>
				<attribute name="fused_names" value="617" version="0"/>
			</rt_info>
			<input>
				<port id="0" precision="FP32">
					<dim>1</dim>
					<dim>256</dim>
					<dim>512</dim>
				</port>
			</input>
			<output>
				<port id="1" names="617" precision="I64">
					<dim>3</dim>
				</port>
			</output>
		</layer>
		<layer id="286" name="Constant_18995" type="Const" version="opset1">
			<data element_type="i64" offset="52519352" shape="1" size="8"/>
			<rt_info>
				<attribute name="fused_names" value="618, 619, 624, 625, Constant_2745" version="0"/>
			</rt_info>
			<output>
				<port id="0" precision="I64">
					<dim>1</dim>
				</port>
			</output>
		</layer>
		<layer id="287" name="Constant_2745" type="Const" version="opset1">
			<data element_type="i64" offset="51995008" shape="" size="8"/>
			<rt_info>
				<attribute name="fused_names" value="Constant_2745" version="0"/>
			</rt_info>
			<output>
				<port id="0" precision="I64"/>
			</output>
		</layer>
		<layer id="288" name="619" type="Gather" version="opset8">
			<data batch_dims="0"/>
			<rt_info>
				<attribute name="fused_names" value="618, 619, 624, 625, Constant_2745" version="0"/>
			</rt_info>
			<input>
				<port id="0" precision="I64">
					<dim>3</dim>
				</port>
				<port id="1" precision="I64">
					<dim>1</dim>
				</port>
				<port id="2" precision="I64"/>
			</input>
			<output>
				<port id="3" names="625" precision="I64">
					<dim>1</dim>
				</port>
			</output>
		</layer>
		<layer id="289" name="Constant_21069" type="Const" version="opset1">
			<data element_type="i32" offset="52519360" shape="1" size="4"/>
			<rt_info>
				<attribute name="fused_names" value="629" version="0"/>
			</rt_info>
			<output>
				<port id="0" precision="I32">
					<dim>1</dim>
				</port>
			</output>
		</layer>
		<layer id="290" name="ScatterUpdate_21075" type="ScatterUpdate" version="opset3">
			<rt_info>
				<attribute name="fused_names" value="629" version="0"/>
			</rt_info>
			<input>
				<port id="0" precision="I64">
					<dim>2</dim>
				</port>
				<port id="1" precision="I64">
					<dim>1</dim>
				</port>
				<port id="2" precision="I64">
					<dim>1</dim>
				</port>
				<port id="3" precision="I32">
					<dim>1</dim>
				</port>
			</input>
			<output>
				<port id="4" precision="I64">
					<dim>2</dim>
				</port>
			</output>
		</layer>
		<layer id="291" name="Constant_21078" type="Const" version="opset1">
			<data element_type="i64" offset="52519364" shape="2" size="16"/>
			<rt_info>
				<attribute name="fused_names" value="629" version="0"/>
			</rt_info>
			<output>
				<port id="0" precision="I64">
					<dim>2</dim>
				</port>
			</output>
		</layer>
		<layer id="292" name="629" type="StridedSlice" version="opset1">
			<data begin_mask="1, 0" ellipsis_mask="" end_mask="1, 0" new_axis_mask="" shrink_axis_mask=""/>
			<rt_info>
				<attribute name="fused_names" value="629" version="0"/>
			</rt_info>
			<input>
				<port id="0" precision="FP32">
					<dim>1</dim>
					<dim>256</dim>
					<dim>512</dim>
				</port>
				<port id="1" precision="I64">
					<dim>2</dim>
				</port>
				<port id="2" precision="I64">
					<dim>2</dim>
				</port>
				<port id="3" precision="I64">
					<dim>2</dim>
				</port>
			</input>
			<output>
				<port id="4" names="629" precision="FP32">
					<dim>1</dim>
					<dim>256</dim>
					<dim>512</dim>
				</port>
			</output>
		</layer>
		<layer id="293" name="630" type="Add" version="opset1">
			<data auto_broadcast="numpy"/>
			<rt_info>
				<attribute name="fused_names" value="630" version="0"/>
			</rt_info>
			<input>
				<port id="0" precision="FP32">
					<dim>1</dim>
					<dim>256</dim>
					<dim>512</dim>
				</port>
				<port id="1" precision="FP32">
					<dim>1</dim>
					<dim>256</dim>
					<dim>512</dim>
				</port>
			</input>
			<output>
				<port id="2" names="630" precision="FP32">
					<dim>1</dim>
					<dim>256</dim>
					<dim>512</dim>
				</port>
			</output>
		</layer>
		<layer id="294" name="Constant_22810" type="Const" version="opset1">
			<data element_type="f32" offset="52519380" shape="512, 512" size="1048576"/>
			<rt_info>
				<attribute name="fused_names" value="1489, 644" version="0"/>
			</rt_info>
			<output>
				<port id="0" precision="FP32">
					<dim>512</dim>
					<dim>512</dim>
				</port>
			</output>
		</layer>
		<layer id="295" name="644" type="MatMul" version="opset1">
			<data transpose_a="false" transpose_b="true"/>
			<rt_info>
				<attribute name="fused_names" value="1489, 644" version="0"/>
			</rt_info>
			<input>
				<port id="0" precision="FP32">
					<dim>1</dim>
					<dim>256</dim>
					<dim>512</dim>
				</port>
				<port id="1" precision="FP32">
					<dim>512</dim>
					<dim>512</dim>
				</port>
			</input>
			<output>
				<port id="2" names="644" precision="FP32">
					<dim>1</dim>
					<dim>256</dim>
					<dim>512</dim>
				</port>
			</output>
		</layer>
		<layer id="296" name="Constant_23142" type="Const" version="opset1">
			<data element_type="f32" offset="53567956" shape="1, 1, 512" size="2048"/>
			<output>
…
		<edge from-layer="212" from-port="2" to-layer="214" to-port="0"/>
		<edge from-layer="213" from-port="0" to-layer="214" to-port="1"/>
		<edge from-layer="214" from-port="2" to-layer="215" to-port="0"/>
		<edge from-layer="215" from-port="1" to-layer="217" to-port="0"/>
		<edge from-layer="216" from-port="0" to-layer="217" to-port="1"/>
		<edge from-layer="217" from-port="2" to-layer="219" to-port="0"/>
		<edge from-layer="218" from-port="0" to-layer="219" to-port="1"/>
		<edge from-layer="219" from-port="2" to-layer="220" to-port="0"/>
		<edge from-layer="220" from-port="2" to-layer="221" to-port="0"/>
		<edge from-layer="221" from-port="1" to-layer="223" to-port="0"/>
		<edge from-layer="221" from-port="1" to-layer="231" to-port="1"/>
		<edge from-layer="222" from-port="0" to-layer="223" to-port="1"/>
		<edge from-layer="223" from-port="2" to-layer="225" to-port="0"/>
		<edge from-layer="224" from-port="0" to-layer="225" to-port="1"/>
		<edge from-layer="225" from-port="2" to-layer="226" to-port="0"/>
		<edge from-layer="226" from-port="1" to-layer="228" to-port="0"/>
		<edge from-layer="227" from-port="0" to-layer="228" to-port="1"/>
		<edge from-layer="228" from-port="2" to-layer="230" to-port="0"/>
		<edge from-layer="229" from-port="0" to-layer="230" to-port="1"/>
		<edge from-layer="230" from-port="2" to-layer="231" to-port="0"/>
		<edge from-layer="231" from-port="2" to-layer="232" to-port="0"/>
		<edge from-layer="232" from-port="1" to-layer="243" to-port="0"/>
		<edge from-layer="232" from-port="1" to-layer="234" to-port="0"/>
		<edge from-layer="233" from-port="0" to-layer="234" to-port="1"/>
		<edge from-layer="234" from-port="2" to-layer="236" to-port="0"/>
		<edge from-layer="235" from-port="0" to-layer="236" to-port="1"/>
		<edge from-layer="236" from-port="2" to-layer="237" to-port="0"/>
		<edge from-layer="237" from-port="1" to-layer="239" to-port="0"/>
		<edge from-layer="238" from-port="0" to-layer="239" to-port="1"/>
		<edge from-layer="239" from-port="2" to-layer="241" to-port="0"/>
		<edge from-layer="240" from-port="0" to-layer="241" to-port="1"/>
		<edge from-layer="241" from-port="2" to-layer="246" to-port="0"/>
		<edge from-layer="242" from-port="0" to-layer="243" to-port="1"/>
		<edge from-layer="243" from-port="2" to-layer="245" to-port="0"/>
		<edge from-layer="244" from-port="0" to-layer="245" to-port="1"/>
		<edge from-layer="245" from-port="2" to-layer="246" to-port="1"/>
		<edge from-layer="246" from-port="2" to-layer="247" to-port="0"/>
		<edge from-layer="247" from-port="1" to-layer="249" to-port="0"/>
		<edge from-layer="247" from-port="1" to-layer="257" to-port="1"/>
		<edge from-layer="248" from-port="0" to-layer="249" to-port="1"/>
		<edge from-layer="249" from-port="2" to-layer="251" to-port="0"/>
		<edge from-layer="250" from-port="0" to-layer="251" to-port="1"/>
		<edge from-layer="251" from-port="2" to-layer="252" to-port="0"/>
		<edge from-layer="252" from-port="1" to-layer="254" to-port="0"/>
		<edge from-layer="253" from-port="0" to-layer="254" to-port="1"/>
		<edge from-layer="254" from-port="2" to-layer="256" to-port="0"/>
		<edge from-layer="255" from-port="0" to-layer="256" to-port="1"/>
		<edge from-layer="256" from-port="2" to-layer="257" to-port="0"/>
		<edge from-layer="257" from-port="2" to-layer="258" to-port="0"/>
		<edge from-layer="258" from-port="1" to-layer="260" to-port="0"/>
		<edge from-layer="258" from-port="1" to-layer="268" to-port="1"/>
		<edge from-layer="259" from-port="0" to-layer="260" to-port="1"/>
		<edge from-layer="260" from-port="2" to-layer="262" to-port="0"/>
		<edge from-layer="261" from-port="0" to-layer="262" to-port="1"/>
		<edge from-layer="262" from-port="2" to-layer="263" to-port="0"/>
		<edge from-layer="263" from-port="1" to-layer="265" to-port="0"/>
		<edge from-layer="264" from-port="0" to-layer="265" to-port="1"/>
		<edge from-layer="265" from-port="2" to-layer="267" to-port="0"/>
		<edge from-layer="266" from-port="0" to-layer="267" to-port="1"/>
		<edge from-layer="267" from-port="2" to-layer="268" to-port="0"/>
		<edge from-layer="268" from-port="2" to-layer="269" to-port="0"/>
		<edge from-layer="269" from-port="1" to-layer="271" to-port="0"/>
		<edge from-layer="269" from-port="1" to-layer="272" to-port="0"/>
		<edge from-layer="270" from-port="0" to-layer="271" to-port="1"/>
		<edge from-layer="271" from-port="2" to-layer="278" to-port="0"/>
		<edge from-layer="272" from-port="1" to-layer="275" to-port="0"/>
		<edge from-layer="272" from-port="1" to-layer="694" to-port="0"/>
		<edge from-layer="273" from-port="0" to-layer="275" to-port="1"/>
		<edge from-layer="274" from-port="0" to-layer="275" to-port="2"/>
		<edge from-layer="275" from-port="3" to-layer="277" to-port="0"/>
		<edge from-layer="276" from-port="0" to-layer="277" to-port="1"/>
		<edge from-layer="277" from-port="2" to-layer="278" to-port="1"/>
		<edge from-layer="278" from-port="2" to-layer="280" to-port="0"/>
		<edge from-layer="279" from-port="0" to-layer="280" to-port="1"/>
		<edge from-layer="280" from-port="2" to-layer="285" to-port="0"/>
		<edge from-layer="280" from-port="2" to-layer="293" to-port="0"/>
		<edge from-layer="281" from-port="0" to-layer="292" to-port="0"/>
		<edge from-layer="282" from-port="0" to-layer="292" to-port="1"/>
		<edge from-layer="283" from-port="0" to-layer="290" to-port="0"/>
		<edge from-layer="284" from-port="0" to-layer="290" to-port="1"/>
		<edge from-layer="285" from-port="1" to-layer="288" to-port="0"/>
		<edge from-layer="286" from-port="0" to-layer="288" to-port="1"/>
		<edge from-layer="287" from-port="0" to-layer="288" to-port="2"/>
		<edge from-layer="288" from-port="3" to-layer="290" to-port="2"/>
		<edge from-layer="289" from-port="0" to-layer="290" to-port="3"/>
		<edge from-layer="290" from-port="4" to-layer="292" to-port="2"/>
		<edge from-layer="291" from-port="0" to-layer="292" to-port="3"/>
		<edge from-layer="292" from-port="4" to-layer="293" to-port="1"/>
		<edge from-layer="293" from-port="2" to-layer="381" to-port="1"/>
		<edge from-layer="293" from-port="2" to-layer="316" to-port="0"/>
		<edge from-layer="293" from-port="2" to-layer="342" to-port="0"/>
		<edge from-layer="293" from-port="2" to-layer="295" to-port="0"/>
		<edge from-layer="293" from-port="2" to-layer="298" to-port="0"/>
		<edge from-layer="294" from-port="0" to-layer="295" to-port="1"/>
		<edge from-layer="295" from-port="2" to-layer="297" to-port="0"/>
		<edge from-layer="296" from-port="0" to-layer="297" to-port="1"/>
		<edge from-layer="297" from-port="2" to-layer="305" to-port="0"/>
		<edge from-layer="298" from-port="1" to-layer="347" to-port="0"/>
		<edge from-layer="298" from-port="1" to-layer="365" to-port="0"/>
		<edge from-layer="298" from-port="1" to-layer="373" to-port="0"/>
		<edge from-layer="298" from-port="1" to-layer="357" to-port="0"/>
		<edge from-layer="298" from-port="1" to-layer="331" to-port="0"/>
		<edge from-layer="298" from-port="1" to-layer="321" to-port="0"/>
		<edge from-layer="298" from-port="1" to-layer="301" to-port="0"/>
		<edge from-layer="298" from-port="1" to-layer="311" to-port="0"/>
		<edge from-layer="299" from-port="0" to-layer="301" to-port="1"/>
		<edge from-layer="300" from-port="0" to-layer="301" to-port="2"/>
		<edge from-layer="301" from-port="3" to-layer="304" to-port="0"/>
		<edge from-layer="302" from-port="0" to-layer="304" to-port="1"/>
		<edge from-layer="303" from-port="0" to-layer="304" to-port="2"/>
		<edge from-layer="304" from-port="3" to-layer="305" to-port="1"/>
		<edge from-layer="305" from-port="2" to-layer="307" to-port="0"/>
		<edge from-layer="306" from-port="0" to-layer="307" to-port="1"/>
		<edge from-layer="307" from-port="2" to-layer="314" to-port="0"/>
		<edge from-layer="308" from-port="0" to-layer="313" to-port="0"/>
		<edge from-layer="309" from-port="0" to-layer="311" to-port="1"/>
		<edge from-layer="310" from-port="0" to-layer="311" to-port="2"/>
		<edge from-layer="311" from-port="3" to-layer="313" to-port="1"/>
		<edge from-layer="312" from-port="0" to-layer="313" to-port="2"/>
		<edge from-layer="313" from-port="3" to-layer="314" to-port="1"/>
		<edge from-layer="314" from-port="2" to-layer="339" to-port="0"/>
		<edge from-layer="315" from-port="0" to-layer="316" to-port="1"/>
		<edge from-layer="316" from-port="2" to-layer="318" to-port="0"/>
		<edge from-layer="317" from-port="0" to-layer="318" to-port="1"/>
		<edge from-layer="318" from-port="2" to-layer="325" to-port="0"/>
		<edge from-layer="319" from-port="0" to-layer="321" to-port="1"/>
		<edge from-layer="320" from-port="0" to-layer="321" to-port="2"/>
		<edge from-layer="321" from-port="3" to-layer="324" to-port="0"/>
		<edge from-layer="322" from-port="0" to-layer="324" to-port="1"/>
		<edge from-layer="323" from-port="0" to-layer="324" to-port="2"/>
		<edge from-layer="324" from-port="3" to-layer="325" to-port="1"/>
		<edge from-layer="325" from-port="2" to-layer="327" to-port="0"/>
		<edge from-layer="326" from-port="0" to-layer="327" to-port="1"/>
		<edge from-layer="327" from-port="2" to-layer="334" to-port="0"/>
		<edge from-layer="328" from-port="0" to-layer="333" to-port="0"/>
		<edge from-layer="329" from-port="0" to-layer="331" to-port="1"/>
		<edge from-layer="330" from-port="0" to-layer="331" to-port="2"/>
		<edge from-layer="331" from-port="3" to-layer="333" to-port="1"/>
		<edge from-layer="332" from-port="0" to-layer="333" to-port="2"/>
		<edge from-layer="333" from-port="3" to-layer="334" to-port="1"/>
		<edge from-layer="334" from-port="2" to-layer="336" to-port="0"/>
		<edge from-layer="335" from-port="0" to-layer="336" to-port="1"/>
		<edge from-layer="336" from-port="2" to-layer="338" to-port="0"/>
		<edge from-layer="337" from-port="0" to-layer="338" to-port="1"/>
		<edge from-layer="338" from-port="2" to-layer="339" to-port="1"/>
		<edge from-layer="339" from-port="2" to-layer="340" to-port="0"/>
		<edge from-layer="340" from-port="1" to-layer="361" to-port="0"/>
		<edge from-layer="341" from-port="0" to-layer="342" to-port="1"/>
		<edge from-layer="342" from-port="2" to-layer="344" to-port="0"/>
		<edge from-layer="343" from-port="0" to-layer="344" to-port="1"/>
		<edge from-layer="344" from-port="2" to-layer="351" to-port="0"/>
		<edge from-layer="345" from-port="0" to-layer="347" to-port="1"/>
		<edge from-layer="346" from-port="0" to-layer="347" to-port="2"/>
		<edge from-layer="347" from-port="3" to-layer="350" to-port="0"/>
		<edge from-layer="348" from-port="0" to-layer="350" to-port="1"/>
		<edge from-layer="349" from-port="0" to-layer="350" to-port="2"/>
		<edge from-layer="350" from-port="3" to-layer="351" to-port="1"/>
		<edge from-layer="351" from-port="2" to-layer="353" to-port="0"/>
		<edge from-layer="352" from-port="0" to-layer="353" to-port="1"/>
		<edge from-layer="353" from-port="2" to-layer="360" to-port="0"/>
		<edge from-layer="354" from-port="0" to-layer="359" to-port="0"/>
		<edge from-layer="355" from-port="0" to-layer="357" to-port="1"/>
		<edge from-layer="356" from-port="0" to-layer="357" to-port="2"/>
		<edge from-layer="357" from-port="3" to-layer="359" to-port="1"/>
		<edge from-layer="358" from-port="0" to-layer="359" to-port="2"/>
		<edge from-layer="359" from-port="3" to-layer="360" to-port="1"/>
		<edge from-layer="360" from-port="2" to-layer="361" to-port="1"/>
		<edge from-layer="361" from-port="2" to-layer="368" to-port="0"/>
		<edge from-layer="362" from-port="0" to-layer="367" to-port="0"/>
		<edge from-layer="363" from-port="0" to-layer="365" to-port="1"/>
		<edge from-layer="364" from-port="0" to-layer="365" to-port="2"/>
		<edge from-layer="365" from-port="3" to-layer="367" to-port="1"/>
		<edge from-layer="366" from-port="0" to-layer="367" to-port="2"/>
		<edge from-layer="367" from-port="3" to-layer="368" to-port="1"/>
		<edge from-layer="368" from-port="2" to-layer="370" to-port="0"/>
		<edge from-layer="369" from-port="0" to-layer="370" to-port="1"/>
		<edge from-layer="370" from-port="2" to-layer="376" to-port="0"/>
		<edge from-layer="371" from-port="0" to-layer="373" to-port="1"/>
		<edge from-layer="372" from-port="0" to-layer="373" to-port="2"/>
		<edge from-layer="373" from-port="3" to-layer="375" to-port="0"/>
		<edge from-layer="374" from-port="0" to-layer="375" to-port="1"/>
		<edge from-layer="375" from-port="2" to-layer="376" to-port="1"/>
		<edge from-layer="376" from-port="2" to-layer="378" to-port="0"/>
		<edge from-layer="377" from-port="0" to-layer="378" to-port="1"/>
		<edge from-layer="378" from-port="2" to-layer="380" to-port="0"/>
		<edge from-layer="379" from-port="0" to-layer="380" to-port="1"/>
		<edge from-layer="380" from-port="2" to-layer="381" to-port="0"/>
		<edge from-layer="381" from-port="2" to-layer="383" to-port="0"/>
		<edge from-layer="382" from-port="0" to-layer="383" to-port="1"/>
		<edge from-layer="383" from-port="2" to-layer="385" to-port="0"/>
		<edge from-layer="384" from-port="0" to-layer="385" to-port="1"/>
		<edge from-layer="385" from-port="2" to-layer="387" to-port="0"/>
		<edge from-layer="386" from-port="0" to-layer="387" to-port="1"/>
		<edge from-layer="387" from-port="2" to-layer="389" to-port="0"/>
		<edge from-layer="387" from-port="2" to-layer="401" to-port="1"/>
		<edge from-layer="388" from-port="0" to-layer="389" to-port="1"/>
		<edge from-layer="389" from-port="2" to-layer="391" to-port="0"/>
		<edge from-layer="390" from-port="0" to-layer="391" to-port="1"/>
		<edge from-layer="391" from-port="2" to-layer="393" to-port="0"/>
		<edge from-layer="392" from-port="0" to-layer="393" to-port="1"/>
		<edge from-layer="393" from-port="2" to-layer="394" to-port="0"/>
		<edge from-layer="394" from-port="1" to-layer="396" to-port="0"/>
		<edge from-layer="395" from-port="0" to-layer="396" to-port="1"/>
		<edge from-layer="396" from-port="2" to-layer="398" to-port="0"/>
		<edge from-layer="397" from-port="0" to-layer="398" to-port="1"/>
		<edge from-layer="398" from-port="2" to-layer="400" to-port="0"/>
		<edge from-layer="399" from-port="0" to-layer="400" to-port="1"/>
		<edge from-layer="400" from-port="2" to-layer="401" to-port="0"/>
		<edge from-layer="401" from-port="2" to-layer="403" to-port="0"/>
		<edge from-layer="402" from-port="0" to-layer="403" to-port="1"/>
		<edge from-layer="403" from-port="2" to-layer="405" to-port="0"/>
		<edge from-layer="404" from-port="0" to-layer="405" to-port="1"/>
		<edge from-layer="405" from-port="2" to-layer="407" to-port="0"/>
		<edge from-layer="406" from-port="0" to-layer="407" to-port="1"/>
		<edge from-layer="407" from-port="2" to-layer="456" to-port="0"/>
		<edge from-layer="407" from-port="2" to-layer="495" to-port="1"/>
		<edge from-layer="407" from-port="2" to-layer="430" to-port="0"/>
		<edge from-layer="407" from-port="2" to-layer="412" to-port="0"/>
		<edge from-layer="407" from-port="2" to-layer="409" to-port="0"/>
		<edge from-layer="408" from-port="0" to-layer="409" to-port="1"/>
		<edge from-layer="409" from-port="2" to-layer="411" to-port="0"/>
		<edge from-layer="410" from-port="0" to-layer="411" to-port="1"/>
		<edge from-layer="411" from-port="2" to-layer="419" to-port="0"/>
		<edge from-layer="412" from-port="1" to-layer="487" to-port="0"/>
		<edge from-layer="412" from-port="1" to-layer="479" to-port="0"/>
		<edge from-layer="412" from-port="1" to-layer="471" to-port="0"/>
		<edge from-layer="412" from-port="1" to-layer="461" to-port="0"/>
		<edge from-layer="412" from-port="1" to-layer="435" to-port="0"/>
		<edge from-layer="412" from-port="1" to-layer="445" to-port="0"/>
		<edge from-layer="412" from-port="1" to-layer="425" to-port="0"/>
		<edge from-layer="412" from-port="1" to-layer="415" to-port="0"/>
		<edge from-layer="413" from-port="0" to-layer="415" to-port="1"/>
		<edge from-layer="414" from-port="0" to-layer="415" to-port="2"/>
		<edge from-layer="415" from-port="3" to-layer="418" to-port="0"/>
		<edge from-layer="416" from-port="0" to-layer="418" to-port="1"/>
		<edge from-layer="417" from-port="0" to-layer="418" to-port="2"/>
		<edge from-layer="418" from-port="3" to-layer="419" to-port="1"/>
		<edge from-layer="419" from-port="2" to-layer="421" to-port="0"/>
		<edge from-layer="420" from-port="0" to-layer="421" to-port="1"/>
		<edge from-layer="421" from-port="2" to-layer="428" to-port="0"/>
		<edge from-layer="422" from-port="0" to-layer="427" to-port="0"/>
		<edge from-layer="423" from-port="0" to-layer="425" to-port="1"/>
		<edge from-layer="424" from-port="0" to-layer="425" to-port="2"/>
		<edge from-layer="425" from-port="3" to-layer="427" to-port="1"/>
		<edge from-layer="426" from-port="0" to-layer="427" to-port="2"/>
		<edge from-layer="427" from-port="3" to-layer="428" to-port="1"/>
		<edge from-layer="428" from-port="2" to-layer="453" to-port="0"/>
		<edge from-layer="429" from-port="0" to-layer="430" to-port="1"/>
		<edge from-layer="430" from-port="2" to-layer="432" to-port="0"/>
		<edge from-layer="431" from-port="0" to-layer="432" to-port="1"/>
		<edge from-layer="432" from-port="2" to-layer="439" to-port="0"/>
		<edge from-layer="433" from-port="0" to-layer="435" to-port="1"/>
		<edge from-layer="434" from-port="0" to-layer="435" to-port="2"/>
		<edge from-layer="435" from-port="3" to-layer="438" to-port="0"/>
		<edge from-layer="436" from-port="0" to-layer="438" to-port="1"/>
		<edge from-layer="437" from-port="0" to-layer="438" to-port="2"/>
		<edge from-layer="438" from-port="3" to-layer="439" to-port="1"/>
		<edge from-layer="439" from-port="2" to-layer="441" to-port="0"/>
		<edge from-layer="440" from-port="0" to-layer="441" to-port="1"/>
		<edge from-layer="441" from-port="2" to-layer="448" to-port="0"/>
		<edge from-layer="442" from-port="0" to-layer="447" to-port="0"/>
		<edge from-layer="443" from-port="0" to-layer="445" to-port="1"/>
		<edge from-layer="444" from-port="0" to-layer="445" to-port="2"/>
		<edge from-layer="445" from-port="3" to-layer="447" to-port="1"/>
		<edge from-layer="446" from-port="0" to-layer="447" to-port="2"/>
		<edge from-layer="447" from-port="3" to-layer="448" to-port="1"/>
		<edge from-layer="448" from-port="2" to-layer="450" to-port="0"/>
		<edge from-layer="449" from-port="0" to-layer="450" to-port="1"/>
		<edge from-layer="450" from-port="2" to-layer="452" to-port="0"/>
		<edge from-layer="451" from-port="0" to-layer="452" to-port="1"/>
		<edge from-layer="452" from-port="2" to-layer="453" to-port="1"/>
		<edge from-layer="453" from-port="2" to-layer="454" to-port="0"/>
		<edge from-layer="454" from-port="1" to-layer="475" to-port="0"/>
		<edge from-layer="455" from-port="0" to-layer="456" to-port="1"/>
		<edge from-layer="456" from-port="2" to-layer="458" to-port="0"/>
		<edge from-layer="457" from-port="0" to-layer="458" to-port="1"/>
		<edge from-layer="458" from-port="2" to-layer="465" to-port="0"/>
		<edge from-layer="459" from-port="0" to-layer="461" to-port="1"/>
		<edge from-layer="460" from-port="0" to-layer="461" to-port="2"/>
		<edge from-layer="461" from-port="3" to-layer="464" to-port="0"/>
		<edge from-layer="462" from-port="0" to-layer="464" to-port="1"/>
		<edge from-layer="463" from-port="0" to-layer="464" to-port="2"/>
		<edge from-layer="464" from-port="3" to-layer="465" to-port="1"/>
		<edge from-layer="465" from-port="2" to-layer="467" to-port="0"/>
		<edge from-layer="466" from-port="0" to-layer="467" to-port="1"/>
		<edge from-layer="467" from-port="2" to-layer="474" to-port="0"/>
		<edge from-layer="468" from-port="0" to-layer="473" to-port="0"/>
		<edge from-layer="469" from-port="0" to-layer="471" to-port="1"/>
		<edge from-layer="470" from-port="0" to-layer="471" to-port="2"/>
		<edge from-layer="471" from-port="3" to-layer="473" to-port="1"/>
		<edge from-layer="472" from-port="0" to-layer="473" to-port="2"/>
		<edge from-layer="473" from-port="3" to-layer="474" to-port="1"/>
		<edge from-layer="474" from-port="2" to-layer="475" to-port="1"/>
		<edge from-layer="475" from-port="2" to-layer="482" to-port="0"/>
		<edge from-layer="476" from-port="0" to-layer="481" to-port="0"/>
		<edge from-layer="477" from-port="0" to-layer="479" to-port="1"/>
		<edge from-layer="478" from-port="0" to-layer="479" to-port="2"/>
		<edge from-layer="479" from-port="3" to-layer="481" to-port="1"/>
		<edge from-layer="480" from-port="0" to-layer="481" to-port="2"/>
		<edge from-layer="481" from-port="3" to-layer="482" to-port="1"/>
		<edge from-layer="482" from-port="2" to-layer="484" to-port="0"/>
		<edge from-layer="483" from-port="0" to-layer="484" to-port="1"/>
		<edge from-layer="484" from-port="2" to-layer="490" to-port="0"/>
		<edge from-layer="485" from-port="0" to-layer="487" to-port="1"/>
		<edge from-layer="486" from-port="0" to-layer="487" to-port="2"/>
		<edge from-layer="487" from-port="3" to-layer="489" to-port="0"/>
		<edge from-layer="488" from-port="0" to-layer="489" to-port="1"/>
		<edge from-layer="489" from-port="2" to-layer="490" to-port="1"/>
		<edge from-layer="490" from-port="2" to-layer="492" to-port="0"/>
		<edge from-layer="491" from-port="0" to-layer="492" to-port="1"/>
		<edge from-layer="492" from-port="2" to-layer="494" to-port="0"/>
		<edge from-layer="493" from-port="0" to-layer="494" to-port="1"/>
		<edge from-layer="494" from-port="2" to-layer="495" to-port="0"/>
		<edge from-layer="495" from-port="2" to-layer="497" to-port="0"/>
		<edge from-layer="496" from-port="0" to-layer="497" to-port="1"/>
		<edge from-layer="497" from-port="2" to-layer="499" to-port="0"/>
		<edge from-layer="498" from-port="0" to-layer="499" to-port="1"/>
		<edge from-layer="499" from-port="2" to-layer="501" to-port="0"/>
		<edge from-layer="500" from-port="0" to-layer="501" to-port="1"/>
		<edge from-layer="501" from-port="2" to-layer="503" to-port="0"/>
		<edge from-layer="501" from-port="2" to-layer="515" to-port="1"/>
		<edge from-layer="502" from-port="0" to-layer="503" to-port="1"/>
		<edge from-layer="503" from-port="2" to-layer="505" to-port="0"/>
		<edge from-layer="504" from-port="0" to-layer="505" to-port="1"/>
		<edge from-layer="505" from-port="2" to-layer="507" to-port="0"/>
		<edge from-layer="506" from-port="0" to-layer="507" to-port="1"/>
		<edge from-layer="507" from-port="2" to-layer="508" to-port="0"/>
		<edge from-layer="508" from-port="1" to-layer="510" to-port="0"/>
		<edge from-layer="509" from-port="0" to-layer="510" to-port="1"/>
		<edge from-layer="510" from-port="2" to-layer="512" to-port="0"/>
		<edge from-layer="511" from-port="0" to-layer="512" to-port="1"/>
		<edge from-layer="512" from-port="2" to-layer="514" to-port="0"/>
		<edge from-layer="513" from-port="0" to-layer="514" to-port="1"/>
		<edge from-layer="514" from-port="2" to-layer="515" to-port="0"/>
		<edge from-layer="515" from-port="2" to-layer="517" to-port="0"/>
		<edge from-layer="516" from-port="0" to-layer="517" to-port="1"/>
		<edge from-layer="517" from-port="2" to-layer="519" to-port="0"/>
		<edge from-layer="518" from-port="0" to-layer="519" to-port="1"/>
		<edge from-layer="519" from-port="2" to-layer="521" to-port="0"/>
		<edge from-layer="520" from-port="0" to-layer="521" to-port="1"/>
		<edge from-layer="521" from-port="2" to-layer="523" to-port="0"/>
		<edge from-layer="521" from-port="2" to-layer="526" to-port="0"/>
		<edge from-layer="521" from-port="2" to-layer="609" to-port="1"/>
		<edge from-layer="521" from-port="2" to-layer="544" to-port="0"/>
		<edge from-layer="521" from-port="2" to-layer="570" to-port="0"/>
		<edge from-layer="522" from-port="0" to-layer="523" to-port="1"/>
		<edge from-layer="523" from-port="2" to-layer="525" to-port="0"/>
		<edge from-layer="524" from-port="0" to-layer="525" to-port="1"/>
		<edge from-layer="525" from-port="2" to-layer="533" to-port="0"/>
		<edge from-layer="526" from-port="1" to-layer="539" to-port="0"/>
		<edge from-layer="526" from-port="1" to-layer="575" to-port="0"/>
		<edge from-layer="526" from-port="1" to-layer="585" to-port="0"/>
		<edge from-layer="526" from-port="1" to-layer="593" to-port="0"/>
		<edge from-layer="526" from-port="1" to-layer="549" to-port="0"/>
		<edge from-layer="526" from-port="1" to-layer="601" to-port="0"/>
		<edge from-layer="526" from-port="1" to-layer="529" to-port="0"/>
		<edge from-layer="526" from-port="1" to-layer="559" to-port="0"/>
		<edge from-layer="527" from-port="0" to-layer="529" to-port="1"/>
		<edge from-layer="528" from-port="0" to-layer="529" to-port="2"/>
		<edge from-layer="529" from-port="3" to-layer="532" to-port="0"/>
		<edge from-layer="530" from-port="0" to-layer="532" to-port="1"/>
		<edge from-layer="531" from-port="0" to-layer="532" to-port="2"/>
		<edge from-layer="532" from-port="3" to-layer="533" to-port="1"/>
		<edge from-layer="533" from-port="2" to-layer="535" to-port="0"/>
		<edge from-layer="534" from-port="0" to-layer="535" to-port="1"/>
		<edge from-layer="535" from-port="2" to-layer="542" to-port="0"/>
		<edge from-layer="536" from-port="0" to-layer="541" to-port="0"/>
		<edge from-layer="537" from-port="0" to-layer="539" to-port="1"/>
		<edge from-layer="538" from-port="0" to-layer="539" to-port="2"/>
		<edge from-layer="539" from-port="3" to-layer="541" to-port="1"/>
		<edge from-layer="540" from-port="0" to-layer="541" to-port="2"/>
		<edge from-layer="541" from-port="3" to-layer="542" to-port="1"/>
		<edge from-layer="542" from-port="2" to-layer="567" to-port="0"/>
		<edge from-layer="543" from-port="0" to-layer="544" to-port="1"/>
		<edge from-layer="544" from-port="2" to-layer="546" to-port="0"/>
		<edge from-layer="545" from-port="0" to-layer="546" to-port="1"/>
		<edge from-layer="546" from-port="2" to-layer="553" to-port="0"/>
		<edge from-layer="547" from-port="0" to-layer="549" to-port="1"/>
		<edge from-layer="548" from-port="0" to-layer="549" to-port="2"/>
		<edge from-layer="549" from-port="3" to-layer="552" to-port="0"/>
		<edge from-layer="550" from-port="0" to-layer="552" to-port="1"/>
		<edge from-layer="551" from-port="0" to-layer="552" to-port="2"/>
		<edge from-layer="552" from-port="3" to-layer="553" to-port="1"/>
		<edge from-layer="553" from-port="2" to-layer="555" to-port="0"/>
		<edge from-layer="554" from-port="0" to-layer="555" to-port="1"/>
		<edge from-layer="555" from-port="2" to-layer="562" to-port="0"/>
		<edge from-layer="556" from-port="0" to-layer="561" to-port="0"/>
		<edge from-layer="557" from-port="0" to-layer="559" to-port="1"/>
		<edge from-layer="558" from-port="0" to-layer="559" to-port="2"/>
		<edge from-layer="559" from-port="3" to-layer="561" to-port="1"/>
		<edge from-layer="560" from-port="0" to-layer="561" to-port="2"/>
		<edge from-layer="561" from-port="3" to-layer="562" to-port="1"/>
		<edge from-layer="562" from-port="2" to-layer="564" to-port="0"/>
		<edge from-layer="563" from-port="0" to-layer="564" to-port="1"/>
		<edge from-layer="564" from-port="2" to-layer="566" to-port="0"/>
		<edge from-layer="565" from-port="0" to-layer="566" to-port="1"/>
		<edge from-layer="566" from-port="2" to-layer="567" to-port="1"/>
		<edge from-layer="567" from-port="2" to-layer="568" to-port="0"/>
		<edge from-layer="568" from-port="1" to-layer="589" to-port="0"/>
		<edge from-layer="569" from-port="0" to-layer="570" to-port="1"/>
		<edge from-layer="570" from-port="2" to-layer="572" to-port="0"/>
		<edge from-layer="571" from-port="0" to-layer="572" to-port="1"/>
		<edge from-layer="572" from-port="2" to-layer="579" to-port="0"/>
		<edge from-layer="573" from-port="0" to-layer="575" to-port="1"/>
		<edge from-layer="574" from-port="0" to-layer="575" to-port="2"/>
		<edge from-layer="575" from-port="3" to-layer="578" to-port="0"/>
		<edge from-layer="576" from-port="0" to-layer="578" to-port="1"/>
		<edge from-layer="577" from-port="0" to-layer="578" to-port="2"/>
		<edge from-layer="578" from-port="3" to-layer="579" to-port="1"/>
		<edge from-layer="579" from-port="2" to-layer="581" to-port="0"/>
		<edge from-layer="580" from-port="0" to-layer="581" to-port="1"/>
		<edge from-layer="581" from-port="2" to-layer="588" to-port="0"/>
		<edge from-layer="582" from-port="0" to-layer="587" to-port="0"/>
		<edge from-layer="583" from-port="0" to-layer="585" to-port="1"/>
		<edge from-layer="584" from-port="0" to-layer="585" to-port="2"/>
		<edge from-layer="585" from-port="3" to-layer="587" to-port="1"/>
		<edge from-layer="586" from-port="0" to-layer="587" to-port="2"/>
		<edge from-layer="587" from-port="3" to-layer="588" to-port="1"/>
		<edge from-layer="588" from-port="2" to-layer="589" to-port="1"/>
		<edge from-layer="589" from-port="2" to-layer="596" to-port="0"/>
		<edge from-layer="590" from-port="0" to-layer="595" to-port="0"/>
		<edge from-layer="591" from-port="0" to-layer="593" to-port="1"/>
		<edge from-layer="592" from-port="0" to-layer="593" to-port="2"/>
		<edge from-layer="593" from-port="3" to-layer="595" to-port="1"/>
		<edge from-layer="594" from-port="0" to-layer="595" to-port="2"/>
		<edge from-layer="595" from-port="3" to-layer="596" to-port="1"/>
		<edge from-layer="596" from-port="2" to-layer="598" to-port="0"/>
		<edge from-layer="597" from-port="0" to-layer="598" to-port="1"/>
		<edge from-layer="598" from-port="2" to-layer="604" to-port="0"/>
		<edge from-layer="599" from-port="0" to-layer="601" to-port="1"/>
		<edge from-layer="600" from-port="0" to-layer="601" to-port="2"/>
		<edge from-layer="601" from-port="3" to-layer="603" to-port="0"/>
		<edge from-layer="602" from-port="0" to-layer="603" to-port="1"/>
		<edge from-layer="603" from-port="2" to-layer="604" to-port="1"/>
		<edge from-layer="604" from-port="2" to-layer="606" to-port="0"/>
		<edge from-layer="605" from-port="0" to-layer="606" to-port="1"/>
		<edge from-layer="606" from-port="2" to-layer="608" to-port="0"/>
		<edge from-layer="607" from-port="0" to-layer="608" to-port="1"/>
		<edge from-layer="608" from-port="2" to-layer="609" to-port="0"/>
		<edge from-layer="609" from-port="2" to-layer="611" to-port="0"/>
		<edge from-layer="610" from-port="0" to-layer="611" to-port="1"/>
		<edge from-layer="611" from-port="2" to-layer="613" to-port="0"/>
		<edge from-layer="612" from-port="0" to-layer="613" to-port="1"/>
		<edge from-layer="613" from-port="2" to-layer="615" to-port="0"/>
		<edge from-layer="614" from-port="0" to-layer="615" to-port="1"/>
		<edge from-layer="615" from-port="2" to-layer="629" to-port="1"/>
		<edge from-layer="615" from-port="2" to-layer="617" to-port="0"/>
		<edge from-layer="616" from-port="0" to-layer="617" to-port="1"/>
		<edge from-layer="617" from-port="2" to-layer="619" to-port="0"/>
		<edge from-layer="618" from-port="0" to-layer="619" to-port="1"/>
		<edge from-layer="619" from-port="2" to-layer="621" to-port="0"/>
		<edge from-layer="620" from-port="0" to-layer="621" to-port="1"/>
		<edge from-layer="621" from-port="2" to-layer="622" to-port="0"/>
		<edge from-layer="622" from-port="1" to-layer="624" to-port="0"/>
		<edge from-layer="623" from-port="0" to-layer="624" to-port="1"/>
		<edge from-layer="624" from-port="2" to-layer="626" to-port="0"/>
		<edge from-layer="625" from-port="0" to-layer="626" to-port="1"/>
		<edge from-layer="626" from-port="2" to-layer="628" to-port="0"/>
		<edge from-layer="627" from-port="0" to-layer="628" to-port="1"/>
		<edge from-layer="628" from-port="2" to-layer="629" to-port="0"/>
		<edge from-layer="629" from-port="2" to-layer="631" to-port="0"/>
		<edge from-layer="630" from-port="0" to-layer="631" to-port="1"/>
		<edge from-layer="631" from-port="2" to-layer="633" to-port="0"/>
		<edge from-layer="632" from-port="0" to-layer="633" to-port="1"/>
		<edge from-layer="633" from-port="2" to-layer="635" to-port="0"/>
		<edge from-layer="634" from-port="0" to-layer="635" to-port="1"/>
		<edge from-layer="635" from-port="2" to-layer="637" to-port="0"/>
		<edge from-layer="636" from-port="0" to-layer="637" to-port="1"/>
		<edge from-layer="637" from-port="2" to-layer="639" to-port="0"/>
		<edge from-layer="638" from-port="0" to-layer="639" to-port="1"/>
		<edge from-layer="639" from-port="2" to-layer="641" to-port="0"/>
		<edge from-layer="640" from-port="0" to-layer="641" to-port="1"/>
		<edge from-layer="641" from-port="2" to-layer="642" to-port="0"/>
		<edge from-layer="641" from-port="2" to-layer="666" to-port="0"/>
		<edge from-layer="641" from-port="2" to-layer="678" to-port="1"/>
		<edge from-layer="642" from-port="1" to-layer="645" to-port="0"/>
		<edge from-layer="643" from-port="0" to-layer="645" to-port="1"/>
		<edge from-layer="644" from-port="0" to-layer="645" to-port="2"/>
		<edge from-layer="645" from-port="3" to-layer="647" to-port="0"/>
		<edge from-layer="646" from-port="0" to-layer="647" to-port="1"/>
		<edge from-layer="647" from-port="2" to-layer="649" to-port="0"/>
		<edge from-layer="648" from-port="0" to-layer="649" to-port="1"/>
		<edge from-layer="649" from-port="2" to-layer="651" to-port="0"/>
		<edge from-layer="649" from-port="2" to-layer="653" to-port="2"/>
		<edge from-layer="650" from-port="0" to-layer="651" to-port="1"/>
		<edge from-layer="651" from-port="2" to-layer="653" to-port="0"/>
		<edge from-layer="652" from-port="0" to-layer="653" to-port="1"/>
		<edge from-layer="653" from-port="3" to-layer="654" to-port="1"/>
		<edge from-layer="654" from-port="2" to-layer="656" to-port="1"/>
		<edge from-layer="655" from-port="0" to-layer="656" to-port="2"/>
		<edge from-layer="656" from-port="3" to-layer="658" to-port="0"/>
		<edge from-layer="657" from-port="0" to-layer="658" to-port="1"/>
		<edge from-layer="658" from-port="2" to-layer="660" to-port="0"/>
		<edge from-layer="659" from-port="0" to-layer="660" to-port="1"/>
		<edge from-layer="660" from-port="2" to-layer="662" to-port="0"/>
		<edge from-layer="661" from-port="0" to-layer="662" to-port="1"/>
		<edge from-layer="662" from-port="2" to-layer="664" to-port="0"/>
		<edge from-layer="663" from-port="0" to-layer="664" to-port="1"/>
		<edge from-layer="664" from-port="2" to-layer="669" to-port="0"/>
		<edge from-layer="665" from-port="0" to-layer="666" to-port="1"/>
		<edge from-layer="666" from-port="2" to-layer="668" to-port="0"/>
		<edge from-layer="667" from-port="0" to-layer="668" to-port="1"/>
		<edge from-layer="668" from-port="2" to-layer="669" to-port="1"/>
		<edge from-layer="669" from-port="2" to-layer="670" to-port="0"/>
		<edge from-layer="670" from-port="1" to-layer="672" to-port="0"/>
		<edge from-layer="671" from-port="0" to-layer="672" to-port="1"/>
		<edge from-layer="672" from-port="2" to-layer="674" to-port="0"/>
		<edge from-layer="673" from-port="0" to-layer="674" to-port="1"/>
		<edge from-layer="674" from-port="2" to-layer="676" to-port="0"/>
		<edge from-layer="675" from-port="0" to-layer="676" to-port="1"/>
		<edge from-layer="676" from-port="2" to-layer="677" to-port="0"/>
		<edge from-layer="677" from-port="1" to-layer="678" to-port="0"/>
		<edge from-layer="678" from-port="2" to-layer="680" to-port="0"/>
		<edge from-layer="679" from-port="0" to-layer="680" to-port="1"/>
		<edge from-layer="680" from-port="2" to-layer="682" to-port="0"/>
		<edge from-layer="681" from-port="0" to-layer="682" to-port="1"/>
		<edge from-layer="682" from-port="2" to-layer="684" to-port="0"/>
		<edge from-layer="683" from-port="0" to-layer="684" to-port="1"/>
		<edge from-layer="684" from-port="2" to-layer="765" to-port="0"/>
		<edge from-layer="684" from-port="2" to-layer="779" to-port="0"/>
		<edge from-layer="684" from-port="2" to-layer="751" to-port="0"/>
		<edge from-layer="684" from-port="2" to-layer="793" to-port="0"/>
		<edge from-layer="684" from-port="2" to-layer="807" to-port="0"/>
		<edge from-layer="684" from-port="2" to-layer="821" to-port="0"/>
		<edge from-layer="684" from-port="2" to-layer="835" to-port="0"/>
		<edge from-layer="684" from-port="2" to-layer="737" to-port="0"/>
		<edge from-layer="684" from-port="2" to-layer="723" to-port="0"/>
		<edge from-layer="684" from-port="2" to-layer="709" to-port="0"/>
		<edge from-layer="684" from-port="2" to-layer="687" to-port="0"/>
		<edge from-layer="685" from-port="0" to-layer="687" to-port="1"/>
		<edge from-layer="686" from-port="0" to-layer="687" to-port="2"/>
		<edge from-layer="687" from-port="3" to-layer="689" to-port="0"/>
		<edge from-layer="688" from-port="0" to-layer="689" to-port="1"/>
		<edge from-layer="689" from-port="2" to-layer="702" to-port="0"/>
		<edge from-layer="690" from-port="0" to-layer="697" to-port="0"/>
		<edge from-layer="691" from-port="0" to-layer="696" to-port="0"/>
		<edge from-layer="692" from-port="0" to-layer="694" to-port="1"/>
		<edge from-layer="693" from-port="0" to-layer="694" to-port="2"/>
		<edge from-layer="694" from-port="3" to-layer="696" to-port="1"/>
		<edge from-layer="695" from-port="0" to-layer="696" to-port="2"/>
		<edge from-layer="696" from-port="3" to-layer="697" to-port="1"/>
		<edge from-layer="697" from-port="2" to-layer="701" to-port="0"/>
		<edge from-layer="698" from-port="0" to-layer="701" to-port="1"/>
		<edge from-layer="699" from-port="0" to-layer="701" to-port="2"/>
		<edge from-layer="700" from-port="0" to-layer="701" to-port="3"/>
		<edge from-layer="701" from-port="4" to-layer="702" to-port="1"/>
		<edge from-layer="702" from-port="2" to-layer="715" to-port="0"/>
		<edge from-layer="702" from-port="2" to-layer="706" to-port="0"/>
		<edge from-layer="703" from-port="0" to-layer="706" to-port="1"/>
		<edge from-layer="704" from-port="0" to-layer="706" to-port="2"/>
		<edge from-layer="705" from-port="0" to-layer="706" to-port="3"/>
		<edge from-layer="706" from-port="4" to-layer="716" to-port="0"/>
		<edge from-layer="707" from-port="0" to-layer="709" to-port="1"/>
		<edge from-layer="708" from-port="0" to-layer="709" to-port="2"/>
		<edge from-layer="709" from-port="3" to-layer="711" to-port="0"/>
		<edge from-layer="710" from-port="0" to-layer="711" to-port="1"/>
		<edge from-layer="711" from-port="2" to-layer="716" to-port="1"/>
		<edge from-layer="712" from-port="0" to-layer="715" to-port="1"/>
		<edge from-layer="713" from-port="0" to-layer="715" to-port="2"/>
		<edge from-layer="714" from-port="0" to-layer="715" to-port="3"/>
		<edge from-layer="715" from-port="4" to-layer="716" to-port="2"/>
		<edge from-layer="716" from-port="3" to-layer="720" to-port="0"/>
		<edge from-layer="716" from-port="3" to-layer="729" to-port="0"/>
		<edge from-layer="717" from-port="0" to-layer="720" to-port="1"/>
		<edge from-layer="718" from-port="0" to-layer="720" to-port="2"/>
		<edge from-layer="719" from-port="0" to-layer="720" to-port="3"/>
		<edge from-layer="720" from-port="4" to-layer="730" to-port="0"/>
		<edge from-layer="721" from-port="0" to-layer="723" to-port="1"/>
		<edge from-layer="722" from-port="0" to-layer="723" to-port="2"/>
		<edge from-layer="723" from-port="3" to-layer="725" to-port="0"/>
		<edge from-layer="724" from-port="0" to-layer="725" to-port="1"/>
		<edge from-layer="725" from-port="2" to-layer="730" to-port="1"/>
		<edge from-layer="726" from-port="0" to-layer="729" to-port="1"/>
		<edge from-layer="727" from-port="0" to-layer="729" to-port="2"/>
		<edge from-layer="728" from-port="0" to-layer="729" to-port="3"/>
		<edge from-layer="729" from-port="4" to-layer="730" to-port="2"/>
		<edge from-layer="730" from-port="3" to-layer="743" to-port="0"/>
		<edge from-layer="730" from-port="3" to-layer="734" to-port="0"/>
		<edge from-layer="731" from-port="0" to-layer="734" to-port="1"/>
		<edge from-layer="732" from-port="0" to-layer="734" to-port="2"/>
		<edge from-layer="733" from-port="0" to-layer="734" to-port="3"/>
		<edge from-layer="734" from-port="4" to-layer="744" to-port="0"/>
		<edge from-layer="735" from-port="0" to-layer="737" to-port="1"/>
		<edge from-layer="736" from-port="0" to-layer="737" to-port="2"/>
		<edge from-layer="737" from-port="3" to-layer="739" to-port="0"/>
		<edge from-layer="738" from-port="0" to-layer="739" to-port="1"/>
		<edge from-layer="739" from-port="2" to-layer="744" to-port="1"/>
		<edge from-layer="740" from-port="0" to-layer="743" to-port="1"/>
		<edge from-layer="741" from-port="0" to-layer="743" to-port="2"/>
		<edge from-layer="742" from-port="0" to-layer="743" to-port="3"/>
		<edge from-layer="743" from-port="4" to-layer="744" to-port="2"/>
		<edge from-layer="744" from-port="3" to-layer="757" to-port="0"/>
		<edge from-layer="744" from-port="3" to-layer="748" to-port="0"/>
		<edge from-layer="745" from-port="0" to-layer="748" to-port="1"/>
		<edge from-layer="746" from-port="0" to-layer="748" to-port="2"/>
		<edge from-layer="747" from-port="0" to-layer="748" to-port="3"/>
		<edge from-layer="748" from-port="4" to-layer="758" to-port="0"/>
		<edge from-layer="749" from-port="0" to-layer="751" to-port="1"/>
		<edge from-layer="750" from-port="0" to-layer="751" to-port="2"/>
		<edge from-layer="751" from-port="3" to-layer="753" to-port="0"/>
		<edge from-layer="752" from-port="0" to-layer="753" to-port="1"/>
		<edge from-layer="753" from-port="2" to-layer="758" to-port="1"/>
		<edge from-layer="754" from-port="0" to-layer="757" to-port="1"/>
		<edge from-layer="755" from-port="0" to-layer="757" to-port="2"/>
		<edge from-layer="756" from-port="0" to-layer="757" to-port="3"/>
		<edge from-layer="757" from-port="4" to-layer="758" to-port="2"/>
		<edge from-layer="758" from-port="3" to-layer="762" to-port="0"/>
		<edge from-layer="758" from-port="3" to-layer="771" to-port="0"/>
		<edge from-layer="759" from-port="0" to-layer="762" to-port="1"/>
		<edge from-layer="760" from-port="0" to-layer="762" to-port="2"/>
		<edge from-layer="761" from-port="0" to-layer="762" to-port="3"/>
		<edge from-layer="762" from-port="4" to-layer="772" to-port="0"/>
		<edge from-layer="763" from-port="0" to-layer="765" to-port="1"/>
		<edge from-layer="764" from-port="0" to-layer="765" to-port="2"/>
		<edge from-layer="765" from-port="3" to-layer="767" to-port="0"/>
		<edge from-layer="766" from-port="0" to-layer="767" to-port="1"/>
		<edge from-layer="767" from-port="2" to-layer="772" to-port="1"/>
		<edge from-layer="768" from-port="0" to-layer="771" to-port="1"/>
		<edge from-layer="769" from-port="0" to-layer="771" to-port="2"/>
		<edge from-layer="770" from-port="0" to-layer="771" to-port="3"/>
		<edge from-layer="771" from-port="4" to-layer="772" to-port="2"/>
		<edge from-layer="772" from-port="3" to-layer="776" to-port="0"/>
		<edge from-layer="772" from-port="3" to-layer="785" to-port="0"/>
		<edge from-layer="773" from-port="0" to-layer="776" to-port="1"/>
		<edge from-layer="774" from-port="0" to-layer="776" to-port="2"/>
		<edge from-layer="775" from-port="0" to-layer="776" to-port="3"/>
		<edge from-layer="776" from-port="4" to-layer="786" to-port="0"/>
		<edge from-layer="777" from-port="0" to-layer="779" to-port="1"/>
		<edge from-layer="778" from-port="0" to-layer="779" to-port="2"/>
		<edge from-layer="779" from-port="3" to-layer="781" to-port="0"/>
		<edge from-layer="780" from-port="0" to-layer="781" to-port="1"/>
		<edge from-layer="781" from-port="2" to-layer="786" to-port="1"/>
		<edge from-layer="782" from-port="0" to-layer="785" to-port="1"/>
		<edge from-layer="783" from-port="0" to-layer="785" to-port="2"/>
		<edge from-layer="784" from-port="0" to-layer="785" to-port="3"/>
		<edge from-layer="785" from-port="4" to-layer="786" to-port="2"/>
		<edge from-layer="786" from-port="3" to-layer="790" to-port="0"/>
		<edge from-layer="786" from-port="3" to-layer="799" to-port="0"/>
		<edge from-layer="787" from-port="0" to-layer="790" to-port="1"/>
		<edge from-layer="788" from-port="0" to-layer="790" to-port="2"/>
		<edge from-layer="789" from-port="0" to-layer="790" to-port="3"/>
		<edge from-layer="790" from-port="4" to-layer="800" to-port="0"/>
		<edge from-layer="791" from-port="0" to-layer="793" to-port="1"/>
		<edge from-layer="792" from-port="0" to-layer="793" to-port="2"/>
		<edge from-layer="793" from-port="3" to-layer="795" to-port="0"/>
		<edge from-layer="794" from-port="0" to-layer="795" to-port="1"/>
		<edge from-layer="795" from-port="2" to-layer="800" to-port="1"/>
		<edge from-layer="796" from-port="0" to-layer="799" to-port="1"/>
		<edge from-layer="797" from-port="0" to-layer="799" to-port="2"/>
		<edge from-layer="798" from-port="0" to-layer="799" to-port="3"/>
		<edge from-layer="799" from-port="4" to-layer="800" to-port="2"/>
		<edge from-layer="800" from-port="3" to-layer="813" to-port="0"/>
		<edge from-layer="800" from-port="3" to-layer="804" to-port="0"/>
		<edge from-layer="801" from-port="0" to-layer="804" to-port="1"/>
		<edge from-layer="802" from-port="0" to-layer="804" to-port="2"/>
		<edge from-layer="803" from-port="0" to-layer="804" to-port="3"/>
		<edge from-layer="804" from-port="4" to-layer="814" to-port="0"/>
		<edge from-layer="805" from-port="0" to-layer="807" to-port="1"/>
		<edge from-layer="806" from-port="0" to-layer="807" to-port="2"/>
		<edge from-layer="807" from-port="3" to-layer="809" to-port="0"/>
		<edge from-layer="808" from-port="0" to-layer="809" to-port="1"/>
		<edge from-layer="809" from-port="2" to-layer="814" to-port="1"/>
		<edge from-layer="810" from-port="0" to-layer="813" to-port="1"/>
		<edge from-layer="811" from-port="0" to-layer="813" to-port="2"/>
		<edge from-layer="812" from-port="0" to-layer="813" to-port="3"/>
		<edge from-layer="813" from-port="4" to-layer="814" to-port="2"/>
		<edge from-layer="814" from-port="3" to-layer="818" to-port="0"/>
		<edge from-layer="814" from-port="3" to-layer="827" to-port="0"/>
		<edge from-layer="815" from-port="0" to-layer="818" to-port="1"/>
		<edge from-layer="816" from-port="0" to-layer="818" to-port="2"/>
		<edge from-layer="817" from-port="0" to-layer="818" to-port="3"/>
		<edge from-layer="818" from-port="4" to-layer="828" to-port="0"/>
		<edge from-layer="819" from-port="0" to-layer="821" to-port="1"/>
		<edge from-layer="820" from-port="0" to-layer="821" to-port="2"/>
		<edge from-layer="821" from-port="3" to-layer="823" to-port="0"/>
		<edge from-layer="822" from-port="0" to-layer="823" to-port="1"/>
		<edge from-layer="823" from-port="2" to-layer="828" to-port="1"/>
		<edge from-layer="824" from-port="0" to-layer="827" to-port="1"/>
		<edge from-layer="825" from-port="0" to-layer="827" to-port="2"/>
		<edge from-layer="826" from-port="0" to-layer="827" to-port="3"/>
		<edge from-layer="827" from-port="4" to-layer="828" to-port="2"/>
		<edge from-layer="828" from-port="3" to-layer="832" to-port="0"/>
		<edge from-layer="828" from-port="3" to-layer="841" to-port="0"/>
		<edge from-layer="829" from-port="0" to-layer="832" to-port="1"/>
		<edge from-layer="830" from-port="0" to-layer="832" to-port="2"/>
		<edge from-layer="831" from-port="0" to-layer="832" to-port="3"/>
		<edge from-layer="832" from-port="4" to-layer="842" to-port="0"/>
		<edge from-layer="833" from-port="0" to-layer="835" to-port="1"/>
		<edge from-layer="834" from-port="0" to-layer="835" to-port="2"/>
		<edge from-layer="835" from-port="3" to-layer="837" to-port="0"/>
		<edge from-layer="836" from-port="0" to-layer="837" to-port="1"/>
		<edge from-layer="837" from-port="2" to-layer="842" to-port="1"/>
		<edge from-layer="838" from-port="0" to-layer="841" to-port="1"/>
		<edge from-layer="839" from-port="0" to-layer="841" to-port="2"/>
		<edge from-layer="840" from-port="0" to-layer="841" to-port="3"/>
		<edge from-layer="841" from-port="4" to-layer="842" to-port="2"/>
		<edge from-layer="842" from-port="3" to-layer="846" to-port="0"/>
		<edge from-layer="843" from-port="0" to-layer="846" to-port="1"/>
		<edge from-layer="844" from-port="0" to-layer="846" to-port="2"/>
		<edge from-layer="845" from-port="0" to-layer="846" to-port="3"/>
		<edge from-layer="846" from-port="4" to-layer="849" to-port="0"/>
		<edge from-layer="847" from-port="0" to-layer="849" to-port="1"/>
		<edge from-layer="848" from-port="0" to-layer="849" to-port="2"/>
		<edge from-layer="849" from-port="3" to-layer="850" to-port="0"/>
	</edges>
	<meta_data>
		<MO_version value="2022.1.0-7019-cdb9bec7210-releases/2022/1"/>
		<Runtime_version value="2022.1.0-7019-cdb9bec7210-releases/2022/1"/>
		<legacy_path value="False"/>
		<cli_parameters>
			<caffe_parser_path value="DIR"/>
			<compress_fp16 value="False"/>
			<data_type value="float"/>
			<disable_nhwc_to_nchw value="False"/>
			<disable_omitting_optional value="False"/>
			<disable_resnet_optimization value="False"/>
			<disable_weights_compression value="False"/>
			<enable_concat_optimization value="False"/>
			<enable_flattening_nested_params value="False"/>
			<enable_ssd_gluoncv value="False"/>
			<extensions value="DIR"/>
			<framework value="onnx"/>
			<freeze_placeholder_with_value value="{}"/>
			<input_model value="DIR/VisionLAN.onnx"/>
			<input_model_is_text value="False"/>
			<k value="DIR/CustomLayersMapping.xml"/>
			<layout value="()"/>
			<layout_values value="{}"/>
			<legacy_mxnet_model value="False"/>
			<log_level value="ERROR"/>
			<mean_scale_values value="{}"/>
			<mean_values value="()"/>
			<model_name value="VisionLAN"/>
			<output_dir value="DIR"/>
			<placeholder_data_types value="{}"/>
			<progress value="False"/>
			<remove_memory value="False"/>
			<remove_output_softmax value="False"/>
			<reverse_input_channels value="False"/>
			<save_params_from_nd value="False"/>
			<scale_values value="()"/>
			<silent value="False"/>
			<source_layout value="()"/>
			<static_shape value="False"/>
			<stream_output value="False"/>
			<target_layout value="()"/>
			<transform value=""/>
			<use_legacy_frontend value="False"/>
			<use_new_frontend value="False"/>
			<unset unset_cli_parameters="batch, counts, disable_fusing, finegrain_fusing, input, input_checkpoint, input_meta_graph, input_proto, input_shape, input_symbol, mean_file, mean_file_offsets, nd_prefix_name, output, placeholder_shapes, pretrained_model_name, saved_model_dir, saved_model_tags, scale, tensorboard_logdir, tensorflow_custom_layer_libraries, tensorflow_custom_operations_config_update, tensorflow_object_detection_api_pipeline_config, tensorflow_use_custom_operations_config, transformations_config"/>
		</cli_parameters>
	</meta_data>
</net>
