<?xml version="1.0" ?>
<net name="Model from PaddlePaddle." version="11">
	<layers>
		<layer id="0" name="x" type="Parameter" version="opset1">
			<data shape="1,3,64,256" element_type="f32"/>
			<rt_info>
				<attribute name="fused_names" version="0" value="x"/>
			</rt_info>
			<output>
				<port id="0" precision="FP32" names="x">
					<dim>1</dim>
					<dim>3</dim>
					<dim>64</dim>
					<dim>256</dim>
				</port>
			</output>
		</layer>
		<layer id="1" name="Constant_4964" type="Const" version="opset1">
			<data element_type="i64" shape="2" offset="0" size="16"/>
			<rt_info>
				<attribute name="fused_names" version="0" value="p2o.Slice.8"/>
			</rt_info>
			<output>
				<port id="0" precision="I64">
					<dim>2</dim>
				</port>
			</output>
		</layer>
		<layer id="2" name="Constant_4967" type="Const" version="opset1">
			<data element_type="i64" shape="2" offset="16" size="16"/>
			<rt_info>
				<attribute name="fused_names" version="0" value="p2o.Slice.8"/>
			</rt_info>
			<output>
				<port id="0" precision="I64">
					<dim>2</dim>
				</port>
			</output>
		</layer>
		<layer id="3" name="Constant_4970" type="Const" version="opset1">
			<data element_type="i64" shape="2" offset="32" size="16"/>
			<rt_info>
				<attribute name="fused_names" version="0" value="p2o.Slice.8"/>
			</rt_info>
			<output>
				<port id="0" precision="I64">
					<dim>2</dim>
				</port>
			</output>
		</layer>
		<layer id="4" name="p2o.Slice.8" type="StridedSlice" version="opset1">
			<data begin_mask="1, 0" end_mask="1, 0" new_axis_mask="" shrink_axis_mask="" ellipsis_mask=""/>
			<rt_info>
				<attribute name="fused_names" version="0" value="p2o.Slice.8"/>
			</rt_info>
			<input>
				<port id="0" precision="FP32">
					<dim>1</dim>
					<dim>3</dim>
					<dim>64</dim>
					<dim>256</dim>
				</port>
				<port id="1" precision="I64">
					<dim>2</dim>
				</port>
				<port id="2" precision="I64">
					<dim>2</dim>
				</port>
				<port id="3" precision="I64">
					<dim>2</dim>
				</port>
			</input>
			<output>
				<port id="4" precision="FP32" names="p2o.Slice.8">
					<dim>1</dim>
					<dim>1</dim>
					<dim>64</dim>
					<dim>256</dim>
				</port>
			</output>
		</layer>
		<layer id="5" name="p2o.helper.constant.58" type="Const" version="opset1">
			<data element_type="i64" shape="1" offset="48" size="8"/>
			<rt_info>
				<attribute name="fused_names" version="0" value="p2o.helper.constant.58"/>
			</rt_info>
			<output>
				<port id="0" precision="I64" names="p2o.helper.constant.58">
					<dim>1</dim>
				</port>
			</output>
		</layer>
		<layer id="6" name="x_slice_0" type="Squeeze" version="opset1">
			<rt_info>
				<attribute name="fused_names" version="0" value="x_slice_0"/>
			</rt_info>
			<input>
				<port id="0" precision="FP32">
					<dim>1</dim>
					<dim>1</dim>
					<dim>64</dim>
					<dim>256</dim>
				</port>
				<port id="1" precision="I64">
					<dim>1</dim>
				</port>
			</input>
			<output>
				<port id="2" precision="FP32" names="x_slice_0">
					<dim>1</dim>
					<dim>64</dim>
					<dim>256</dim>
				</port>
			</output>
		</layer>
		<layer id="7" name="p2o.helper.constant.59" type="Const" version="opset1">
			<data element_type="i64" shape="1" offset="56" size="8"/>
			<rt_info>
				<attribute name="fused_names" version="0" value="p2o.Slice.10"/>
			</rt_info>
			<output>
				<port id="0" precision="I64" names="p2o.helper.constant.59">
					<dim>1</dim>
				</port>
			</output>
		</layer>
		<layer id="8" name="p2o.helper.constant.60" type="Const" version="opset1">
			<data element_type="i64" shape="1" offset="48" size="8"/>
			<rt_info>
				<attribute name="fused_names" version="0" value="p2o.Slice.10"/>
			</rt_info>
			<output>
				<port id="0" precision="I64" names="p2o.helper.constant.60">
					<dim>1</dim>
				</port>
			</output>
		</layer>
		<layer id="9" name="p2o.helper.constant.61" type="Const" version="opset1">
			<data element_type="i64" shape="1" offset="48" size="8"/>
			<rt_info>
				<attribute name="fused_names" version="0" value="p2o.Slice.10"/>
			</rt_info>
			<output>
				<port id="0" precision="I64" names="p2o.helper.constant.61">
					<dim>1</dim>
				</port>
			</output>
		</layer>
		<layer id="10" name="p2o.Slice.10" type="StridedSlice" version="opset1">
			<data begin_mask="0" end_mask="0" new_axis_mask="" shrink_axis_mask="" ellipsis_mask=""/>
			<rt_info>
				<attribute name="fused_names" version="0" value="p2o.Slice.10"/>
			</rt_info>
			<input>
				<port id="0" precision="FP32">
					<dim>1</dim>
					<dim>64</dim>
					<dim>256</dim>
				</port>
				<port id="1" precision="I64">
					<dim>1</dim>
				</port>
				<port id="2" precision="I64">
					<dim>1</dim>
				</port>
				<port id="3" precision="I64">
					<dim>1</dim>
				</port>
			</input>
			<output>
				<port id="4" precision="FP32" names="p2o.Slice.10">
					<dim>1</dim>
					<dim>64</dim>
					<dim>256</dim>
				</port>
			</output>
		</layer>
		<layer id="11" name="p2o.helper.constant.63" type="Const" version="opset1">
			<data element_type="i64" shape="1" offset="56" size="8"/>
			<rt_info>
				<attribute name="fused_names" version="0" value="p2o.helper.constant.63"/>
			</rt_info>
			<output>
				<port id="0" precision="I64" names="p2o.helper.constant.63">
					<dim>1</dim>
				</port>
			</output>
		</layer>
		<layer id="12" name="x_slice_0_slice_0" type="Squeeze" version="opset1">
			<rt_info>
				<attribute name="fused_names" version="0" value="x_slice_0_slice_0"/>
			</rt_info>
			<input>
				<port id="0" precision="FP32">
					<dim>1</dim>
					<dim>64</dim>
					<dim>256</dim>
				</port>
				<port id="1" precision="I64">
					<dim>1</dim>
				</port>
			</input>
			<output>
				<port id="2" precision="FP32" names="x_slice_0_slice_0">
					<dim>64</dim>
					<dim>256</dim>
				</port>
			</output>
		</layer>
		<layer id="13" name="fill_constant_7.tmp_0" type="Const" version="opset1">
			<data element_type="f32" shape="2, 256" offset="64" size="2048"/>
			<rt_info>
				<attribute name="fused_names" version="0" value="fill_constant_7.tmp_0"/>
			</rt_info>
			<output>
				<port id="0" precision="FP32" names="fill_constant_7.tmp_0">
					<dim>2</dim>
					<dim>256</dim>
				</port>
			</output>
		</layer>
		<layer id="14" name="p2o.Concat.7" type="Concat" version="opset1">
			<data axis="0"/>
			<rt_info>
				<attribute name="fused_names" version="0" value="p2o.Concat.7"/>
			</rt_info>
			<input>
				<port id="0" precision="FP32">
					<dim>64</dim>
					<dim>256</dim>
				</port>
				<port id="1" precision="FP32">
					<dim>2</dim>
					<dim>256</dim>
				</port>
			</input>
			<output>
				<port id="2" precision="FP32" names="p2o.Concat.7">
					<dim>66</dim>
					<dim>256</dim>
				</port>
			</output>
		</layer>
		<layer id="15" name="fill_constant_9.tmp_0" type="Const" version="opset1">
			<data element_type="f32" shape="66, 2" offset="2112" size="528"/>
			<rt_info>
				<attribute name="fused_names" version="0" value="fill_constant_9.tmp_0"/>
			</rt_info>
			<output>
				<port id="0" precision="FP32" names="fill_constant_9.tmp_0">
					<dim>66</dim>
					<dim>2</dim>
				</port>
			</output>
		</layer>
		<layer id="16" name="p2o.Concat.9" type="Concat" version="opset1">
			<data axis="1"/>
			<rt_info>
				<attribute name="fused_names" version="0" value="p2o.Concat.9"/>
			</rt_info>
			<input>
				<port id="0" precision="FP32">
					<dim>66</dim>
					<dim>256</dim>
				</port>
				<port id="1" precision="FP32">
					<dim>66</dim>
					<dim>2</dim>
				</port>
			</input>
			<output>
				<port id="2" precision="FP32" names="p2o.Concat.9">
					<dim>66</dim>
					<dim>258</dim>
				</port>
			</output>
		</layer>
		<layer id="17" name="p2o.helper.constant.84" type="Const" version="opset1">
			<data element_type="i64" shape="1" offset="56" size="8"/>
			<rt_info>
				<attribute name="fused_names" version="0" value="p2o.helper.constant.84"/>
			</rt_info>
			<output>
				<port id="0" precision="I64" names="p2o.helper.constant.84">
					<dim>1</dim>
				</port>
			</output>
		</layer>
		<layer id="18" name="p2o.helper.unsqueeze.0" type="Unsqueeze" version="opset1">
			<rt_info>
				<attribute name="fused_names" version="0" value="p2o.helper.unsqueeze.0"/>
			</rt_info>
			<input>
				<port id="0" precision="FP32">
					<dim>66</dim>
					<dim>258</dim>
				</port>
				<port id="1" precision="I64">
					<dim>1</dim>
				</port>
			</input>
			<output>
				<port id="2" precision="FP32" names="p2o.helper.unsqueeze.0">
					<dim>1</dim>
					<dim>66</dim>
					<dim>258</dim>
				</port>
			</output>
		</layer>
		<layer id="19" name="Constant_4977" type="Const" version="opset1">
			<data element_type="i64" shape="2" offset="16" size="16"/>
			<rt_info>
				<attribute name="fused_names" version="0" value="p2o.Slice.12"/>
			</rt_info>
			<output>
				<port id="0" precision="I64">
					<dim>2</dim>
				</port>
			</output>
		</layer>
		<layer id="20" name="Constant_4980" type="Const" version="opset1">
			<data element_type="i64" shape="2" offset="2640" size="16"/>
			<rt_info>
				<attribute name="fused_names" version="0" value="p2o.Slice.12"/>
			</rt_info>
			<output>
				<port id="0" precision="I64">
					<dim>2</dim>
				</port>
			</output>
		</layer>
		<layer id="21" name="Constant_4983" type="Const" version="opset1">
			<data element_type="i64" shape="2" offset="32" size="16"/>
			<rt_info>
				<attribute name="fused_names" version="0" value="p2o.Slice.12"/>
			</rt_info>
			<output>
				<port id="0" precision="I64">
					<dim>2</dim>
				</port>
			</output>
		</layer>
		<layer id="22" name="p2o.Slice.12" type="StridedSlice" version="opset1">
			<data begin_mask="1, 0" end_mask="1, 0" new_axis_mask="" shrink_axis_mask="" ellipsis_mask=""/>
			<rt_info>
				<attribute name="fused_names" version="0" value="p2o.Slice.12"/>
			</rt_info>
			<input>
				<port id="0" precision="FP32">
					<dim>1</dim>
					<dim>3</dim>
					<dim>64</dim>
					<dim>256</dim>
				</port>
				<port id="1" precision="I64">
					<dim>2</dim>
				</port>
				<port id="2" precision="I64">
					<dim>2</dim>
				</port>
				<port id="3" precision="I64">
					<dim>2</dim>
				</port>
			</input>
			<output>
				<port id="4" precision="FP32" names="p2o.Slice.12">
					<dim>1</dim>
					<dim>1</dim>
					<dim>64</dim>
					<dim>256</dim>
				</port>
			</output>
		</layer>
		<layer id="23" name="p2o.helper.constant.68" type="Const" version="opset1">
			<data element_type="i64" shape="1" offset="48" size="8"/>
			<rt_info>
				<attribute name="fused_names" version="0" value="p2o.helper.constant.68"/>
			</rt_info>
			<output>
				<port id="0" precision="I64" names="p2o.helper.constant.68">
					<dim>1</dim>
				</port>
			</output>
		</layer>
		<layer id="24" name="x_slice_1" type="Squeeze" version="opset1">
			<rt_info>
				<attribute name="fused_names" version="0" value="x_slice_1"/>
			</rt_info>
			<input>
				<port id="0" precision="FP32">
					<dim>1</dim>
					<dim>1</dim>
					<dim>64</dim>
					<dim>256</dim>
				</port>
				<port id="1" precision="I64">
					<dim>1</dim>
				</port>
			</input>
			<output>
				<port id="2" precision="FP32" names="x_slice_1">
					<dim>1</dim>
					<dim>64</dim>
					<dim>256</dim>
				</port>
			</output>
		</layer>
		<layer id="25" name="p2o.helper.constant.69" type="Const" version="opset1">
			<data element_type="i64" shape="1" offset="56" size="8"/>
			<rt_info>
				<attribute name="fused_names" version="0" value="p2o.Slice.14"/>
			</rt_info>
			<output>
				<port id="0" precision="I64" names="p2o.helper.constant.69">
					<dim>1</dim>
				</port>
			</output>
		</layer>
		<layer id="26" name="p2o.helper.constant.70" type="Const" version="opset1">
			<data element_type="i64" shape="1" offset="48" size="8"/>
			<rt_info>
				<attribute name="fused_names" version="0" value="p2o.Slice.14"/>
			</rt_info>
			<output>
				<port id="0" precision="I64" names="p2o.helper.constant.70">
					<dim>1</dim>
				</port>
			</output>
		</layer>
		<layer id="27" name="p2o.helper.constant.71" type="Const" version="opset1">
			<data element_type="i64" shape="1" offset="48" size="8"/>
			<rt_info>
				<attribute name="fused_names" version="0" value="p2o.Slice.14"/>
			</rt_info>
			<output>
				<port id="0" precision="I64" names="p2o.helper.constant.71">
					<dim>1</dim>
				</port>
			</output>
		</layer>
		<layer id="28" name="p2o.Slice.14" type="StridedSlice" version="opset1">
			<data begin_mask="0" end_mask="0" new_axis_mask="" shrink_axis_mask="" ellipsis_mask=""/>
			<rt_info>
				<attribute name="fused_names" version="0" value="p2o.Slice.14"/>
			</rt_info>
			<input>
				<port id="0" precision="FP32">
					<dim>1</dim>
					<dim>64</dim>
					<dim>256</dim>
				</port>
				<port id="1" precision="I64">
					<dim>1</dim>
				</port>
				<port id="2" precision="I64">
					<dim>1</dim>
				</port>
				<port id="3" precision="I64">
					<dim>1</dim>
				</port>
			</input>
			<output>
				<port id="4" precision="FP32" names="p2o.Slice.14">
					<dim>1</dim>
					<dim>64</dim>
					<dim>256</dim>
				</port>
			</output>
		</layer>
		<layer id="29" name="p2o.helper.constant.73" type="Const" version="opset1">
			<data element_type="i64" shape="1" offset="56" size="8"/>
			<rt_info>
				<attribute name="fused_names" version="0" value="p2o.helper.constant.73"/>
			</rt_info>
			<output>
				<port id="0" precision="I64" names="p2o.helper.constant.73">
					<dim>1</dim>
				</port>
			</output>
		</layer>
		<layer id="30" name="x_slice_1_slice_0" type="Squeeze" version="opset1">
			<rt_info>
				<attribute name="fused_names" version="0" value="x_slice_1_slice_0"/>
			</rt_info>
			<input>
				<port id="0" precision="FP32">
					<dim>1</dim>
					<dim>64</dim>
					<dim>256</dim>
				</port>
				<port id="1" precision="I64">
					<dim>1</dim>
				</port>
			</input>
			<output>
				<port id="2" precision="FP32" names="x_slice_1_slice_0">
					<dim>64</dim>
					<dim>256</dim>
				</port>
			</output>
		</layer>
		<layer id="31" name="fill_constant_11.tmp_0" type="Const" version="opset1">
			<data element_type="f32" shape="2, 256" offset="64" size="2048"/>
			<rt_info>
				<attribute name="fused_names" version="0" value="fill_constant_11.tmp_0"/>
			</rt_info>
			<output>
				<port id="0" precision="FP32" names="fill_constant_11.tmp_0">
					<dim>2</dim>
					<dim>256</dim>
				</port>
			</output>
		</layer>
		<layer id="32" name="p2o.Concat.11" type="Concat" version="opset1">
			<data axis="0"/>
			<rt_info>
				<attribute name="fused_names" version="0" value="p2o.Concat.11"/>
			</rt_info>
			<input>
				<port id="0" precision="FP32">
					<dim>64</dim>
					<dim>256</dim>
				</port>
				<port id="1" precision="FP32">
					<dim>2</dim>
					<dim>256</dim>
				</port>
			</input>
			<output>
				<port id="2" precision="FP32" names="p2o.Concat.11">
					<dim>66</dim>
					<dim>256</dim>
				</port>
			</output>
		</layer>
		<layer id="33" name="fill_constant_13.tmp_0" type="Const" version="opset1">
			<data element_type="f32" shape="66, 2" offset="2112" size="528"/>
			<rt_info>
				<attribute name="fused_names" version="0" value="fill_constant_13.tmp_0"/>
			</rt_info>
			<output>
				<port id="0" precision="FP32" names="fill_constant_13.tmp_0">
					<dim>66</dim>
					<dim>2</dim>
				</port>
			</output>
		</layer>
		<layer id="34" name="p2o.Concat.13" type="Concat" version="opset1">
			<data axis="1"/>
			<rt_info>
				<attribute name="fused_names" version="0" value="p2o.Concat.13"/>
			</rt_info>
			<input>
				<port id="0" precision="FP32">
					<dim>66</dim>
					<dim>256</dim>
				</port>
				<port id="1" precision="FP32">
					<dim>66</dim>
					<dim>2</dim>
				</port>
			</input>
			<output>
				<port id="2" precision="FP32" names="p2o.Concat.13">
					<dim>66</dim>
					<dim>258</dim>
				</port>
			</output>
		</layer>
		<layer id="35" name="p2o.helper.constant.85" type="Const" version="opset1">
			<data element_type="i64" shape="1" offset="56" size="8"/>
			<rt_info>
				<attribute name="fused_names" version="0" value="p2o.helper.constant.85"/>
			</rt_info>
			<output>
				<port id="0" precision="I64" names="p2o.helper.constant.85">
					<dim>1</dim>
				</port>
			</output>
		</layer>
		<layer id="36" name="p2o.helper.unsqueeze.1" type="Unsqueeze" version="opset1">
			<rt_info>
				<attribute name="fused_names" version="0" value="p2o.helper.unsqueeze.1"/>
			</rt_info>
			<input>
				<port id="0" precision="FP32">
					<dim>66</dim>
					<dim>258</dim>
				</port>
				<port id="1" precision="I64">
					<dim>1</dim>
				</port>
			</input>
			<output>
				<port id="2" precision="FP32" names="p2o.helper.unsqueeze.1">
					<dim>1</dim>
					<dim>66</dim>
					<dim>258</dim>
				</port>
			</output>
		</layer>
		<layer id="37" name="Constant_4990" type="Const" version="opset1">
			<data element_type="i64" shape="2" offset="2640" size="16"/>
			<rt_info>
				<attribute name="fused_names" version="0" value="p2o.Slice.16"/>
			</rt_info>
			<output>
				<port id="0" precision="I64">
					<dim>2</dim>
				</port>
			</output>
		</layer>
		<layer id="38" name="Constant_4993" type="Const" version="opset1">
			<data element_type="i64" shape="2" offset="2656" size="16"/>
			<rt_info>
				<attribute name="fused_names" version="0" value="p2o.Slice.16"/>
			</rt_info>
			<output>
				<port id="0" precision="I64">
					<dim>2</dim>
				</port>
			</output>
		</layer>
		<layer id="39" name="Constant_4996" type="Const" version="opset1">
			<data element_type="i64" shape="2" offset="32" size="16"/>
			<rt_info>
				<attribute name="fused_names" version="0" value="p2o.Slice.16"/>
			</rt_info>
			<output>
				<port id="0" precision="I64">
					<dim>2</dim>
				</port>
			</output>
		</layer>
		<layer id="40" name="p2o.Slice.16" type="StridedSlice" version="opset1">
			<data begin_mask="1, 0" end_mask="1, 0" new_axis_mask="" shrink_axis_mask="" ellipsis_mask=""/>
			<rt_info>
				<attribute name="fused_names" version="0" value="p2o.Slice.16"/>
			</rt_info>
			<input>
				<port id="0" precision="FP32">
					<dim>1</dim>
					<dim>3</dim>
					<dim>64</dim>
					<dim>256</dim>
				</port>
				<port id="1" precision="I64">
					<dim>2</dim>
				</port>
				<port id="2" precision="I64">
					<dim>2</dim>
				</port>
				<port id="3" precision="I64">
					<dim>2</dim>
				</port>
			</input>
			<output>
				<port id="4" precision="FP32" names="p2o.Slice.16">
					<dim>1</dim>
					<dim>1</dim>
					<dim>64</dim>
					<dim>256</dim>
				</port>
			</output>
		</layer>
		<layer id="41" name="p2o.helper.constant.78" type="Const" version="opset1">
			<data element_type="i64" shape="1" offset="48" size="8"/>
			<rt_info>
				<attribute name="fused_names" version="0" value="p2o.helper.constant.78"/>
			</rt_info>
			<output>
				<port id="0" precision="I64" names="p2o.helper.constant.78">
					<dim>1</dim>
				</port>
			</output>
		</layer>
		<layer id="42" name="x_slice_2" type="Squeeze" version="opset1">
			<rt_info>
				<attribute name="fused_names" version="0" value="x_slice_2"/>
			</rt_info>
			<input>
				<port id="0" precision="FP32">
					<dim>1</dim>
					<dim>1</dim>
					<dim>64</dim>
					<dim>256</dim>
				</port>
				<port id="1" precision="I64">
					<dim>1</dim>
				</port>
			</input>
			<output>
				<port id="2" precision="FP32" names="x_slice_2">
					<dim>1</dim>
					<dim>64</dim>
					<dim>256</dim>
				</port>
			</output>
		</layer>
		<layer id="43" name="p2o.helper.constant.79" type="Const" version="opset1">
			<data element_type="i64" shape="1" offset="56" size="8"/>
			<rt_info>
				<attribute name="fused_names" version="0" value="p2o.Slice.18"/>
			</rt_info>
			<output>
				<port id="0" precision="I64" names="p2o.helper.constant.79">
					<dim>1</dim>
				</port>
			</output>
		</layer>
		<layer id="44" name="p2o.helper.constant.80" type="Const" version="opset1">
			<data element_type="i64" shape="1" offset="48" size="8"/>
			<rt_info>
				<attribute name="fused_names" version="0" value="p2o.Slice.18"/>
			</rt_info>
			<output>
				<port id="0" precision="I64" names="p2o.helper.constant.80">
					<dim>1</dim>
				</port>
			</output>
		</layer>
		<layer id="45" name="p2o.helper.constant.81" type="Const" version="opset1">
			<data element_type="i64" shape="1" offset="48" size="8"/>
			<rt_info>
				<attribute name="fused_names" version="0" value="p2o.Slice.18"/>
			</rt_info>
			<output>
				<port id="0" precision="I64" names="p2o.helper.constant.81">
					<dim>1</dim>
				</port>
			</output>
		</layer>
		<layer id="46" name="p2o.Slice.18" type="StridedSlice" version="opset1">
			<data begin_mask="0" end_mask="0" new_axis_mask="" shrink_axis_mask="" ellipsis_mask=""/>
			<rt_info>
				<attribute name="fused_names" version="0" value="p2o.Slice.18"/>
			</rt_info>
			<input>
				<port id="0" precision="FP32">
					<dim>1</dim>
					<dim>64</dim>
					<dim>256</dim>
				</port>
				<port id="1" precision="I64">
					<dim>1</dim>
				</port>
				<port id="2" precision="I64">
					<dim>1</dim>
				</port>
				<port id="3" precision="I64">
					<dim>1</dim>
				</port>
			</input>
			<output>
				<port id="4" precision="FP32" names="p2o.Slice.18">
					<dim>1</dim>
					<dim>64</dim>
					<dim>256</dim>
				</port>
			</output>
		</layer>
		<layer id="47" name="p2o.helper.constant.83" type="Const" version="opset1">
			<data element_type="i64" shape="1" offset="56" size="8"/>
			<rt_info>
				<attribute name="fused_names" version="0" value="p2o.helper.constant.83"/>
			</rt_info>
			<output>
				<port id="0" precision="I64" names="p2o.helper.constant.83">
					<dim>1</dim>
				</port>
			</output>
		</layer>
		<layer id="48" name="x_slice_2_slice_0" type="Squeeze" version="opset1">
			<rt_info>
				<attribute name="fused_names" version="0" value="x_slice_2_slice_0"/>
			</rt_info>
			<input>
				<port id="0" precision="FP32">
					<dim>1</dim>
					<dim>64</dim>
					<dim>256</dim>
				</port>
				<port id="1" precision="I64">
					<dim>1</dim>
				</port>
			</input>
			<output>
				<port id="2" precision="FP32" names="x_slice_2_slice_0">
					<dim>64</dim>
					<dim>256</dim>
				</port>
			</output>
		</layer>
		<layer id="49" name="fill_constant_15.tmp_0" type="Const" version="opset1">
			<data element_type="f32" shape="2, 256" offset="64" size="2048"/>
			<rt_info>
				<attribute name="fused_names" version="0" value="fill_constant_15.tmp_0"/>
			</rt_info>
			<output>
				<port id="0" precision="FP32" names="fill_constant_15.tmp_0">
					<dim>2</dim>
					<dim>256</dim>
				</port>
			</output>
		</layer>
		<layer id="50" name="p2o.Concat.15" type="Concat" version="opset1">
			<data axis="0"/>
			<rt_info>
				<attribute name="fused_names" version="0" value="p2o.Concat.15"/>
			</rt_info>
			<input>
				<port id="0" precision="FP32">
					<dim>64</dim>
					<dim>256</dim>
				</port>
				<port id="1" precision="FP32">
					<dim>2</dim>
					<dim>256</dim>
				</port>
			</input>
			<output>
				<port id="2" precision="FP32" names="p2o.Concat.15">
					<dim>66</dim>
					<dim>256</dim>
				</port>
			</output>
		</layer>
		<layer id="51" name="fill_constant_17.tmp_0" type="Const" version="opset1">
			<data element_type="f32" shape="66, 2" offset="2112" size="528"/>
			<rt_info>
				<attribute name="fused_names" version="0" value="fill_constant_17.tmp_0"/>
			</rt_info>
			<output>
				<port id="0" precision="FP32" names="fill_constant_17.tmp_0">
					<dim>66</dim>
					<dim>2</dim>
				</port>
			</output>
		</layer>
		<layer id="52" name="p2o.Concat.17" type="Concat" version="opset1">
			<data axis="1"/>
			<rt_info>
				<attribute name="fused_names" version="0" value="p2o.Concat.17"/>
			</rt_info>
			<input>
				<port id="0" precision="FP32">
					<dim>66</dim>
					<dim>256</dim>
				</port>
				<port id="1" precision="FP32">
					<dim>66</dim>
					<dim>2</dim>
				</port>
			</input>
			<output>
				<port id="2" precision="FP32" names="p2o.Concat.17">
					<dim>66</dim>
					<dim>258</dim>
				</port>
			</output>
		</layer>
		<layer id="53" name="p2o.helper.constant.86" type="Const" version="opset1">
			<data element_type="i64" shape="1" offset="56" size="8"/>
			<rt_info>
				<attribute name="fused_names" version="0" value="p2o.helper.constant.86"/>
			</rt_info>
			<output>
				<port id="0" precision="I64" names="p2o.helper.constant.86">
					<dim>1</dim>
				</port>
			</output>
		</layer>
		<layer id="54" name="p2o.helper.unsqueeze.2" type="Unsqueeze" version="opset1">
			<rt_info>
				<attribute name="fused_names" version="0" value="p2o.helper.unsqueeze.2"/>
			</rt_info>
			<input>
				<port id="0" precision="FP32">
					<dim>66</dim>
					<dim>258</dim>
				</port>
				<port id="1" precision="I64">
					<dim>1</dim>
				</port>
			</input>
			<output>
				<port id="2" precision="FP32" names="p2o.helper.unsqueeze.2">
					<dim>1</dim>
					<dim>66</dim>
					<dim>258</dim>
				</port>
			</output>
		</layer>
		<layer id="55" name="p2o.helper.concat.4" type="Concat" version="opset1">
			<data axis="0"/>
			<rt_info>
				<attribute name="fused_names" version="0" value="p2o.helper.concat.4"/>
			</rt_info>
			<input>
				<port id="0" precision="FP32">
					<dim>1</dim>
					<dim>66</dim>
					<dim>258</dim>
				</port>
				<port id="1" precision="FP32">
					<dim>1</dim>
					<dim>66</dim>
					<dim>258</dim>
				</port>
				<port id="2" precision="FP32">
					<dim>1</dim>
					<dim>66</dim>
					<dim>258</dim>
				</port>
			</input>
			<output>
				<port id="3" precision="FP32" names="p2o.helper.concat.4">
					<dim>3</dim>
					<dim>66</dim>
					<dim>258</dim>
				</port>
			</output>
		</layer>
		<layer id="56" name="p2o.helper.constant.88" type="Const" version="opset1">
			<data element_type="i64" shape="3" offset="2672" size="24"/>
			<rt_info>
				<attribute name="fused_names" version="0" value="p2o.helper.constant.88"/>
			</rt_info>
			<output>
				<port id="0" precision="I64" names="p2o.helper.constant.88">
					<dim>3</dim>
				</port>
			</output>
		</layer>
		<layer id="57" name="reshape2_6.tmp_0" type="Reshape" version="opset1">
			<data special_zero="true"/>
			<rt_info>
				<attribute name="fused_names" version="0" value="reshape2_5.tmp_0, reshape2_6.tmp_0"/>
			</rt_info>
			<input>
				<port id="0" precision="FP32">
					<dim>3</dim>
					<dim>66</dim>
					<dim>258</dim>
				</port>
				<port id="1" precision="I64">
					<dim>3</dim>
				</port>
			</input>
			<output>
				<port id="2" precision="FP32" names="reshape2_6.tmp_0">
					<dim>1</dim>
					<dim>3</dim>
					<dim>17028</dim>
				</port>
			</output>
		</layer>
		<layer id="58" name="Constant_5003" type="Const" version="opset1">
			<data element_type="i64" shape="3" offset="2696" size="24"/>
			<rt_info>
				<attribute name="fused_names" version="0" value="reshape2_6.tmp_0_slice_0"/>
			</rt_info>
			<output>
				<port id="0" precision="I64">
					<dim>3</dim>
				</port>
			</output>
		</layer>
		<layer id="59" name="Constant_5006" type="Const" version="opset1">
			<data element_type="i64" shape="3" offset="2720" size="24"/>
			<rt_info>
				<attribute name="fused_names" version="0" value="reshape2_6.tmp_0_slice_0"/>
			</rt_info>
			<output>
				<port id="0" precision="I64">
					<dim>3</dim>
				</port>
			</output>
		</layer>
		<layer id="60" name="Constant_5009" type="Const" version="opset1">
			<data element_type="i64" shape="3" offset="2744" size="24"/>
			<rt_info>
				<attribute name="fused_names" version="0" value="reshape2_6.tmp_0_slice_0"/>
			</rt_info>
			<output>
				<port id="0" precision="I64">
					<dim>3</dim>
				</port>
			</output>
		</layer>
		<layer id="61" name="reshape2_6.tmp_0_slice_0" type="StridedSlice" version="opset1">
			<data begin_mask="1, 1, 0" end_mask="1, 1, 0" new_axis_mask="" shrink_axis_mask="" ellipsis_mask=""/>
			<rt_info>
				<attribute name="fused_names" version="0" value="reshape2_6.tmp_0_slice_0"/>
			</rt_info>
			<input>
				<port id="0" precision="FP32">
					<dim>1</dim>
					<dim>3</dim>
					<dim>17028</dim>
				</port>
				<port id="1" precision="I64">
					<dim>3</dim>
				</port>
				<port id="2" precision="I64">
					<dim>3</dim>
				</port>
				<port id="3" precision="I64">
					<dim>3</dim>
				</port>
			</input>
			<output>
				<port id="4" precision="FP32" names="reshape2_6.tmp_0_slice_0">
					<dim>1</dim>
					<dim>3</dim>
					<dim>3200</dim>
				</port>
			</output>
		</layer>
		<layer id="62" name="generated_tensor_11" type="Const" version="opset1">
			<data element_type="f32" shape="3200, 23" offset="2768" size="294400"/>
			<rt_info>
				<attribute name="fused_names" version="0" value="generated_tensor_11"/>
			</rt_info>
			<output>
				<port id="0" precision="FP32" names="generated_tensor_11">
					<dim>3200</dim>
					<dim>23</dim>
				</port>
			</output>
		</layer>
		<layer id="63" name="auto_15_" type="Const" version="opset1">
			<data element_type="f32" shape="23, 23" offset="297168" size="2116"/>
			<rt_info>
				<attribute name="fused_names" version="0" value="auto_15_"/>
			</rt_info>
			<output>
				<port id="0" precision="FP32" names="auto_15_">
					<dim>23</dim>
					<dim>23</dim>
				</port>
			</output>
		</layer>
		<layer id="64" name="p2o.Shape.1" type="ShapeOf" version="opset3">
			<data output_type="i64"/>
			<rt_info>
				<attribute name="fused_names" version="0" value="ShapeOf_252, p2o.Shape.1"/>
			</rt_info>
			<input>
				<port id="0" precision="FP32">
					<dim>1</dim>
					<dim>3</dim>
					<dim>64</dim>
					<dim>256</dim>
				</port>
			</input>
			<output>
				<port id="1" precision="I64" names="p2o.Shape.1">
					<dim>4</dim>
				</port>
			</output>
		</layer>
		<layer id="65" name="p2o.helper.constant.4" type="Const" version="opset1">
			<data element_type="i64" shape="1" offset="56" size="8"/>
			<rt_info>
				<attribute name="fused_names" version="0" value="Broadcast_234, ShapeOf_233, p2o.helper.constant.3, p2o.helper.constant.4, p2o.helper.constant.5, p2o.helper.slice.0"/>
			</rt_info>
			<output>
				<port id="0" precision="I64" names="p2o.helper.constant.4">
					<dim>1</dim>
				</port>
			</output>
		</layer>
		<layer id="66" name="p2o.helper.constant.5" type="Const" version="opset1">
			<data element_type="i64" shape="1" offset="299284" size="8"/>
			<rt_info>
				<attribute name="fused_names" version="0" value="Broadcast_234, ShapeOf_233, p2o.helper.constant.3, p2o.helper.constant.4, p2o.helper.constant.5, p2o.helper.slice.0"/>
			</rt_info>
			<output>
				<port id="0" precision="I64" names="p2o.helper.constant.5">
					<dim>1</dim>
				</port>
			</output>
		</layer>
		<layer id="67" name="Broadcast_234" type="Const" version="opset1">
			<data element_type="i64" shape="1" offset="48" size="8"/>
			<rt_info>
				<attribute name="fused_names" version="0" value="Broadcast_234, ShapeOf_233, p2o.helper.constant.3, p2o.helper.constant.4, p2o.helper.constant.5, p2o.helper.slice.0"/>
			</rt_info>
			<output>
				<port id="0" precision="I64">
					<dim>1</dim>
				</port>
			</output>
		</layer>
		<layer id="68" name="p2o.helper.slice.0" type="StridedSlice" version="opset1">
			<data begin_mask="0" end_mask="0" new_axis_mask="" shrink_axis_mask="" ellipsis_mask=""/>
			<rt_info>
				<attribute name="fused_names" version="0" value="Broadcast_234, ShapeOf_233, p2o.helper.constant.3, p2o.helper.constant.4, p2o.helper.constant.5, p2o.helper.slice.0"/>
			</rt_info>
			<input>
				<port id="0" precision="I64">
					<dim>4</dim>
				</port>
				<port id="1" precision="I64">
					<dim>1</dim>
				</port>
				<port id="2" precision="I64">
					<dim>1</dim>
				</port>
				<port id="3" precision="I64">
					<dim>1</dim>
				</port>
			</input>
			<output>
				<port id="4" precision="I64" names="p2o.helper.slice.0">
					<dim>2</dim>
				</port>
			</output>
		</layer>
		<layer id="69" name="p2o.helper.constant.0" type="Const" version="opset1">
			<data element_type="i64" shape="2" offset="299292" size="16"/>
			<rt_info>
				<attribute name="fused_names" version="0" value="p2o.helper.constant.0"/>
			</rt_info>
			<output>
				<port id="0" precision="I64" names="p2o.helper.constant.0">
					<dim>2</dim>
				</port>
			</output>
		</layer>
		<layer id="70" name="p2o.helper.concat.0" type="Concat" version="opset1">
			<data axis="0"/>
			<rt_info>
				<attribute name="fused_names" version="0" value="p2o.helper.concat.0, p2o.helper.constant.0"/>
			</rt_info>
			<input>
				<port id="0" precision="I64">
					<dim>2</dim>
				</port>
				<port id="1" precision="I64">
					<dim>2</dim>
				</port>
			</input>
			<output>
				<port id="2" precision="I64" names="p2o.helper.concat.0">
					<dim>4</dim>
				</port>
			</output>
		</layer>
		<layer id="71" name="Convert_254" type="Convert" version="opset1">
			<data destination_type="f32"/>
			<rt_info>
				<attribute name="fused_names" version="0" value="Convert_254"/>
			</rt_info>
			<input>
				<port id="0" precision="I64">
					<dim>4</dim>
				</port>
			</input>
			<output>
				<port id="1" precision="FP32">
					<dim>4</dim>
				</port>
			</output>
		</layer>
		<layer id="72" name="Convert_253" type="Convert" version="opset1">
			<data destination_type="f32"/>
			<rt_info>
				<attribute name="fused_names" version="0" value="Convert_253"/>
			</rt_info>
			<input>
				<port id="0" precision="I64">
					<dim>4</dim>
				</port>
			</input>
			<output>
				<port id="1" precision="FP32">
					<dim>4</dim>
				</port>
			</output>
		</layer>
		<layer id="73" name="Divide_255" type="Divide" version="opset1">
			<data auto_broadcast="numpy" m_pythondiv="true"/>
			<rt_info>
				<attribute name="fused_names" version="0" value="Divide_255"/>
			</rt_info>
			<input>
				<port id="0" precision="FP32">
					<dim>4</dim>
				</port>
				<port id="1" precision="FP32">
					<dim>4</dim>
				</port>
			</input>
			<output>
				<port id="2" precision="FP32">
					<dim>4</dim>
				</port>
			</output>
		</layer>
		<layer id="74" name="Constant_7580" type="Const" version="opset1">
			<data element_type="f32" shape="1" offset="299308" size="4"/>
			<output>
				<port id="0" precision="FP32">
					<dim>1</dim>
				</port>
			</output>
		</layer>
		<layer id="75" name="Add_257" type="Add" version="opset1">
			<data auto_broadcast="numpy"/>
			<rt_info>
				<attribute name="fused_names" version="0" value="Add_257"/>
			</rt_info>
			<input>
				<port id="0" precision="FP32">
					<dim>4</dim>
				</port>
				<port id="1" precision="FP32">
					<dim>1</dim>
				</port>
			</input>
			<output>
				<port id="2" precision="FP32">
					<dim>4</dim>
				</port>
			</output>
		</layer>
		<layer id="76" name="bilinear_interp_v2_0.tmp_0" type="Interpolate" version="opset4">
			<data mode="linear_onnx" shape_calculation_mode="sizes" coordinate_transformation_mode="align_corners" nearest_mode="round_prefer_floor" antialias="false" pads_begin="0, 0, 0, 0" pads_end="0, 0, 0, 0" cube_coeff="-0.75"/>
			<rt_info>
				<attribute name="fused_names" version="0" value="bilinear_interp_v2_0.tmp_0"/>
			</rt_info>
			<input>
				<port id="0" precision="FP32">
					<dim>1</dim>
					<dim>3</dim>
					<dim>64</dim>
					<dim>256</dim>
				</port>
				<port id="1" precision="I64">
					<dim>4</dim>
				</port>
				<port id="2" precision="FP32">
					<dim>4</dim>
				</port>
			</input>
			<output>
				<port id="3" precision="FP32" names="bilinear_interp_v2_0.tmp_0">
					<dim>1</dim>
					<dim>3</dim>
					<dim>32</dim>
					<dim>64</dim>
				</port>
			</output>
		</layer>
		<layer id="77" name="Multiply_7308" type="Const" version="opset1">
			<data element_type="f32" shape="32, 3, 3, 3" offset="299312" size="3456"/>
			<output>
				<port id="0" precision="FP32">
					<dim>32</dim>
					<dim>3</dim>
					<dim>3</dim>
					<dim>3</dim>
				</port>
			</output>
		</layer>
		<layer id="78" name="Multiply_7210" type="Convolution" version="opset1">
			<data strides="1, 1" dilations="1, 1" pads_begin="1, 1" pads_end="1, 1" auto_pad="explicit"/>
			<rt_info>
				<attribute name="fused_names" version="0" value="Concat_310, Convolution_291, Reshape_311, batch_norm2d_0.b_0, batch_norm2d_0.w_0, batch_norm2d_0.w_1, batch_norm2d_0.w_2, batch_norm_0.tmp_2, p2o.Conv.1"/>
			</rt_info>
			<input>
				<port id="0" precision="FP32">
					<dim>1</dim>
					<dim>3</dim>
					<dim>32</dim>
					<dim>64</dim>
				</port>
				<port id="1" precision="FP32">
					<dim>32</dim>
					<dim>3</dim>
					<dim>3</dim>
					<dim>3</dim>
				</port>
			</input>
			<output>
				<port id="2" precision="FP32">
					<dim>1</dim>
					<dim>32</dim>
					<dim>32</dim>
					<dim>64</dim>
				</port>
			</output>
		</layer>
		<layer id="79" name="Constant_7215" type="Const" version="opset1">
			<data element_type="f32" shape="1, 32, 1, 1" offset="302768" size="128"/>
			<output>
				<port id="0" precision="FP32">
					<dim>1</dim>
					<dim>32</dim>
					<dim>1</dim>
					<dim>1</dim>
				</port>
			</output>
		</layer>
		<layer id="80" name="batch_norm_0.tmp_2" type="Add" version="opset1">
			<data auto_broadcast="numpy"/>
			<rt_info>
				<attribute name="fused_names" version="0" value="batch_norm2d_0.b_0, batch_norm2d_0.w_0, batch_norm2d_0.w_1, batch_norm2d_0.w_2, batch_norm_0.tmp_2"/>
			</rt_info>
			<input>
				<port id="0" precision="FP32">
					<dim>1</dim>
					<dim>32</dim>
					<dim>32</dim>
					<dim>64</dim>
				</port>
				<port id="1" precision="FP32">
					<dim>1</dim>
					<dim>32</dim>
					<dim>1</dim>
					<dim>1</dim>
				</port>
			</input>
			<output>
				<port id="2" precision="FP32" names="batch_norm_0.tmp_2">
					<dim>1</dim>
					<dim>32</dim>
					<dim>32</dim>
					<dim>64</dim>
				</port>
			</output>
		</layer>
		<layer id="81" name="relu_0.tmp_0" type="ReLU" version="opset1">
			<rt_info>
				<attribute name="fused_names" version="0" value="relu_0.tmp_0"/>
			</rt_info>
			<input>
				<port id="0" precision="FP32">
					<dim>1</dim>
					<dim>32</dim>
					<dim>32</dim>
					<dim>64</dim>
				</port>
			</input>
			<output>
				<port id="1" precision="FP32" names="relu_0.tmp_0">
					<dim>1</dim>
					<dim>32</dim>
					<dim>32</dim>
					<dim>64</dim>
				</port>
			</output>
		</layer>
		<layer id="82" name="p2o.MaxPool.1" type="MaxPool" version="opset8">
			<data strides="2, 2" dilations="1, 1" pads_begin="0, 0" pads_end="0, 0" kernel="2, 2" rounding_type="floor" auto_pad="explicit" index_element_type="i64" axis="0"/>
			<rt_info>
				<attribute name="fused_names" version="0" value="p2o.MaxPool.1"/>
			</rt_info>
			<input>
				<port id="0" precision="FP32">
					<dim>1</dim>
					<dim>32</dim>
					<dim>32</dim>
					<dim>64</dim>
				</port>
			</input>
			<output>
				<port id="1" precision="FP32" names="p2o.MaxPool.1">
					<dim>1</dim>
					<dim>32</dim>
					<dim>16</dim>
					<dim>32</dim>
				</port>
				<port id="2" precision="I64">
					<dim>1</dim>
					<dim>32</dim>
					<dim>16</dim>
					<dim>32</dim>
				</port>
			</output>
		</layer>
		<layer id="83" name="Multiply_7317" type="Const" version="opset1">
			<data element_type="f32" shape="64, 32, 3, 3" offset="302896" size="73728"/>
			<output>
				<port id="0" precision="FP32">
					<dim>64</dim>
					<dim>32</dim>
					<dim>3</dim>
					<dim>3</dim>
				</port>
			</output>
		</layer>
		<layer id="84" name="Multiply_7217" type="Convolution" version="opset1">
			<data strides="1, 1" dilations="1, 1" pads_begin="1, 1" pads_end="1, 1" auto_pad="explicit"/>
			<rt_info>
				<attribute name="fused_names" version="0" value="Concat_361, Convolution_342, Reshape_362, batch_norm2d_1.b_0, batch_norm2d_1.w_0, batch_norm2d_1.w_1, batch_norm2d_1.w_2, batch_norm_1.tmp_2, p2o.Conv.3"/>
			</rt_info>
			<input>
				<port id="0" precision="FP32">
					<dim>1</dim>
					<dim>32</dim>
					<dim>16</dim>
					<dim>32</dim>
				</port>
				<port id="1" precision="FP32">
					<dim>64</dim>
					<dim>32</dim>
					<dim>3</dim>
					<dim>3</dim>
				</port>
			</input>
			<output>
				<port id="2" precision="FP32">
					<dim>1</dim>
					<dim>64</dim>
					<dim>16</dim>
					<dim>32</dim>
				</port>
			</output>
		</layer>
		<layer id="85" name="Constant_7222" type="Const" version="opset1">
			<data element_type="f32" shape="1, 64, 1, 1" offset="376624" size="256"/>
			<output>
				<port id="0" precision="FP32">
					<dim>1</dim>
					<dim>64</dim>
					<dim>1</dim>
					<dim>1</dim>
				</port>
			</output>
		</layer>
		<layer id="86" name="batch_norm_1.tmp_2" type="Add" version="opset1">
			<data auto_broadcast="numpy"/>
			<rt_info>
				<attribute name="fused_names" version="0" value="batch_norm2d_1.b_0, batch_norm2d_1.w_0, batch_norm2d_1.w_1, batch_norm2d_1.w_2, batch_norm_1.tmp_2"/>
			</rt_info>
			<input>
				<port id="0" precision="FP32">
					<dim>1</dim>
					<dim>64</dim>
					<dim>16</dim>
					<dim>32</dim>
				</port>
				<port id="1" precision="FP32">
					<dim>1</dim>
					<dim>64</dim>
					<dim>1</dim>
					<dim>1</dim>
				</port>
			</input>
			<output>
				<port id="2" precision="FP32" names="batch_norm_1.tmp_2">
					<dim>1</dim>
					<dim>64</dim>
					<dim>16</dim>
					<dim>32</dim>
				</port>
			</output>
		</layer>
		<layer id="87" name="relu_1.tmp_0" type="ReLU" version="opset1">
			<rt_info>
				<attribute name="fused_names" version="0" value="relu_1.tmp_0"/>
			</rt_info>
			<input>
				<port id="0" precision="FP32">
					<dim>1</dim>
					<dim>64</dim>
					<dim>16</dim>
					<dim>32</dim>
				</port>
			</input>
			<output>
				<port id="1" precision="FP32" names="relu_1.tmp_0">
					<dim>1</dim>
					<dim>64</dim>
					<dim>16</dim>
					<dim>32</dim>
				</port>
			</output>
		</layer>
		<layer id="88" name="p2o.MaxPool.3" type="MaxPool" version="opset8">
			<data strides="2, 2" dilations="1, 1" pads_begin="0, 0" pads_end="0, 0" kernel="2, 2" rounding_type="floor" auto_pad="explicit" index_element_type="i64" axis="0"/>
			<rt_info>
				<attribute name="fused_names" version="0" value="p2o.MaxPool.3"/>
			</rt_info>
			<input>
				<port id="0" precision="FP32">
					<dim>1</dim>
					<dim>64</dim>
					<dim>16</dim>
					<dim>32</dim>
				</port>
			</input>
			<output>
				<port id="1" precision="FP32" names="p2o.MaxPool.3">
					<dim>1</dim>
					<dim>64</dim>
					<dim>8</dim>
					<dim>16</dim>
				</port>
				<port id="2" precision="I64">
					<dim>1</dim>
					<dim>64</dim>
					<dim>8</dim>
					<dim>16</dim>
				</port>
			</output>
		</layer>
		<layer id="89" name="Multiply_7326" type="Const" version="opset1">
			<data element_type="f32" shape="128, 64, 3, 3" offset="376880" size="294912"/>
			<output>
				<port id="0" precision="FP32">
					<dim>128</dim>
					<dim>64</dim>
					<dim>3</dim>
					<dim>3</dim>
				</port>
			</output>
		</layer>
		<layer id="90" name="Multiply_7224" type="Convolution" version="opset1">
			<data strides="1, 1" dilations="1, 1" pads_begin="1, 1" pads_end="1, 1" auto_pad="explicit"/>
			<rt_info>
				<attribute name="fused_names" version="0" value="Concat_412, Convolution_393, Reshape_413, batch_norm2d_2.b_0, batch_norm2d_2.w_0, batch_norm2d_2.w_1, batch_norm2d_2.w_2, batch_norm_2.tmp_2, p2o.Conv.5"/>
			</rt_info>
			<input>
				<port id="0" precision="FP32">
					<dim>1</dim>
					<dim>64</dim>
					<dim>8</dim>
					<dim>16</dim>
				</port>
				<port id="1" precision="FP32">
					<dim>128</dim>
					<dim>64</dim>
					<dim>3</dim>
					<dim>3</dim>
				</port>
			</input>
			<output>
				<port id="2" precision="FP32">
					<dim>1</dim>
					<dim>128</dim>
					<dim>8</dim>
					<dim>16</dim>
				</port>
			</output>
		</layer>
		<layer id="91" name="Constant_7229" type="Const" version="opset1">
			<data element_type="f32" shape="1, 128, 1, 1" offset="671792" size="512"/>
			<output>
				<port id="0" precision="FP32">
					<dim>1</dim>
					<dim>128</dim>
					<dim>1</dim>
					<dim>1</dim>
				</port>
			</output>
		</layer>
		<layer id="92" name="batch_norm_2.tmp_2" type="Add" version="opset1">
			<data auto_broadcast="numpy"/>
			<rt_info>
				<attribute name="fused_names" version="0" value="batch_norm2d_2.b_0, batch_norm2d_2.w_0, batch_norm2d_2.w_1, batch_norm2d_2.w_2, batch_norm_2.tmp_2"/>
			</rt_info>
			<input>
				<port id="0" precision="FP32">
					<dim>1</dim>
					<dim>128</dim>
					<dim>8</dim>
					<dim>16</dim>
				</port>
				<port id="1" precision="FP32">
					<dim>1</dim>
					<dim>128</dim>
					<dim>1</dim>
					<dim>1</dim>
				</port>
			</input>
			<output>
				<port id="2" precision="FP32" names="batch_norm_2.tmp_2">
					<dim>1</dim>
					<dim>128</dim>
					<dim>8</dim>
					<dim>16</dim>
				</port>
			</output>
		</layer>
		<layer id="93" name="relu_2.tmp_0" type="ReLU" version="opset1">
			<rt_info>
				<attribute name="fused_names" version="0" value="relu_2.tmp_0"/>
			</rt_info>
			<input>
				<port id="0" precision="FP32">
					<dim>1</dim>
					<dim>128</dim>
					<dim>8</dim>
					<dim>16</dim>
				</port>
			</input>
			<output>
				<port id="1" precision="FP32" names="relu_2.tmp_0">
					<dim>1</dim>
					<dim>128</dim>
					<dim>8</dim>
					<dim>16</dim>
				</port>
			</output>
		</layer>
		<layer id="94" name="p2o.MaxPool.5" type="MaxPool" version="opset8">
			<data strides="2, 2" dilations="1, 1" pads_begin="0, 0" pads_end="0, 0" kernel="2, 2" rounding_type="floor" auto_pad="explicit" index_element_type="i64" axis="0"/>
			<rt_info>
				<attribute name="fused_names" version="0" value="p2o.MaxPool.5"/>
			</rt_info>
			<input>
				<port id="0" precision="FP32">
					<dim>1</dim>
					<dim>128</dim>
					<dim>8</dim>
					<dim>16</dim>
				</port>
			</input>
			<output>
				<port id="1" precision="FP32" names="p2o.MaxPool.5">
					<dim>1</dim>
					<dim>128</dim>
					<dim>4</dim>
					<dim>8</dim>
				</port>
				<port id="2" precision="I64">
					<dim>1</dim>
					<dim>128</dim>
					<dim>4</dim>
					<dim>8</dim>
				</port>
			</output>
		</layer>
		<layer id="95" name="Multiply_7335" type="Const" version="opset1">
			<data element_type="f32" shape="256, 128, 3, 3" offset="672304" size="1179648"/>
			<output>
				<port id="0" precision="FP32">
					<dim>256</dim>
					<dim>128</dim>
					<dim>3</dim>
					<dim>3</dim>
				</port>
			</output>
		</layer>
		<layer id="96" name="Multiply_7231" type="Convolution" version="opset1">
			<data strides="1, 1" dilations="1, 1" pads_begin="1, 1" pads_end="1, 1" auto_pad="explicit"/>
			<rt_info>
				<attribute name="fused_names" version="0" value="Concat_463, Convolution_444, Reshape_464, batch_norm2d_3.b_0, batch_norm2d_3.w_0, batch_norm2d_3.w_1, batch_norm2d_3.w_2, batch_norm_3.tmp_2, p2o.Conv.7"/>
			</rt_info>
			<input>
				<port id="0" precision="FP32">
					<dim>1</dim>
					<dim>128</dim>
					<dim>4</dim>
					<dim>8</dim>
				</port>
				<port id="1" precision="FP32">
					<dim>256</dim>
					<dim>128</dim>
					<dim>3</dim>
					<dim>3</dim>
				</port>
			</input>
			<output>
				<port id="2" precision="FP32">
					<dim>1</dim>
					<dim>256</dim>
					<dim>4</dim>
					<dim>8</dim>
				</port>
			</output>
		</layer>
		<layer id="97" name="Constant_7236" type="Const" version="opset1">
			<data element_type="f32" shape="1, 256, 1, 1" offset="1851952" size="1024"/>
			<output>
				<port id="0" precision="FP32">
					<dim>1</dim>
					<dim>256</dim>
					<dim>1</dim>
					<dim>1</dim>
				</port>
			</output>
		</layer>
		<layer id="98" name="batch_norm_3.tmp_2" type="Add" version="opset1">
			<data auto_broadcast="numpy"/>
			<rt_info>
				<attribute name="fused_names" version="0" value="batch_norm2d_3.b_0, batch_norm2d_3.w_0, batch_norm2d_3.w_1, batch_norm2d_3.w_2, batch_norm_3.tmp_2"/>
			</rt_info>
			<input>
				<port id="0" precision="FP32">
					<dim>1</dim>
					<dim>256</dim>
					<dim>4</dim>
					<dim>8</dim>
				</port>
				<port id="1" precision="FP32">
					<dim>1</dim>
					<dim>256</dim>
					<dim>1</dim>
					<dim>1</dim>
				</port>
			</input>
			<output>
				<port id="2" precision="FP32" names="batch_norm_3.tmp_2">
					<dim>1</dim>
					<dim>256</dim>
					<dim>4</dim>
					<dim>8</dim>
				</port>
			</output>
		</layer>
		<layer id="99" name="relu_3.tmp_0" type="ReLU" version="opset1">
			<rt_info>
				<attribute name="fused_names" version="0" value="relu_3.tmp_0"/>
			</rt_info>
			<input>
				<port id="0" precision="FP32">
					<dim>1</dim>
					<dim>256</dim>
					<dim>4</dim>
					<dim>8</dim>
				</port>
			</input>
			<output>
				<port id="1" precision="FP32" names="relu_3.tmp_0">
					<dim>1</dim>
					<dim>256</dim>
					<dim>4</dim>
					<dim>8</dim>
				</port>
			</output>
		</layer>
		<layer id="100" name="p2o.MaxPool.7" type="MaxPool" version="opset8">
			<data strides="2, 2" dilations="1, 1" pads_begin="0, 0" pads_end="0, 0" kernel="2, 2" rounding_type="floor" auto_pad="explicit" index_element_type="i64" axis="0"/>
			<rt_info>
				<attribute name="fused_names" version="0" value="p2o.MaxPool.7"/>
			</rt_info>
			<input>
				<port id="0" precision="FP32">
					<dim>1</dim>
					<dim>256</dim>
					<dim>4</dim>
					<dim>8</dim>
				</port>
			</input>
			<output>
				<port id="1" precision="FP32" names="p2o.MaxPool.7">
					<dim>1</dim>
					<dim>256</dim>
					<dim>2</dim>
					<dim>4</dim>
				</port>
				<port id="2" precision="I64">
					<dim>1</dim>
					<dim>256</dim>
					<dim>2</dim>
					<dim>4</dim>
				</port>
			</output>
		</layer>
		<layer id="101" name="Multiply_7344" type="Const" version="opset1">
			<data element_type="f32" shape="256, 256, 3, 3" offset="1852976" size="2359296"/>
			<output>
				<port id="0" precision="FP32">
					<dim>256</dim>
					<dim>256</dim>
					<dim>3</dim>
					<dim>3</dim>
				</port>
			</output>
		</layer>
		<layer id="102" name="Multiply_7238" type="Convolution" version="opset1">
			<data strides="1, 1" dilations="1, 1" pads_begin="1, 1" pads_end="1, 1" auto_pad="explicit"/>
			<rt_info>
				<attribute name="fused_names" version="0" value="Concat_514, Convolution_495, Reshape_515, batch_norm2d_4.b_0, batch_norm2d_4.w_0, batch_norm2d_4.w_1, batch_norm2d_4.w_2, batch_norm_4.tmp_2, p2o.Conv.9"/>
			</rt_info>
			<input>
				<port id="0" precision="FP32">
					<dim>1</dim>
					<dim>256</dim>
					<dim>2</dim>
					<dim>4</dim>
				</port>
				<port id="1" precision="FP32">
					<dim>256</dim>
					<dim>256</dim>
					<dim>3</dim>
					<dim>3</dim>
				</port>
			</input>
			<output>
				<port id="2" precision="FP32">
					<dim>1</dim>
					<dim>256</dim>
					<dim>2</dim>
					<dim>4</dim>
				</port>
			</output>
		</layer>
		<layer id="103" name="Constant_7243" type="Const" version="opset1">
			<data element_type="f32" shape="1, 256, 1, 1" offset="1851952" size="1024"/>
			<output>
				<port id="0" precision="FP32">
					<dim>1</dim>
					<dim>256</dim>
					<dim>1</dim>
					<dim>1</dim>
				</port>
			</output>
		</layer>
		<layer id="104" name="batch_norm_4.tmp_2" type="Add" version="opset1">
			<data auto_broadcast="numpy"/>
			<rt_info>
				<attribute name="fused_names" version="0" value="batch_norm2d_4.b_0, batch_norm2d_4.w_0, batch_norm2d_4.w_1, batch_norm2d_4.w_2, batch_norm_4.tmp_2"/>
			</rt_info>
			<input>
				<port id="0" precision="FP32">
					<dim>1</dim>
					<dim>256</dim>
					<dim>2</dim>
					<dim>4</dim>
				</port>
				<port id="1" precision="FP32">
					<dim>1</dim>
					<dim>256</dim>
					<dim>1</dim>
					<dim>1</dim>
				</port>
			</input>
			<output>
				<port id="2" precision="FP32" names="batch_norm_4.tmp_2">
					<dim>1</dim>
					<dim>256</dim>
					<dim>2</dim>
					<dim>4</dim>
				</port>
			</output>
		</layer>
		<layer id="105" name="relu_4.tmp_0" type="ReLU" version="opset1">
			<rt_info>
				<attribute name="fused_names" version="0" value="relu_4.tmp_0"/>
			</rt_info>
			<input>
				<port id="0" precision="FP32">
					<dim>1</dim>
					<dim>256</dim>
					<dim>2</dim>
					<dim>4</dim>
				</port>
			</input>
			<output>
				<port id="1" precision="FP32" names="relu_4.tmp_0">
					<dim>1</dim>
					<dim>256</dim>
					<dim>2</dim>
					<dim>4</dim>
				</port>
			</output>
		</layer>
		<layer id="106" name="p2o.MaxPool.9" type="MaxPool" version="opset8">
			<data strides="2, 2" dilations="1, 1" pads_begin="0, 0" pads_end="0, 0" kernel="2, 2" rounding_type="floor" auto_pad="explicit" index_element_type="i64" axis="0"/>
			<rt_info>
				<attribute name="fused_names" version="0" value="p2o.MaxPool.9"/>
			</rt_info>
			<input>
				<port id="0" precision="FP32">
					<dim>1</dim>
					<dim>256</dim>
					<dim>2</dim>
					<dim>4</dim>
				</port>
			</input>
			<output>
				<port id="1" precision="FP32" names="p2o.MaxPool.9">
					<dim>1</dim>
					<dim>256</dim>
					<dim>1</dim>
					<dim>2</dim>
				</port>
				<port id="2" precision="I64">
					<dim>1</dim>
					<dim>256</dim>
					<dim>1</dim>
					<dim>2</dim>
				</port>
			</output>
		</layer>
		<layer id="107" name="Multiply_7353" type="Const" version="opset1">
			<data element_type="f32" shape="256, 256, 3, 3" offset="4212272" size="2359296"/>
			<output>
				<port id="0" precision="FP32">
					<dim>256</dim>
					<dim>256</dim>
					<dim>3</dim>
					<dim>3</dim>
				</port>
			</output>
		</layer>
		<layer id="108" name="Multiply_7245" type="Convolution" version="opset1">
			<data strides="1, 1" dilations="1, 1" pads_begin="1, 1" pads_end="1, 1" auto_pad="explicit"/>
			<rt_info>
				<attribute name="fused_names" version="0" value="Concat_565, Convolution_546, Reshape_566, batch_norm2d_5.b_0, batch_norm2d_5.w_0, batch_norm2d_5.w_1, batch_norm2d_5.w_2, batch_norm_5.tmp_2, p2o.Conv.11"/>
			</rt_info>
			<input>
				<port id="0" precision="FP32">
					<dim>1</dim>
					<dim>256</dim>
					<dim>1</dim>
					<dim>2</dim>
				</port>
				<port id="1" precision="FP32">
					<dim>256</dim>
					<dim>256</dim>
					<dim>3</dim>
					<dim>3</dim>
				</port>
			</input>
			<output>
				<port id="2" precision="FP32">
					<dim>1</dim>
					<dim>256</dim>
					<dim>1</dim>
					<dim>2</dim>
				</port>
			</output>
		</layer>
		<layer id="109" name="Constant_7250" type="Const" version="opset1">
			<data element_type="f32" shape="1, 256, 1, 1" offset="1851952" size="1024"/>
			<output>
				<port id="0" precision="FP32">
					<dim>1</dim>
					<dim>256</dim>
					<dim>1</dim>
					<dim>1</dim>
				</port>
			</output>
		</layer>
		<layer id="110" name="batch_norm_5.tmp_2" type="Add" version="opset1">
			<data auto_broadcast="numpy"/>
			<rt_info>
				<attribute name="fused_names" version="0" value="batch_norm2d_5.b_0, batch_norm2d_5.w_0, batch_norm2d_5.w_1, batch_norm2d_5.w_2, batch_norm_5.tmp_2"/>
			</rt_info>
			<input>
				<port id="0" precision="FP32">
					<dim>1</dim>
					<dim>256</dim>
					<dim>1</dim>
					<dim>2</dim>
				</port>
				<port id="1" precision="FP32">
					<dim>1</dim>
					<dim>256</dim>
					<dim>1</dim>
					<dim>1</dim>
				</port>
			</input>
			<output>
				<port id="2" precision="FP32" names="batch_norm_5.tmp_2">
					<dim>1</dim>
					<dim>256</dim>
					<dim>1</dim>
					<dim>2</dim>
				</port>
			</output>
		</layer>
		<layer id="111" name="relu_5.tmp_0" type="ReLU" version="opset1">
			<rt_info>
				<attribute name="fused_names" version="0" value="relu_5.tmp_0"/>
			</rt_info>
			<input>
				<port id="0" precision="FP32">
					<dim>1</dim>
					<dim>256</dim>
					<dim>1</dim>
					<dim>2</dim>
				</port>
			</input>
			<output>
				<port id="1" precision="FP32" names="relu_5.tmp_0">
					<dim>1</dim>
					<dim>256</dim>
					<dim>1</dim>
					<dim>2</dim>
				</port>
			</output>
		</layer>
		<layer id="112" name="p2o.Shape.3" type="ShapeOf" version="opset3">
			<data output_type="i64"/>
			<rt_info>
				<attribute name="fused_names" version="0" value="p2o.Shape.3"/>
			</rt_info>
			<input>
				<port id="0" precision="FP32">
					<dim>1</dim>
					<dim>256</dim>
					<dim>1</dim>
					<dim>2</dim>
				</port>
			</input>
			<output>
				<port id="1" precision="I64" names="p2o.Shape.3">
					<dim>4</dim>
				</port>
			</output>
		</layer>
		<layer id="113" name="shape_0.tmp_0" type="Convert" version="opset1">
			<data destination_type="i32"/>
			<rt_info>
				<attribute name="fused_names" version="0" value="shape_0.tmp_0"/>
			</rt_info>
			<input>
				<port id="0" precision="I64">
					<dim>4</dim>
				</port>
			</input>
			<output>
				<port id="1" precision="I32" names="shape_0.tmp_0">
					<dim>4</dim>
				</port>
			</output>
		</layer>
		<layer id="114" name="p2o.helper.constant.12" type="Const" version="opset1">
			<data element_type="i64" shape="1" offset="56" size="8"/>
			<rt_info>
				<attribute name="fused_names" version="0" value="p2o.helper.constant.12, p2o.helper.constant.13, p2o.helper.constant.14, p2o.helper.constant.15, shape_0.tmp_0_slice_0"/>
			</rt_info>
			<output>
				<port id="0" precision="I64" names="p2o.helper.constant.12">
					<dim>1</dim>
				</port>
			</output>
		</layer>
		<layer id="115" name="p2o.helper.constant.13" type="Const" version="opset1">
			<data element_type="i64" shape="1" offset="48" size="8"/>
			<rt_info>
				<attribute name="fused_names" version="0" value="p2o.helper.constant.12, p2o.helper.constant.13, p2o.helper.constant.14, p2o.helper.constant.15, shape_0.tmp_0_slice_0"/>
			</rt_info>
			<output>
				<port id="0" precision="I64" names="p2o.helper.constant.13">
					<dim>1</dim>
				</port>
			</output>
		</layer>
		<layer id="116" name="p2o.helper.constant.14" type="Const" version="opset1">
			<data element_type="i64" shape="1" offset="48" size="8"/>
			<rt_info>
				<attribute name="fused_names" version="0" value="p2o.helper.constant.12, p2o.helper.constant.13, p2o.helper.constant.14, p2o.helper.constant.15, shape_0.tmp_0_slice_0"/>
			</rt_info>
			<output>
				<port id="0" precision="I64" names="p2o.helper.constant.14">
					<dim>1</dim>
				</port>
			</output>
		</layer>
		<layer id="117" name="shape_0.tmp_0_slice_0" type="StridedSlice" version="opset1">
			<data begin_mask="0" end_mask="0" new_axis_mask="" shrink_axis_mask="" ellipsis_mask=""/>
			<rt_info>
				<attribute name="fused_names" version="0" value="p2o.helper.constant.12, p2o.helper.constant.13, p2o.helper.constant.14, p2o.helper.constant.15, shape_0.tmp_0_slice_0"/>
			</rt_info>
			<input>
				<port id="0" precision="I32">
					<dim>4</dim>
				</port>
				<port id="1" precision="I64">
					<dim>1</dim>
				</port>
				<port id="2" precision="I64">
					<dim>1</dim>
				</port>
				<port id="3" precision="I64">
					<dim>1</dim>
				</port>
			</input>
			<output>
				<port id="4" precision="I32" names="shape_0.tmp_0_slice_0">
					<dim>1</dim>
				</port>
			</output>
		</layer>
		<layer id="118" name="p2o.Cast.2" type="Convert" version="opset1">
			<data destination_type="i64"/>
			<rt_info>
				<attribute name="fused_names" version="0" value="p2o.Cast.2"/>
			</rt_info>
			<input>
				<port id="0" precision="I32">
					<dim>1</dim>
				</port>
			</input>
			<output>
				<port id="1" precision="I64" names="p2o.Cast.2">
					<dim>1</dim>
				</port>
			</output>
		</layer>
		<layer id="119" name="p2o.Cast.4" type="Const" version="opset1">
			<data element_type="i64" shape="1" offset="6571568" size="8"/>
			<output>
				<port id="0" precision="I64" names="p2o.Cast.4">
					<dim>1</dim>
				</port>
			</output>
		</layer>
		<layer id="120" name="p2o.helper.concat.1" type="Concat" version="opset1">
			<data axis="0"/>
			<rt_info>
				<attribute name="fused_names" version="0" value="p2o.Cast.4, p2o.helper.concat.1"/>
			</rt_info>
			<input>
				<port id="0" precision="I64">
					<dim>1</dim>
				</port>
				<port id="1" precision="I64">
					<dim>1</dim>
				</port>
			</input>
			<output>
				<port id="2" precision="I64" names="p2o.helper.concat.1">
					<dim>2</dim>
				</port>
			</output>
		</layer>
		<layer id="121" name="reshape2_0.tmp_0" type="Reshape" version="opset1">
			<data special_zero="true"/>
			<rt_info>
				<attribute name="fused_names" version="0" value="reshape2_0.tmp_0"/>
			</rt_info>
			<input>
				<port id="0" precision="FP32">
					<dim>1</dim>
					<dim>256</dim>
					<dim>1</dim>
					<dim>2</dim>
				</port>
				<port id="1" precision="I64">
					<dim>2</dim>
				</port>
			</input>
			<output>
				<port id="2" precision="FP32" names="reshape2_0.tmp_0">
					<dim>1</dim>
					<dim>512</dim>
				</port>
			</output>
		</layer>
		<layer id="122" name="Constant_7362" type="Const" version="opset1">
			<data element_type="f32" shape="512, 512" offset="6571576" size="1048576"/>
			<rt_info>
				<attribute name="fused_names" version="0" value="batch_norm1d_0.b_0, batch_norm1d_0.w_0, batch_norm1d_0.w_1, batch_norm1d_0.w_2, batch_norm_6.tmp_2, linear_0.w_0, linear_51.tmp_1, p2o.MatMul.1"/>
			</rt_info>
			<output>
				<port id="0" precision="FP32">
					<dim>512</dim>
					<dim>512</dim>
				</port>
			</output>
		</layer>
		<layer id="123" name="Multiply_7252" type="MatMul" version="opset1">
			<data transpose_a="false" transpose_b="true"/>
			<rt_info>
				<attribute name="fused_names" version="0" value="batch_norm1d_0.b_0, batch_norm1d_0.w_0, batch_norm1d_0.w_1, batch_norm1d_0.w_2, batch_norm_6.tmp_2, linear_0.w_0, linear_51.tmp_1, p2o.MatMul.1"/>
			</rt_info>
			<input>
				<port id="0" precision="FP32">
					<dim>1</dim>
					<dim>512</dim>
				</port>
				<port id="1" precision="FP32">
					<dim>512</dim>
					<dim>512</dim>
				</port>
			</input>
			<output>
				<port id="2" precision="FP32">
					<dim>1</dim>
					<dim>512</dim>
				</port>
			</output>
		</layer>
		<layer id="124" name="Constant_7257" type="Const" version="opset1">
			<data element_type="f32" shape="1, 512" offset="64" size="2048"/>
			<output>
				<port id="0" precision="FP32">
					<dim>1</dim>
					<dim>512</dim>
				</port>
			</output>
		</layer>
		<layer id="125" name="batch_norm_6.tmp_2" type="Add" version="opset1">
			<data auto_broadcast="numpy"/>
			<rt_info>
				<attribute name="fused_names" version="0" value="batch_norm1d_0.b_0, batch_norm1d_0.w_0, batch_norm1d_0.w_1, batch_norm1d_0.w_2, batch_norm_6.tmp_2"/>
			</rt_info>
			<input>
				<port id="0" precision="FP32">
					<dim>1</dim>
					<dim>512</dim>
				</port>
				<port id="1" precision="FP32">
					<dim>1</dim>
					<dim>512</dim>
				</port>
			</input>
			<output>
				<port id="2" precision="FP32" names="batch_norm_6.tmp_2">
					<dim>1</dim>
					<dim>512</dim>
				</port>
			</output>
		</layer>
		<layer id="126" name="relu_6.tmp_0" type="ReLU" version="opset1">
			<rt_info>
				<attribute name="fused_names" version="0" value="relu_6.tmp_0"/>
			</rt_info>
			<input>
				<port id="0" precision="FP32">
					<dim>1</dim>
					<dim>512</dim>
				</port>
			</input>
			<output>
				<port id="1" precision="FP32" names="relu_6.tmp_0">
					<dim>1</dim>
					<dim>512</dim>
				</port>
			</output>
		</layer>
		<layer id="127" name="Constant_7581" type="Const" version="opset1">
			<data element_type="f32" shape="1, 1" offset="7620152" size="4"/>
			<output>
				<port id="0" precision="FP32">
					<dim>1</dim>
					<dim>1</dim>
				</port>
			</output>
		</layer>
		<layer id="128" name="p2o.Mul.1" type="Multiply" version="opset1">
			<data auto_broadcast="numpy"/>
			<rt_info>
				<attribute name="fused_names" version="0" value="p2o.Mul.1"/>
			</rt_info>
			<input>
				<port id="0" precision="FP32">
					<dim>1</dim>
					<dim>512</dim>
				</port>
				<port id="1" precision="FP32">
					<dim>1</dim>
					<dim>1</dim>
				</port>
			</input>
			<output>
				<port id="2" precision="FP32" names="p2o.Mul.1">
					<dim>1</dim>
					<dim>512</dim>
				</port>
			</output>
		</layer>
		<layer id="129" name="Constant_5689" type="Const" version="opset1">
			<data element_type="f32" shape="40, 512" offset="7620156" size="81920"/>
			<rt_info>
				<attribute name="fused_names" version="0" value="linear_1.w_0, p2o.MatMul.3"/>
			</rt_info>
			<output>
				<port id="0" precision="FP32">
					<dim>40</dim>
					<dim>512</dim>
				</port>
			</output>
		</layer>
		<layer id="130" name="p2o.MatMul.3" type="MatMul" version="opset1">
			<data transpose_a="false" transpose_b="true"/>
			<rt_info>
				<attribute name="fused_names" version="0" value="linear_1.w_0, p2o.MatMul.3"/>
			</rt_info>
			<input>
				<port id="0" precision="FP32">
					<dim>1</dim>
					<dim>512</dim>
				</port>
				<port id="1" precision="FP32">
					<dim>40</dim>
					<dim>512</dim>
				</port>
			</input>
			<output>
				<port id="2" precision="FP32" names="p2o.MatMul.3">
					<dim>1</dim>
					<dim>40</dim>
				</port>
			</output>
		</layer>
		<layer id="131" name="Constant_7582" type="Const" version="opset1">
			<data element_type="f32" shape="1, 40" offset="7702076" size="160"/>
			<output>
				<port id="0" precision="FP32">
					<dim>1</dim>
					<dim>40</dim>
				</port>
			</output>
		</layer>
		<layer id="132" name="linear_52.tmp_1" type="Add" version="opset1">
			<data auto_broadcast="numpy"/>
			<rt_info>
				<attribute name="fused_names" version="0" value="linear_52.tmp_1"/>
			</rt_info>
			<input>
				<port id="0" precision="FP32">
					<dim>1</dim>
					<dim>40</dim>
				</port>
				<port id="1" precision="FP32">
					<dim>1</dim>
					<dim>40</dim>
				</port>
			</input>
			<output>
				<port id="2" precision="FP32" names="linear_52.tmp_1">
					<dim>1</dim>
					<dim>40</dim>
				</port>
			</output>
		</layer>
		<layer id="133" name="p2o.helper.constant.17" type="Const" version="opset1">
			<data element_type="i64" shape="3" offset="7702236" size="24"/>
			<rt_info>
				<attribute name="fused_names" version="0" value="p2o.helper.constant.17"/>
			</rt_info>
			<output>
				<port id="0" precision="I64" names="p2o.helper.constant.17">
					<dim>3</dim>
				</port>
			</output>
		</layer>
		<layer id="134" name="reshape2_1.tmp_0" type="Reshape" version="opset1">
			<data special_zero="true"/>
			<rt_info>
				<attribute name="fused_names" version="0" value="reshape2_1.tmp_0"/>
			</rt_info>
			<input>
				<port id="0" precision="FP32">
					<dim>1</dim>
					<dim>40</dim>
				</port>
				<port id="1" precision="I64">
					<dim>3</dim>
				</port>
			</input>
			<output>
				<port id="2" precision="FP32" names="reshape2_1.tmp_0">
					<dim>1</dim>
					<dim>20</dim>
					<dim>2</dim>
				</port>
			</output>
		</layer>
		<layer id="135" name="generated_tensor_12" type="Const" version="opset1">
			<data element_type="f32" shape="3, 2" offset="2696" size="24"/>
			<rt_info>
				<attribute name="fused_names" version="0" value="generated_tensor_12"/>
			</rt_info>
			<output>
				<port id="0" precision="FP32" names="generated_tensor_12">
					<dim>3</dim>
					<dim>2</dim>
				</port>
			</output>
		</layer>
		<layer id="136" name="p2o.helper.constant.22" type="Const" version="opset1">
			<data element_type="i64" shape="1" offset="48" size="8"/>
			<rt_info>
				<attribute name="fused_names" version="0" value="p2o.helper.constant.22"/>
			</rt_info>
			<output>
				<port id="0" precision="I64" names="p2o.helper.constant.22">
					<dim>1</dim>
				</port>
			</output>
		</layer>
		<layer id="137" name="p2o.Shape.7" type="ShapeOf" version="opset3">
			<data output_type="i64"/>
			<rt_info>
				<attribute name="fused_names" version="0" value="p2o.Shape.7"/>
			</rt_info>
			<input>
				<port id="0" precision="FP32">
					<dim>3</dim>
					<dim>2</dim>
				</port>
			</input>
			<output>
				<port id="1" precision="I64" names="p2o.Shape.7">
					<dim>2</dim>
				</port>
			</output>
		</layer>
		<layer id="138" name="p2o.helper.concat.3" type="Concat" version="opset1">
			<data axis="0"/>
			<rt_info>
				<attribute name="fused_names" version="0" value="p2o.helper.concat.3, p2o.helper.constant.22"/>
			</rt_info>
			<input>
				<port id="0" precision="I64">
					<dim>1</dim>
				</port>
				<port id="1" precision="I64">
					<dim>2</dim>
				</port>
			</input>
			<output>
				<port id="2" precision="I64" names="p2o.helper.concat.3">
					<dim>3</dim>
				</port>
			</output>
		</layer>
		<layer id="139" name="p2o.Shape.5" type="ShapeOf" version="opset3">
			<data output_type="i64"/>
			<rt_info>
				<attribute name="fused_names" version="0" value="p2o.Shape.5"/>
			</rt_info>
			<input>
				<port id="0" precision="FP32">
					<dim>1</dim>
					<dim>20</dim>
					<dim>2</dim>
				</port>
			</input>
			<output>
				<port id="1" precision="I64" names="p2o.Shape.5">
					<dim>3</dim>
				</port>
			</output>
		</layer>
		<layer id="140" name="shape_4.tmp_0" type="Convert" version="opset1">
			<data destination_type="i32"/>
			<rt_info>
				<attribute name="fused_names" version="0" value="shape_4.tmp_0"/>
			</rt_info>
			<input>
				<port id="0" precision="I64">
					<dim>3</dim>
				</port>
			</input>
			<output>
				<port id="1" precision="I32" names="shape_4.tmp_0">
					<dim>3</dim>
				</port>
			</output>
		</layer>
		<layer id="141" name="p2o.helper.constant.18" type="Const" version="opset1">
			<data element_type="i64" shape="1" offset="56" size="8"/>
			<rt_info>
				<attribute name="fused_names" version="0" value="p2o.helper.constant.18, p2o.helper.constant.19, p2o.helper.constant.20, p2o.helper.constant.21, shape_4.tmp_0_slice_0"/>
			</rt_info>
			<output>
				<port id="0" precision="I64" names="p2o.helper.constant.18">
					<dim>1</dim>
				</port>
			</output>
		</layer>
		<layer id="142" name="p2o.helper.constant.19" type="Const" version="opset1">
			<data element_type="i64" shape="1" offset="48" size="8"/>
			<rt_info>
				<attribute name="fused_names" version="0" value="p2o.helper.constant.18, p2o.helper.constant.19, p2o.helper.constant.20, p2o.helper.constant.21, shape_4.tmp_0_slice_0"/>
			</rt_info>
			<output>
				<port id="0" precision="I64" names="p2o.helper.constant.19">
					<dim>1</dim>
				</port>
			</output>
		</layer>
		<layer id="143" name="p2o.helper.constant.20" type="Const" version="opset1">
			<data element_type="i64" shape="1" offset="48" size="8"/>
			<rt_info>
				<attribute name="fused_names" version="0" value="p2o.helper.constant.18, p2o.helper.constant.19, p2o.helper.constant.20, p2o.helper.constant.21, shape_4.tmp_0_slice_0"/>
			</rt_info>
			<output>
				<port id="0" precision="I64" names="p2o.helper.constant.20">
					<dim>1</dim>
				</port>
			</output>
		</layer>
		<layer id="144" name="shape_4.tmp_0_slice_0" type="StridedSlice" version="opset1">
			<data begin_mask="0" end_mask="0" new_axis_mask="" shrink_axis_mask="" ellipsis_mask=""/>
			<rt_info>
				<attribute name="fused_names" version="0" value="p2o.helper.constant.18, p2o.helper.constant.19, p2o.helper.constant.20, p2o.helper.constant.21, shape_4.tmp_0_slice_0"/>
			</rt_info>
			<input>
				<port id="0" precision="I32">
					<dim>3</dim>
				</port>
				<port id="1" precision="I64">
					<dim>1</dim>
				</port>
				<port id="2" precision="I64">
					<dim>1</dim>
				</port>
				<port id="3" precision="I64">
					<dim>1</dim>
				</port>
			</input>
			<output>
				<port id="4" precision="I32" names="shape_4.tmp_0_slice_0">
					<dim>1</dim>
				</port>
			</output>
		</layer>
		<layer id="145" name="p2o.Cast.7" type="Convert" version="opset1">
			<data destination_type="i64"/>
			<rt_info>
				<attribute name="fused_names" version="0" value="p2o.Cast.7"/>
			</rt_info>
			<input>
				<port id="0" precision="I32">
					<dim>1</dim>
				</port>
			</input>
			<output>
				<port id="1" precision="I64" names="p2o.Cast.7">
					<dim>1</dim>
				</port>
			</output>
		</layer>
		<layer id="146" name="p2o.Cast.9" type="Const" version="opset1">
			<data element_type="i64" shape="1" offset="7702260" size="8"/>
			<output>
				<port id="0" precision="I64" names="p2o.Cast.9">
					<dim>1</dim>
				</port>
			</output>
		</layer>
		<layer id="147" name="p2o.Cast.11" type="Const" version="opset1">
			<data element_type="i64" shape="1" offset="299284" size="8"/>
			<output>
				<port id="0" precision="I64" names="p2o.Cast.11">
					<dim>1</dim>
				</port>
			</output>
		</layer>
		<layer id="148" name="p2o.helper.concat.2" type="Concat" version="opset1">
			<data axis="0"/>
			<rt_info>
				<attribute name="fused_names" version="0" value="p2o.Cast.11, p2o.Cast.9, p2o.helper.concat.2"/>
			</rt_info>
			<input>
				<port id="0" precision="I64">
					<dim>1</dim>
				</port>
				<port id="1" precision="I64">
					<dim>1</dim>
				</port>
				<port id="2" precision="I64">
					<dim>1</dim>
				</port>
			</input>
			<output>
				<port id="3" precision="I64" names="p2o.helper.concat.2">
					<dim>3</dim>
				</port>
			</output>
		</layer>
		<layer id="149" name="p2o.Max.1" type="Maximum" version="opset1">
			<data auto_broadcast="numpy"/>
			<rt_info>
				<attribute name="fused_names" version="0" value="p2o.Max.1"/>
			</rt_info>
			<input>
				<port id="0" precision="I64">
					<dim>3</dim>
				</port>
				<port id="1" precision="I64">
					<dim>3</dim>
				</port>
			</input>
			<output>
				<port id="2" precision="I64" names="p2o.Max.1">
					<dim>3</dim>
				</port>
			</output>
		</layer>
		<layer id="150" name="expand_0.tmp_0" type="Broadcast" version="opset3">
			<data mode="bidirectional"/>
			<rt_info>
				<attribute name="fused_names" version="0" value="expand_0.tmp_0"/>
			</rt_info>
			<input>
				<port id="0" precision="FP32">
					<dim>3</dim>
					<dim>2</dim>
				</port>
				<port id="1" precision="I64">
					<dim>3</dim>
				</port>
			</input>
			<output>
				<port id="2" precision="FP32" names="expand_0.tmp_0">
					<dim>1</dim>
					<dim>3</dim>
					<dim>2</dim>
				</port>
			</output>
		</layer>
		<layer id="151" name="p2o.Concat.5" type="Concat" version="opset1">
			<data axis="1"/>
			<rt_info>
				<attribute name="fused_names" version="0" value="p2o.Concat.5"/>
			</rt_info>
			<input>
				<port id="0" precision="FP32">
					<dim>1</dim>
					<dim>20</dim>
					<dim>2</dim>
				</port>
				<port id="1" precision="FP32">
					<dim>1</dim>
					<dim>3</dim>
					<dim>2</dim>
				</port>
			</input>
			<output>
				<port id="2" precision="FP32" names="p2o.Concat.5">
					<dim>1</dim>
					<dim>23</dim>
					<dim>2</dim>
				</port>
			</output>
		</layer>
		<layer id="152" name="p2o.MatMul.5" type="MatMul" version="opset1">
			<data transpose_a="false" transpose_b="false"/>
			<rt_info>
				<attribute name="fused_names" version="0" value="p2o.MatMul.5"/>
			</rt_info>
			<input>
				<port id="0" precision="FP32">
					<dim>23</dim>
					<dim>23</dim>
				</port>
				<port id="1" precision="FP32">
					<dim>1</dim>
					<dim>23</dim>
					<dim>2</dim>
				</port>
			</input>
			<output>
				<port id="2" precision="FP32" names="p2o.MatMul.5">
					<dim>1</dim>
					<dim>23</dim>
					<dim>2</dim>
				</port>
			</output>
		</layer>
		<layer id="153" name="p2o.MatMul.7" type="MatMul" version="opset1">
			<data transpose_a="false" transpose_b="false"/>
			<rt_info>
				<attribute name="fused_names" version="0" value="p2o.MatMul.7"/>
			</rt_info>
			<input>
				<port id="0" precision="FP32">
					<dim>3200</dim>
					<dim>23</dim>
				</port>
				<port id="1" precision="FP32">
					<dim>1</dim>
					<dim>23</dim>
					<dim>2</dim>
				</port>
			</input>
			<output>
				<port id="2" precision="FP32" names="p2o.MatMul.7">
					<dim>1</dim>
					<dim>3200</dim>
					<dim>2</dim>
				</port>
			</output>
		</layer>
		<layer id="154" name="p2o.helper.constant.23" type="Const" version="opset1">
			<data element_type="i64" shape="4" offset="7702268" size="32"/>
			<rt_info>
				<attribute name="fused_names" version="0" value="p2o.helper.constant.23"/>
			</rt_info>
			<output>
				<port id="0" precision="I64" names="p2o.helper.constant.23">
					<dim>4</dim>
				</port>
			</output>
		</layer>
		<layer id="155" name="reshape2_2.tmp_0" type="Reshape" version="opset1">
			<data special_zero="true"/>
			<rt_info>
				<attribute name="fused_names" version="0" value="reshape2_2.tmp_0"/>
			</rt_info>
			<input>
				<port id="0" precision="FP32">
					<dim>1</dim>
					<dim>3200</dim>
					<dim>2</dim>
				</port>
				<port id="1" precision="I64">
					<dim>4</dim>
				</port>
			</input>
			<output>
				<port id="2" precision="FP32" names="reshape2_2.tmp_0">
					<dim>1</dim>
					<dim>32</dim>
					<dim>100</dim>
					<dim>2</dim>
				</port>
			</output>
		</layer>
		<layer id="156" name="p2o.Clip.1" type="Clamp" version="opset1">
			<data min="0" max="1"/>
			<rt_info>
				<attribute name="fused_names" version="0" value="Maximum_769, p2o.Clip.1"/>
			</rt_info>
			<input>
				<port id="0" precision="FP32">
					<dim>1</dim>
					<dim>32</dim>
					<dim>100</dim>
					<dim>2</dim>
				</port>
			</input>
			<output>
				<port id="1" precision="FP32" names="p2o.Clip.1">
					<dim>1</dim>
					<dim>32</dim>
					<dim>100</dim>
					<dim>2</dim>
				</port>
			</output>
		</layer>
		<layer id="157" name="Constant_7583" type="Const" version="opset1">
			<data element_type="f32" shape="1, 1, 1, 1" offset="7702300" size="4"/>
			<output>
				<port id="0" precision="FP32">
					<dim>1</dim>
					<dim>1</dim>
					<dim>1</dim>
					<dim>1</dim>
				</port>
			</output>
		</layer>
		<layer id="158" name="p2o.Mul.3" type="Multiply" version="opset1">
			<data auto_broadcast="numpy"/>
			<rt_info>
				<attribute name="fused_names" version="0" value="p2o.Mul.3"/>
			</rt_info>
			<input>
				<port id="0" precision="FP32">
					<dim>1</dim>
					<dim>32</dim>
					<dim>100</dim>
					<dim>2</dim>
				</port>
				<port id="1" precision="FP32">
					<dim>1</dim>
					<dim>1</dim>
					<dim>1</dim>
					<dim>1</dim>
				</port>
			</input>
			<output>
				<port id="2" precision="FP32" names="p2o.Mul.3">
					<dim>1</dim>
					<dim>32</dim>
					<dim>100</dim>
					<dim>2</dim>
				</port>
			</output>
		</layer>
		<layer id="159" name="Constant_7584" type="Const" version="opset1">
			<data element_type="f32" shape="1, 1, 1, 1" offset="7702304" size="4"/>
			<output>
				<port id="0" precision="FP32">
					<dim>1</dim>
					<dim>1</dim>
					<dim>1</dim>
					<dim>1</dim>
				</port>
			</output>
		</layer>
		<layer id="160" name="p2o.Add.9" type="Add" version="opset1">
			<data auto_broadcast="numpy"/>
			<rt_info>
				<attribute name="fused_names" version="0" value="p2o.Add.9"/>
			</rt_info>
			<input>
				<port id="0" precision="FP32">
					<dim>1</dim>
					<dim>32</dim>
					<dim>100</dim>
					<dim>2</dim>
				</port>
				<port id="1" precision="FP32">
					<dim>1</dim>
					<dim>1</dim>
					<dim>1</dim>
					<dim>1</dim>
				</port>
			</input>
			<output>
				<port id="2" precision="FP32" names="p2o.Add.9">
					<dim>1</dim>
					<dim>32</dim>
					<dim>100</dim>
					<dim>2</dim>
				</port>
			</output>
		</layer>
		<layer id="161" name="Constant_5018" type="Const" version="opset1">
			<data element_type="i64" shape="4" offset="7702308" size="32"/>
			<rt_info>
				<attribute name="fused_names" version="0" value="p2o.Slice.4"/>
			</rt_info>
			<output>
				<port id="0" precision="I64">
					<dim>4</dim>
				</port>
			</output>
		</layer>
		<layer id="162" name="Constant_5021" type="Const" version="opset1">
			<data element_type="i64" shape="4" offset="7702340" size="32"/>
			<rt_info>
				<attribute name="fused_names" version="0" value="p2o.Slice.4"/>
			</rt_info>
			<output>
				<port id="0" precision="I64">
					<dim>4</dim>
				</port>
			</output>
		</layer>
		<layer id="163" name="Constant_5024" type="Const" version="opset1">
			<data element_type="i64" shape="4" offset="7702372" size="32"/>
			<rt_info>
				<attribute name="fused_names" version="0" value="p2o.Slice.4"/>
			</rt_info>
			<output>
				<port id="0" precision="I64">
					<dim>4</dim>
				</port>
			</output>
		</layer>
		<layer id="164" name="p2o.Slice.4" type="StridedSlice" version="opset1">
			<data begin_mask="1, 1, 1, 0" end_mask="1, 1, 1, 0" new_axis_mask="" shrink_axis_mask="" ellipsis_mask=""/>
			<rt_info>
				<attribute name="fused_names" version="0" value="p2o.Slice.4"/>
			</rt_info>
			<input>
				<port id="0" precision="FP32">
					<dim>1</dim>
					<dim>32</dim>
					<dim>100</dim>
					<dim>2</dim>
				</port>
				<port id="1" precision="I64">
					<dim>4</dim>
				</port>
				<port id="2" precision="I64">
					<dim>4</dim>
				</port>
				<port id="3" precision="I64">
					<dim>4</dim>
				</port>
			</input>
			<output>
				<port id="4" precision="FP32" names="p2o.Slice.4">
					<dim>1</dim>
					<dim>32</dim>
					<dim>100</dim>
					<dim>1</dim>
				</port>
			</output>
		</layer>
		<layer id="165" name="p2o.helper.constant.32" type="Const" version="opset1">
			<data element_type="i64" shape="1" offset="7702260" size="8"/>
			<rt_info>
				<attribute name="fused_names" version="0" value="p2o.helper.constant.32"/>
			</rt_info>
			<output>
				<port id="0" precision="I64" names="p2o.helper.constant.32">
					<dim>1</dim>
				</port>
			</output>
		</layer>
		<layer id="166" name="tmp_2_slice_0" type="Squeeze" version="opset1">
			<rt_info>
				<attribute name="fused_names" version="0" value="tmp_2_slice_0"/>
			</rt_info>
			<input>
				<port id="0" precision="FP32">
					<dim>1</dim>
					<dim>32</dim>
					<dim>100</dim>
					<dim>1</dim>
				</port>
				<port id="1" precision="I64">
					<dim>1</dim>
				</port>
			</input>
			<output>
				<port id="2" precision="FP32" names="tmp_2_slice_0">
					<dim>1</dim>
					<dim>32</dim>
					<dim>100</dim>
				</port>
			</output>
		</layer>
		<layer id="167" name="Constant_7585" type="Const" version="opset1">
			<data element_type="f32" shape="1, 1, 1" offset="7702404" size="4"/>
			<output>
				<port id="0" precision="FP32">
					<dim>1</dim>
					<dim>1</dim>
					<dim>1</dim>
				</port>
			</output>
		</layer>
		<layer id="168" name="Multiply_7266" type="Multiply" version="opset1">
			<data auto_broadcast="numpy"/>
			<rt_info>
				<attribute name="fused_names" version="0" value="p2o.Add.11, p2o.Add.13, p2o.Mul.5, p2o.Mul.7"/>
			</rt_info>
			<input>
				<port id="0" precision="FP32">
					<dim>1</dim>
					<dim>32</dim>
					<dim>100</dim>
				</port>
				<port id="1" precision="FP32">
					<dim>1</dim>
					<dim>1</dim>
					<dim>1</dim>
				</port>
			</input>
			<output>
				<port id="2" precision="FP32">
					<dim>1</dim>
					<dim>32</dim>
					<dim>100</dim>
				</port>
			</output>
		</layer>
		<layer id="169" name="Constant_7586" type="Const" version="opset1">
			<data element_type="f32" shape="1, 1, 1" offset="7702408" size="4"/>
			<output>
				<port id="0" precision="FP32">
					<dim>1</dim>
					<dim>1</dim>
					<dim>1</dim>
				</port>
			</output>
		</layer>
		<layer id="170" name="p2o.Mul.7" type="Add" version="opset1">
			<data auto_broadcast="numpy"/>
			<rt_info>
				<attribute name="fused_names" version="0" value="p2o.Add.11, p2o.Add.13, p2o.Mul.5, p2o.Mul.7"/>
			</rt_info>
			<input>
				<port id="0" precision="FP32">
					<dim>1</dim>
					<dim>32</dim>
					<dim>100</dim>
				</port>
				<port id="1" precision="FP32">
					<dim>1</dim>
					<dim>1</dim>
					<dim>1</dim>
				</port>
			</input>
			<output>
				<port id="2" precision="FP32" names="p2o.Mul.7">
					<dim>1</dim>
					<dim>32</dim>
					<dim>100</dim>
				</port>
			</output>
		</layer>
		<layer id="171" name="p2o.helper.constant.46" type="Const" version="opset1">
			<data element_type="i64" shape="2" offset="7702412" size="16"/>
			<rt_info>
				<attribute name="fused_names" version="0" value="p2o.helper.constant.46"/>
			</rt_info>
			<output>
				<port id="0" precision="I64" names="p2o.helper.constant.46">
					<dim>2</dim>
				</port>
			</output>
		</layer>
		<layer id="172" name="reshape2_3.tmp_0" type="Reshape" version="opset1">
			<data special_zero="true"/>
			<rt_info>
				<attribute name="fused_names" version="0" value="reshape2_3.tmp_0"/>
			</rt_info>
			<input>
				<port id="0" precision="FP32">
					<dim>1</dim>
					<dim>32</dim>
					<dim>100</dim>
				</port>
				<port id="1" precision="I64">
					<dim>2</dim>
				</port>
			</input>
			<output>
				<port id="2" precision="FP32" names="reshape2_3.tmp_0">
					<dim>1</dim>
					<dim>3200</dim>
				</port>
			</output>
		</layer>
		<layer id="173" name="floor_0.tmp_0" type="Floor" version="opset1">
			<rt_info>
				<attribute name="fused_names" version="0" value="floor_0.tmp_0"/>
			</rt_info>
			<input>
				<port id="0" precision="FP32">
					<dim>1</dim>
					<dim>3200</dim>
				</port>
			</input>
			<output>
				<port id="1" precision="FP32" names="floor_0.tmp_0">
					<dim>1</dim>
					<dim>3200</dim>
				</port>
			</output>
		</layer>
		<layer id="174" name="Constant_7587" type="Const" version="opset1">
			<data element_type="f32" shape="1, 1" offset="7702428" size="4"/>
			<output>
				<port id="0" precision="FP32">
					<dim>1</dim>
					<dim>1</dim>
				</port>
			</output>
		</layer>
		<layer id="175" name="p2o.Add.19" type="Add" version="opset1">
			<data auto_broadcast="numpy"/>
			<rt_info>
				<attribute name="fused_names" version="0" value="p2o.Add.19"/>
			</rt_info>
			<input>
				<port id="0" precision="FP32">
					<dim>1</dim>
					<dim>3200</dim>
				</port>
				<port id="1" precision="FP32">
					<dim>1</dim>
					<dim>1</dim>
				</port>
			</input>
			<output>
				<port id="2" precision="FP32" names="p2o.Add.19">
					<dim>1</dim>
					<dim>3200</dim>
				</port>
			</output>
		</layer>
		<layer id="176" name="tmp_13" type="Subtract" version="opset1">
			<data auto_broadcast="numpy"/>
			<rt_info>
				<attribute name="fused_names" version="0" value="tmp_13"/>
			</rt_info>
			<input>
				<port id="0" precision="FP32">
					<dim>1</dim>
					<dim>3200</dim>
				</port>
				<port id="1" precision="FP32">
					<dim>1</dim>
					<dim>3200</dim>
				</port>
			</input>
			<output>
				<port id="2" precision="FP32" names="tmp_13">
					<dim>1</dim>
					<dim>3200</dim>
				</port>
			</output>
		</layer>
		<layer id="177" name="Constant_5030" type="Const" version="opset1">
			<data element_type="i64" shape="4" offset="7702340" size="32"/>
			<rt_info>
				<attribute name="fused_names" version="0" value="p2o.Slice.6"/>
			</rt_info>
			<output>
				<port id="0" precision="I64">
					<dim>4</dim>
				</port>
			</output>
		</layer>
		<layer id="178" name="Constant_5033" type="Const" version="opset1">
			<data element_type="i64" shape="4" offset="7702432" size="32"/>
			<rt_info>
				<attribute name="fused_names" version="0" value="p2o.Slice.6"/>
			</rt_info>
			<output>
				<port id="0" precision="I64">
					<dim>4</dim>
				</port>
			</output>
		</layer>
		<layer id="179" name="Constant_5036" type="Const" version="opset1">
			<data element_type="i64" shape="4" offset="7702372" size="32"/>
			<rt_info>
				<attribute name="fused_names" version="0" value="p2o.Slice.6"/>
			</rt_info>
			<output>
				<port id="0" precision="I64">
					<dim>4</dim>
				</port>
			</output>
		</layer>
		<layer id="180" name="p2o.Slice.6" type="StridedSlice" version="opset1">
			<data begin_mask="1, 1, 1, 0" end_mask="1, 1, 1, 0" new_axis_mask="" shrink_axis_mask="" ellipsis_mask=""/>
			<rt_info>
				<attribute name="fused_names" version="0" value="p2o.Slice.6"/>
			</rt_info>
			<input>
				<port id="0" precision="FP32">
					<dim>1</dim>
					<dim>32</dim>
					<dim>100</dim>
					<dim>2</dim>
				</port>
				<port id="1" precision="I64">
					<dim>4</dim>
				</port>
				<port id="2" precision="I64">
					<dim>4</dim>
				</port>
				<port id="3" precision="I64">
					<dim>4</dim>
				</port>
			</input>
			<output>
				<port id="4" precision="FP32" names="p2o.Slice.6">
					<dim>1</dim>
					<dim>32</dim>
					<dim>100</dim>
					<dim>1</dim>
				</port>
			</output>
		</layer>
		<layer id="181" name="p2o.helper.constant.37" type="Const" version="opset1">
			<data element_type="i64" shape="1" offset="7702260" size="8"/>
			<rt_info>
				<attribute name="fused_names" version="0" value="p2o.helper.constant.37"/>
			</rt_info>
			<output>
				<port id="0" precision="I64" names="p2o.helper.constant.37">
					<dim>1</dim>
				</port>
			</output>
		</layer>
		<layer id="182" name="tmp_2_slice_1" type="Squeeze" version="opset1">
			<rt_info>
				<attribute name="fused_names" version="0" value="tmp_2_slice_1"/>
			</rt_info>
			<input>
				<port id="0" precision="FP32">
					<dim>1</dim>
					<dim>32</dim>
					<dim>100</dim>
					<dim>1</dim>
				</port>
				<port id="1" precision="I64">
					<dim>1</dim>
				</port>
			</input>
			<output>
				<port id="2" precision="FP32" names="tmp_2_slice_1">
					<dim>1</dim>
					<dim>32</dim>
					<dim>100</dim>
				</port>
			</output>
		</layer>
		<layer id="183" name="Constant_7588" type="Const" version="opset1">
			<data element_type="f32" shape="1, 1, 1" offset="7702464" size="4"/>
			<output>
				<port id="0" precision="FP32">
					<dim>1</dim>
					<dim>1</dim>
					<dim>1</dim>
				</port>
			</output>
		</layer>
		<layer id="184" name="Multiply_7280" type="Multiply" version="opset1">
			<data auto_broadcast="numpy"/>
			<rt_info>
				<attribute name="fused_names" version="0" value="p2o.Add.15, p2o.Add.17, p2o.Mul.11, p2o.Mul.9"/>
			</rt_info>
			<input>
				<port id="0" precision="FP32">
					<dim>1</dim>
					<dim>32</dim>
					<dim>100</dim>
				</port>
				<port id="1" precision="FP32">
					<dim>1</dim>
					<dim>1</dim>
					<dim>1</dim>
				</port>
			</input>
			<output>
				<port id="2" precision="FP32">
					<dim>1</dim>
					<dim>32</dim>
					<dim>100</dim>
				</port>
			</output>
		</layer>
		<layer id="185" name="Constant_7589" type="Const" version="opset1">
			<data element_type="f32" shape="1, 1, 1" offset="7702468" size="4"/>
			<output>
				<port id="0" precision="FP32">
					<dim>1</dim>
					<dim>1</dim>
					<dim>1</dim>
				</port>
			</output>
		</layer>
		<layer id="186" name="p2o.Mul.11" type="Add" version="opset1">
			<data auto_broadcast="numpy"/>
			<rt_info>
				<attribute name="fused_names" version="0" value="p2o.Add.15, p2o.Add.17, p2o.Mul.11, p2o.Mul.9"/>
			</rt_info>
			<input>
				<port id="0" precision="FP32">
					<dim>1</dim>
					<dim>32</dim>
					<dim>100</dim>
				</port>
				<port id="1" precision="FP32">
					<dim>1</dim>
					<dim>1</dim>
					<dim>1</dim>
				</port>
			</input>
			<output>
				<port id="2" precision="FP32" names="p2o.Mul.11">
					<dim>1</dim>
					<dim>32</dim>
					<dim>100</dim>
				</port>
			</output>
		</layer>
		<layer id="187" name="p2o.helper.constant.47" type="Const" version="opset1">
			<data element_type="i64" shape="2" offset="7702412" size="16"/>
			<rt_info>
				<attribute name="fused_names" version="0" value="p2o.helper.constant.47"/>
			</rt_info>
			<output>
				<port id="0" precision="I64" names="p2o.helper.constant.47">
					<dim>2</dim>
				</port>
			</output>
		</layer>
		<layer id="188" name="reshape2_4.tmp_0" type="Reshape" version="opset1">
			<data special_zero="true"/>
			<rt_info>
				<attribute name="fused_names" version="0" value="reshape2_4.tmp_0"/>
			</rt_info>
			<input>
				<port id="0" precision="FP32">
					<dim>1</dim>
					<dim>32</dim>
					<dim>100</dim>
				</port>
				<port id="1" precision="I64">
					<dim>2</dim>
				</port>
			</input>
			<output>
				<port id="2" precision="FP32" names="reshape2_4.tmp_0">
					<dim>1</dim>
					<dim>3200</dim>
				</port>
			</output>
		</layer>
		<layer id="189" name="floor_1.tmp_0" type="Floor" version="opset1">
			<rt_info>
				<attribute name="fused_names" version="0" value="floor_1.tmp_0"/>
			</rt_info>
			<input>
				<port id="0" precision="FP32">
					<dim>1</dim>
					<dim>3200</dim>
				</port>
			</input>
			<output>
				<port id="1" precision="FP32" names="floor_1.tmp_0">
					<dim>1</dim>
					<dim>3200</dim>
				</port>
			</output>
		</layer>
		<layer id="190" name="Constant_7590" type="Const" version="opset1">
			<data element_type="f32" shape="1, 1" offset="7702428" size="4"/>
			<output>
				<port id="0" precision="FP32">
					<dim>1</dim>
					<dim>1</dim>
				</port>
			</output>
		</layer>
		<layer id="191" name="p2o.Add.21" type="Add" version="opset1">
			<data auto_broadcast="numpy"/>
			<rt_info>
				<attribute name="fused_names" version="0" value="p2o.Add.21"/>
			</rt_info>
			<input>
				<port id="0" precision="FP32">
					<dim>1</dim>
					<dim>3200</dim>
				</port>
				<port id="1" precision="FP32">
					<dim>1</dim>
					<dim>1</dim>
				</port>
			</input>
			<output>
				<port id="2" precision="FP32" names="p2o.Add.21">
					<dim>1</dim>
					<dim>3200</dim>
				</port>
			</output>
		</layer>
		<layer id="192" name="tmp_14" type="Subtract" version="opset1">
			<data auto_broadcast="numpy"/>
			<rt_info>
				<attribute name="fused_names" version="0" value="tmp_14"/>
			</rt_info>
			<input>
				<port id="0" precision="FP32">
					<dim>1</dim>
					<dim>3200</dim>
				</port>
				<port id="1" precision="FP32">
					<dim>1</dim>
					<dim>3200</dim>
				</port>
			</input>
			<output>
				<port id="2" precision="FP32" names="tmp_14">
					<dim>1</dim>
					<dim>3200</dim>
				</port>
			</output>
		</layer>
		<layer id="193" name="tmp_15" type="Multiply" version="opset1">
			<data auto_broadcast="numpy"/>
			<rt_info>
				<attribute name="fused_names" version="0" value="tmp_15"/>
			</rt_info>
			<input>
				<port id="0" precision="FP32">
					<dim>1</dim>
					<dim>3200</dim>
				</port>
				<port id="1" precision="FP32">
					<dim>1</dim>
					<dim>3200</dim>
				</port>
			</input>
			<output>
				<port id="2" precision="FP32" names="tmp_15">
					<dim>1</dim>
					<dim>3200</dim>
				</port>
			</output>
		</layer>
		<layer id="194" name="p2o.helper.constant.50" type="Const" version="opset1">
			<data element_type="i64" shape="1" offset="48" size="8"/>
			<rt_info>
				<attribute name="fused_names" version="0" value="p2o.helper.constant.50"/>
			</rt_info>
			<output>
				<port id="0" precision="I64" names="p2o.helper.constant.50">
					<dim>1</dim>
				</port>
			</output>
		</layer>
		<layer id="195" name="unsqueeze2_0.tmp_0" type="Unsqueeze" version="opset1">
			<rt_info>
				<attribute name="fused_names" version="0" value="unsqueeze2_0.tmp_0"/>
			</rt_info>
			<input>
				<port id="0" precision="FP32">
					<dim>1</dim>
					<dim>3200</dim>
				</port>
				<port id="1" precision="I64">
					<dim>1</dim>
				</port>
			</input>
			<output>
				<port id="2" precision="FP32" names="unsqueeze2_0.tmp_0">
					<dim>1</dim>
					<dim>1</dim>
					<dim>3200</dim>
				</port>
			</output>
		</layer>
		<layer id="196" name="tmp_53" type="Multiply" version="opset1">
			<data auto_broadcast="numpy"/>
			<rt_info>
				<attribute name="fused_names" version="0" value="tmp_53"/>
			</rt_info>
			<input>
				<port id="0" precision="FP32">
					<dim>1</dim>
					<dim>3</dim>
					<dim>3200</dim>
				</port>
				<port id="1" precision="FP32">
					<dim>1</dim>
					<dim>1</dim>
					<dim>3200</dim>
				</port>
			</input>
			<output>
				<port id="2" precision="FP32" names="tmp_53">
					<dim>1</dim>
					<dim>3</dim>
					<dim>3200</dim>
				</port>
			</output>
		</layer>
		<layer id="197" name="Constant_5042" type="Const" version="opset1">
			<data element_type="i64" shape="3" offset="2696" size="24"/>
			<rt_info>
				<attribute name="fused_names" version="0" value="reshape2_6.tmp_0_slice_1"/>
			</rt_info>
			<output>
				<port id="0" precision="I64">
					<dim>3</dim>
				</port>
			</output>
		</layer>
		<layer id="198" name="Constant_5045" type="Const" version="opset1">
			<data element_type="i64" shape="3" offset="2720" size="24"/>
			<rt_info>
				<attribute name="fused_names" version="0" value="reshape2_6.tmp_0_slice_1"/>
			</rt_info>
			<output>
				<port id="0" precision="I64">
					<dim>3</dim>
				</port>
			</output>
		</layer>
		<layer id="199" name="Constant_5048" type="Const" version="opset1">
			<data element_type="i64" shape="3" offset="2744" size="24"/>
			<rt_info>
				<attribute name="fused_names" version="0" value="reshape2_6.tmp_0_slice_1"/>
			</rt_info>
			<output>
				<port id="0" precision="I64">
					<dim>3</dim>
				</port>
			</output>
		</layer>
		<layer id="200" name="reshape2_6.tmp_0_slice_1" type="StridedSlice" version="opset1">
			<data begin_mask="1, 1, 0" end_mask="1, 1, 0" new_axis_mask="" shrink_axis_mask="" ellipsis_mask=""/>
			<rt_info>
				<attribute name="fused_names" version="0" value="reshape2_6.tmp_0_slice_1"/>
			</rt_info>
			<input>
				<port id="0" precision="FP32">
					<dim>1</dim>
					<dim>3</dim>
					<dim>17028</dim>
				</port>
				<port id="1" precision="I64">
					<dim>3</dim>
				</port>
				<port id="2" precision="I64">
					<dim>3</dim>
				</port>
				<port id="3" precision="I64">
					<dim>3</dim>
				</port>
			</input>
			<output>
				<port id="4" precision="FP32" names="reshape2_6.tmp_0_slice_1">
					<dim>1</dim>
					<dim>3</dim>
					<dim>3200</dim>
				</port>
			</output>
		</layer>
		<layer id="201" name="tmp_16" type="Subtract" version="opset1">
			<data auto_broadcast="numpy"/>
			<rt_info>
				<attribute name="fused_names" version="0" value="tmp_16"/>
			</rt_info>
			<input>
				<port id="0" precision="FP32">
					<dim>1</dim>
					<dim>3200</dim>
				</port>
				<port id="1" precision="FP32">
					<dim>1</dim>
					<dim>3200</dim>
				</port>
			</input>
			<output>
				<port id="2" precision="FP32" names="tmp_16">
					<dim>1</dim>
					<dim>3200</dim>
				</port>
			</output>
		</layer>
		<layer id="202" name="tmp_17" type="Subtract" version="opset1">
			<data auto_broadcast="numpy"/>
			<rt_info>
				<attribute name="fused_names" version="0" value="tmp_17"/>
			</rt_info>
			<input>
				<port id="0" precision="FP32">
					<dim>1</dim>
					<dim>3200</dim>
				</port>
				<port id="1" precision="FP32">
					<dim>1</dim>
					<dim>3200</dim>
				</port>
			</input>
			<output>
				<port id="2" precision="FP32" names="tmp_17">
					<dim>1</dim>
					<dim>3200</dim>
				</port>
			</output>
		</layer>
		<layer id="203" name="tmp_18" type="Multiply" version="opset1">
			<data auto_broadcast="numpy"/>
			<rt_info>
				<attribute name="fused_names" version="0" value="tmp_18"/>
			</rt_info>
			<input>
				<port id="0" precision="FP32">
					<dim>1</dim>
					<dim>3200</dim>
				</port>
				<port id="1" precision="FP32">
					<dim>1</dim>
					<dim>3200</dim>
				</port>
			</input>
			<output>
				<port id="2" precision="FP32" names="tmp_18">
					<dim>1</dim>
					<dim>3200</dim>
				</port>
			</output>
		</layer>
		<layer id="204" name="p2o.helper.constant.51" type="Const" version="opset1">
			<data element_type="i64" shape="1" offset="48" size="8"/>
			<rt_info>
				<attribute name="fused_names" version="0" value="p2o.helper.constant.51"/>
			</rt_info>
			<output>
				<port id="0" precision="I64" names="p2o.helper.constant.51">
					<dim>1</dim>
				</port>
			</output>
		</layer>
		<layer id="205" name="unsqueeze2_1.tmp_0" type="Unsqueeze" version="opset1">
			<rt_info>
				<attribute name="fused_names" version="0" value="unsqueeze2_1.tmp_0"/>
			</rt_info>
			<input>
				<port id="0" precision="FP32">
					<dim>1</dim>
					<dim>3200</dim>
				</port>
				<port id="1" precision="I64">
					<dim>1</dim>
				</port>
			</input>
			<output>
				<port id="2" precision="FP32" names="unsqueeze2_1.tmp_0">
					<dim>1</dim>
					<dim>1</dim>
					<dim>3200</dim>
				</port>
			</output>
		</layer>
		<layer id="206" name="tmp_54" type="Multiply" version="opset1">
			<data auto_broadcast="numpy"/>
			<rt_info>
				<attribute name="fused_names" version="0" value="tmp_54"/>
			</rt_info>
			<input>
				<port id="0" precision="FP32">
					<dim>1</dim>
					<dim>3</dim>
					<dim>3200</dim>
				</port>
				<port id="1" precision="FP32">
					<dim>1</dim>
					<dim>1</dim>
					<dim>3200</dim>
				</port>
			</input>
			<output>
				<port id="2" precision="FP32" names="tmp_54">
					<dim>1</dim>
					<dim>3</dim>
					<dim>3200</dim>
				</port>
			</output>
		</layer>
		<layer id="207" name="tmp_55" type="Add" version="opset1">
			<data auto_broadcast="numpy"/>
			<rt_info>
				<attribute name="fused_names" version="0" value="tmp_55"/>
			</rt_info>
			<input>
				<port id="0" precision="FP32">
					<dim>1</dim>
					<dim>3</dim>
					<dim>3200</dim>
				</port>
				<port id="1" precision="FP32">
					<dim>1</dim>
					<dim>3</dim>
					<dim>3200</dim>
				</port>
			</input>
			<output>
				<port id="2" precision="FP32" names="tmp_55">
					<dim>1</dim>
					<dim>3</dim>
					<dim>3200</dim>
				</port>
			</output>
		</layer>
		<layer id="208" name="Constant_5054" type="Const" version="opset1">
			<data element_type="i64" shape="3" offset="2696" size="24"/>
			<rt_info>
				<attribute name="fused_names" version="0" value="reshape2_6.tmp_0_slice_2"/>
			</rt_info>
			<output>
				<port id="0" precision="I64">
					<dim>3</dim>
				</port>
			</output>
		</layer>
		<layer id="209" name="Constant_5057" type="Const" version="opset1">
			<data element_type="i64" shape="3" offset="2720" size="24"/>
			<rt_info>
				<attribute name="fused_names" version="0" value="reshape2_6.tmp_0_slice_2"/>
			</rt_info>
			<output>
				<port id="0" precision="I64">
					<dim>3</dim>
				</port>
			</output>
		</layer>
		<layer id="210" name="Constant_5060" type="Const" version="opset1">
			<data element_type="i64" shape="3" offset="2744" size="24"/>
			<rt_info>
				<attribute name="fused_names" version="0" value="reshape2_6.tmp_0_slice_2"/>
			</rt_info>
			<output>
				<port id="0" precision="I64">
					<dim>3</dim>
				</port>
			</output>
		</layer>
		<layer id="211" name="reshape2_6.tmp_0_slice_2" type="StridedSlice" version="opset1">
			<data begin_mask="1, 1, 0" end_mask="1, 1, 0" new_axis_mask="" shrink_axis_mask="" ellipsis_mask=""/>
			<rt_info>
				<attribute name="fused_names" version="0" value="reshape2_6.tmp_0_slice_2"/>
			</rt_info>
			<input>
				<port id="0" precision="FP32">
					<dim>1</dim>
					<dim>3</dim>
					<dim>17028</dim>
				</port>
				<port id="1" precision="I64">
					<dim>3</dim>
				</port>
				<port id="2" precision="I64">
					<dim>3</dim>
				</port>
				<port id="3" precision="I64">
					<dim>3</dim>
				</port>
			</input>
			<output>
				<port id="4" precision="FP32" names="reshape2_6.tmp_0_slice_2">
					<dim>1</dim>
					<dim>3</dim>
					<dim>3200</dim>
				</port>
			</output>
		</layer>
		<layer id="212" name="tmp_19" type="Subtract" version="opset1">
			<data auto_broadcast="numpy"/>
			<rt_info>
				<attribute name="fused_names" version="0" value="tmp_19"/>
			</rt_info>
			<input>
				<port id="0" precision="FP32">
					<dim>1</dim>
					<dim>3200</dim>
				</port>
				<port id="1" precision="FP32">
					<dim>1</dim>
					<dim>3200</dim>
				</port>
			</input>
			<output>
				<port id="2" precision="FP32" names="tmp_19">
					<dim>1</dim>
					<dim>3200</dim>
				</port>
			</output>
		</layer>
		<layer id="213" name="tmp_20" type="Subtract" version="opset1">
			<data auto_broadcast="numpy"/>
			<rt_info>
				<attribute name="fused_names" version="0" value="tmp_20"/>
			</rt_info>
			<input>
				<port id="0" precision="FP32">
					<dim>1</dim>
					<dim>3200</dim>
				</port>
				<port id="1" precision="FP32">
					<dim>1</dim>
					<dim>3200</dim>
				</port>
			</input>
			<output>
				<port id="2" precision="FP32" names="tmp_20">
					<dim>1</dim>
					<dim>3200</dim>
				</port>
			</output>
		</layer>
		<layer id="214" name="tmp_21" type="Multiply" version="opset1">
			<data auto_broadcast="numpy"/>
			<rt_info>
				<attribute name="fused_names" version="0" value="tmp_21"/>
			</rt_info>
			<input>
				<port id="0" precision="FP32">
					<dim>1</dim>
					<dim>3200</dim>
				</port>
				<port id="1" precision="FP32">
					<dim>1</dim>
					<dim>3200</dim>
				</port>
			</input>
			<output>
				<port id="2" precision="FP32" names="tmp_21">
					<dim>1</dim>
					<dim>3200</dim>
				</port>
			</output>
		</layer>
		<layer id="215" name="p2o.helper.constant.52" type="Const" version="opset1">
			<data element_type="i64" shape="1" offset="48" size="8"/>
			<rt_info>
				<attribute name="fused_names" version="0" value="p2o.helper.constant.52"/>
			</rt_info>
			<output>
				<port id="0" precision="I64" names="p2o.helper.constant.52">
					<dim>1</dim>
				</port>
			</output>
		</layer>
		<layer id="216" name="unsqueeze2_2.tmp_0" type="Unsqueeze" version="opset1">
			<rt_info>
				<attribute name="fused_names" version="0" value="unsqueeze2_2.tmp_0"/>
			</rt_info>
			<input>
				<port id="0" precision="FP32">
					<dim>1</dim>
					<dim>3200</dim>
				</port>
				<port id="1" precision="I64">
					<dim>1</dim>
				</port>
			</input>
			<output>
				<port id="2" precision="FP32" names="unsqueeze2_2.tmp_0">
					<dim>1</dim>
					<dim>1</dim>
					<dim>3200</dim>
				</port>
			</output>
		</layer>
		<layer id="217" name="tmp_56" type="Multiply" version="opset1">
			<data auto_broadcast="numpy"/>
			<rt_info>
				<attribute name="fused_names" version="0" value="tmp_56"/>
			</rt_info>
			<input>
				<port id="0" precision="FP32">
					<dim>1</dim>
					<dim>3</dim>
					<dim>3200</dim>
				</port>
				<port id="1" precision="FP32">
					<dim>1</dim>
					<dim>1</dim>
					<dim>3200</dim>
				</port>
			</input>
			<output>
				<port id="2" precision="FP32" names="tmp_56">
					<dim>1</dim>
					<dim>3</dim>
					<dim>3200</dim>
				</port>
			</output>
		</layer>
		<layer id="218" name="tmp_57" type="Add" version="opset1">
			<data auto_broadcast="numpy"/>
			<rt_info>
				<attribute name="fused_names" version="0" value="tmp_57"/>
			</rt_info>
			<input>
				<port id="0" precision="FP32">
					<dim>1</dim>
					<dim>3</dim>
					<dim>3200</dim>
				</port>
				<port id="1" precision="FP32">
					<dim>1</dim>
					<dim>3</dim>
					<dim>3200</dim>
				</port>
			</input>
			<output>
				<port id="2" precision="FP32" names="tmp_57">
					<dim>1</dim>
					<dim>3</dim>
					<dim>3200</dim>
				</port>
			</output>
		</layer>
		<layer id="219" name="Constant_5066" type="Const" version="opset1">
			<data element_type="i64" shape="3" offset="2696" size="24"/>
			<rt_info>
				<attribute name="fused_names" version="0" value="reshape2_6.tmp_0_slice_3"/>
			</rt_info>
			<output>
				<port id="0" precision="I64">
					<dim>3</dim>
				</port>
			</output>
		</layer>
		<layer id="220" name="Constant_5069" type="Const" version="opset1">
			<data element_type="i64" shape="3" offset="2720" size="24"/>
			<rt_info>
				<attribute name="fused_names" version="0" value="reshape2_6.tmp_0_slice_3"/>
			</rt_info>
			<output>
				<port id="0" precision="I64">
					<dim>3</dim>
				</port>
			</output>
		</layer>
		<layer id="221" name="Constant_5072" type="Const" version="opset1">
			<data element_type="i64" shape="3" offset="2744" size="24"/>
			<rt_info>
				<attribute name="fused_names" version="0" value="reshape2_6.tmp_0_slice_3"/>
			</rt_info>
			<output>
				<port id="0" precision="I64">
					<dim>3</dim>
				</port>
			</output>
		</layer>
		<layer id="222" name="reshape2_6.tmp_0_slice_3" type="StridedSlice" version="opset1">
			<data begin_mask="1, 1, 0" end_mask="1, 1, 0" new_axis_mask="" shrink_axis_mask="" ellipsis_mask=""/>
			<rt_info>
				<attribute name="fused_names" version="0" value="reshape2_6.tmp_0_slice_3"/>
			</rt_info>
			<input>
				<port id="0" precision="FP32">
					<dim>1</dim>
					<dim>3</dim>
					<dim>17028</dim>
				</port>
				<port id="1" precision="I64">
					<dim>3</dim>
				</port>
				<port id="2" precision="I64">
					<dim>3</dim>
				</port>
				<port id="3" precision="I64">
					<dim>3</dim>
				</port>
			</input>
			<output>
				<port id="4" precision="FP32" names="reshape2_6.tmp_0_slice_3">
					<dim>1</dim>
					<dim>3</dim>
					<dim>3200</dim>
				</port>
			</output>
		</layer>
		<layer id="223" name="tmp_22" type="Subtract" version="opset1">
			<data auto_broadcast="numpy"/>
			<rt_info>
				<attribute name="fused_names" version="0" value="tmp_22"/>
			</rt_info>
			<input>
				<port id="0" precision="FP32">
					<dim>1</dim>
					<dim>3200</dim>
				</port>
				<port id="1" precision="FP32">
					<dim>1</dim>
					<dim>3200</dim>
				</port>
			</input>
			<output>
				<port id="2" precision="FP32" names="tmp_22">
					<dim>1</dim>
					<dim>3200</dim>
				</port>
			</output>
		</layer>
		<layer id="224" name="tmp_23" type="Subtract" version="opset1">
			<data auto_broadcast="numpy"/>
			<rt_info>
				<attribute name="fused_names" version="0" value="tmp_23"/>
			</rt_info>
			<input>
				<port id="0" precision="FP32">
					<dim>1</dim>
					<dim>3200</dim>
				</port>
				<port id="1" precision="FP32">
					<dim>1</dim>
					<dim>3200</dim>
				</port>
			</input>
			<output>
				<port id="2" precision="FP32" names="tmp_23">
					<dim>1</dim>
					<dim>3200</dim>
				</port>
			</output>
		</layer>
		<layer id="225" name="tmp_24" type="Multiply" version="opset1">
			<data auto_broadcast="numpy"/>
			<rt_info>
				<attribute name="fused_names" version="0" value="tmp_24"/>
			</rt_info>
			<input>
				<port id="0" precision="FP32">
					<dim>1</dim>
					<dim>3200</dim>
				</port>
				<port id="1" precision="FP32">
					<dim>1</dim>
					<dim>3200</dim>
				</port>
			</input>
			<output>
				<port id="2" precision="FP32" names="tmp_24">
					<dim>1</dim>
					<dim>3200</dim>
				</port>
			</output>
		</layer>
		<layer id="226" name="p2o.helper.constant.53" type="Const" version="opset1">
			<data element_type="i64" shape="1" offset="48" size="8"/>
			<rt_info>
				<attribute name="fused_names" version="0" value="p2o.helper.constant.53"/>
			</rt_info>
			<output>
				<port id="0" precision="I64" names="p2o.helper.constant.53">
					<dim>1</dim>
				</port>
			</output>
		</layer>
		<layer id="227" name="unsqueeze2_3.tmp_0" type="Unsqueeze" version="opset1">
			<rt_info>
				<attribute name="fused_names" version="0" value="unsqueeze2_3.tmp_0"/>
			</rt_info>
			<input>
				<port id="0" precision="FP32">
					<dim>1</dim>
					<dim>3200</dim>
				</port>
				<port id="1" precision="I64">
					<dim>1</dim>
				</port>
			</input>
			<output>
				<port id="2" precision="FP32" names="unsqueeze2_3.tmp_0">
					<dim>1</dim>
					<dim>1</dim>
					<dim>3200</dim>
				</port>
			</output>
		</layer>
		<layer id="228" name="tmp_58" type="Multiply" version="opset1">
			<data auto_broadcast="numpy"/>
			<rt_info>
				<attribute name="fused_names" version="0" value="tmp_58"/>
			</rt_info>
			<input>
				<port id="0" precision="FP32">
					<dim>1</dim>
					<dim>3</dim>
					<dim>3200</dim>
				</port>
				<port id="1" precision="FP32">
					<dim>1</dim>
					<dim>1</dim>
					<dim>3200</dim>
				</port>
			</input>
			<output>
				<port id="2" precision="FP32" names="tmp_58">
					<dim>1</dim>
					<dim>3</dim>
					<dim>3200</dim>
				</port>
			</output>
		</layer>
		<layer id="229" name="tmp_59" type="Add" version="opset1">
			<data auto_broadcast="numpy"/>
			<rt_info>
				<attribute name="fused_names" version="0" value="tmp_59"/>
			</rt_info>
			<input>
				<port id="0" precision="FP32">
					<dim>1</dim>
					<dim>3</dim>
					<dim>3200</dim>
				</port>
				<port id="1" precision="FP32">
					<dim>1</dim>
					<dim>3</dim>
					<dim>3200</dim>
				</port>
			</input>
			<output>
				<port id="2" precision="FP32" names="tmp_59">
					<dim>1</dim>
					<dim>3</dim>
					<dim>3200</dim>
				</port>
			</output>
		</layer>
		<layer id="230" name="p2o.helper.constant.105" type="Const" version="opset1">
			<data element_type="i64" shape="4" offset="7702472" size="32"/>
			<rt_info>
				<attribute name="fused_names" version="0" value="p2o.helper.constant.105"/>
			</rt_info>
			<output>
				<port id="0" precision="I64" names="p2o.helper.constant.105">
					<dim>4</dim>
				</port>
			</output>
		</layer>
		<layer id="231" name="reshape2_7.tmp_0" type="Reshape" version="opset1">
			<data special_zero="true"/>
			<rt_info>
				<attribute name="fused_names" version="0" value="reshape2_7.tmp_0"/>
			</rt_info>
			<input>
				<port id="0" precision="FP32">
					<dim>1</dim>
					<dim>3</dim>
					<dim>3200</dim>
				</port>
				<port id="1" precision="I64">
					<dim>4</dim>
				</port>
			</input>
			<output>
				<port id="2" precision="FP32" names="reshape2_7.tmp_0">
					<dim>1</dim>
					<dim>3</dim>
					<dim>32</dim>
					<dim>100</dim>
				</port>
			</output>
		</layer>
		<layer id="232" name="Multiply_7371" type="Const" version="opset1">
			<data element_type="f32" shape="32, 3, 3, 3" offset="7702504" size="3456"/>
			<output>
				<port id="0" precision="FP32">
					<dim>32</dim>
					<dim>3</dim>
					<dim>3</dim>
					<dim>3</dim>
				</port>
			</output>
		</layer>
		<layer id="233" name="Multiply_7287" type="Convolution" version="opset1">
			<data strides="2, 2" dilations="1, 1" pads_begin="1, 1" pads_end="1, 1" auto_pad="explicit"/>
			<rt_info>
				<attribute name="fused_names" version="0" value="Concat_973, Convolution_954, Reshape_974, batch_norm2d_6.b_0, batch_norm2d_6.w_0, batch_norm2d_6.w_1, batch_norm2d_6.w_2, batch_norm_7.tmp_2, p2o.Conv.13"/>
			</rt_info>
			<input>
				<port id="0" precision="FP32">
					<dim>1</dim>
					<dim>3</dim>
					<dim>32</dim>
					<dim>100</dim>
				</port>
				<port id="1" precision="FP32">
					<dim>32</dim>
					<dim>3</dim>
					<dim>3</dim>
					<dim>3</dim>
				</port>
			</input>
			<output>
				<port id="2" precision="FP32">
					<dim>1</dim>
					<dim>32</dim>
					<dim>16</dim>
					<dim>50</dim>
				</port>
			</output>
		</layer>
		<layer id="234" name="Constant_7292" type="Const" version="opset1">
			<data element_type="f32" shape="1, 32, 1, 1" offset="302768" size="128"/>
			<output>
				<port id="0" precision="FP32">
					<dim>1</dim>
					<dim>32</dim>
					<dim>1</dim>
					<dim>1</dim>
				</port>
			</output>
		</layer>
		<layer id="235" name="batch_norm_7.tmp_2" type="Add" version="opset1">
			<data auto_broadcast="numpy"/>
			<rt_info>
				<attribute name="fused_names" version="0" value="batch_norm2d_6.b_0, batch_norm2d_6.w_0, batch_norm2d_6.w_1, batch_norm2d_6.w_2, batch_norm_7.tmp_2"/>
			</rt_info>
			<input>
				<port id="0" precision="FP32">
					<dim>1</dim>
					<dim>32</dim>
					<dim>16</dim>
					<dim>50</dim>
				</port>
				<port id="1" precision="FP32">
					<dim>1</dim>
					<dim>32</dim>
					<dim>1</dim>
					<dim>1</dim>
				</port>
			</input>
			<output>
				<port id="2" precision="FP32" names="batch_norm_7.tmp_2">
					<dim>1</dim>
					<dim>32</dim>
					<dim>16</dim>
					<dim>50</dim>
				</port>
			</output>
		</layer>
		<layer id="236" name="gelu_14.tmp_0" type="Gelu" version="opset7">
			<data approximation_mode="ERF"/>
			<rt_info>
				<attribute name="fused_names" version="0" value="gelu_14.tmp_0, p2o.Add.27, p2o.Div.1, p2o.Erf.1, p2o.Mul.21"/>
			</rt_info>
			<input>
				<port id="0" precision="FP32">
					<dim>1</dim>
					<dim>32</dim>
					<dim>16</dim>
					<dim>50</dim>
				</port>
			</input>
			<output>
				<port id="1" precision="FP32" names="gelu_14.tmp_0">
					<dim>1</dim>
					<dim>32</dim>
					<dim>16</dim>
					<dim>50</dim>
				</port>
			</output>
		</layer>
		<layer id="237" name="Multiply_7380" type="Const" version="opset1">
			<data element_type="f32" shape="64, 32, 3, 3" offset="7705960" size="73728"/>
			<output>
				<port id="0" precision="FP32">
					<dim>64</dim>
					<dim>32</dim>
					<dim>3</dim>
					<dim>3</dim>
				</port>
			</output>
		</layer>
		<layer id="238" name="Multiply_7294" type="Convolution" version="opset1">
			<data strides="2, 2" dilations="1, 1" pads_begin="1, 1" pads_end="1, 1" auto_pad="explicit"/>
			<rt_info>
				<attribute name="fused_names" version="0" value="Concat_1030, Convolution_1011, Reshape_1031, batch_norm2d_7.b_0, batch_norm2d_7.w_0, batch_norm2d_7.w_1, batch_norm2d_7.w_2, batch_norm_8.tmp_2, p2o.Conv.15"/>
			</rt_info>
			<input>
				<port id="0" precision="FP32">
					<dim>1</dim>
					<dim>32</dim>
					<dim>16</dim>
					<dim>50</dim>
				</port>
				<port id="1" precision="FP32">
					<dim>64</dim>
					<dim>32</dim>
					<dim>3</dim>
					<dim>3</dim>
				</port>
			</input>
			<output>
				<port id="2" precision="FP32">
					<dim>1</dim>
					<dim>64</dim>
					<dim>8</dim>
					<dim>25</dim>
				</port>
			</output>
		</layer>
		<layer id="239" name="Constant_7299" type="Const" version="opset1">
			<data element_type="f32" shape="1, 64, 1, 1" offset="376624" size="256"/>
			<output>
				<port id="0" precision="FP32">
					<dim>1</dim>
					<dim>64</dim>
					<dim>1</dim>
					<dim>1</dim>
				</port>
			</output>
		</layer>
		<layer id="240" name="batch_norm_8.tmp_2" type="Add" version="opset1">
			<data auto_broadcast="numpy"/>
			<rt_info>
				<attribute name="fused_names" version="0" value="batch_norm2d_7.b_0, batch_norm2d_7.w_0, batch_norm2d_7.w_1, batch_norm2d_7.w_2, batch_norm_8.tmp_2"/>
			</rt_info>
			<input>
				<port id="0" precision="FP32">
					<dim>1</dim>
					<dim>64</dim>
					<dim>8</dim>
					<dim>25</dim>
				</port>
				<port id="1" precision="FP32">
					<dim>1</dim>
					<dim>64</dim>
					<dim>1</dim>
					<dim>1</dim>
				</port>
			</input>
			<output>
				<port id="2" precision="FP32" names="batch_norm_8.tmp_2">
					<dim>1</dim>
					<dim>64</dim>
					<dim>8</dim>
					<dim>25</dim>
				</port>
			</output>
		</layer>
		<layer id="241" name="gelu_15.tmp_0" type="Gelu" version="opset7">
			<data approximation_mode="ERF"/>
			<rt_info>
				<attribute name="fused_names" version="0" value="gelu_15.tmp_0, p2o.Add.30, p2o.Div.3, p2o.Erf.3, p2o.Mul.24"/>
			</rt_info>
			<input>
				<port id="0" precision="FP32">
					<dim>1</dim>
					<dim>64</dim>
					<dim>8</dim>
					<dim>25</dim>
				</port>
			</input>
			<output>
				<port id="1" precision="FP32" names="gelu_15.tmp_0">
					<dim>1</dim>
					<dim>64</dim>
					<dim>8</dim>
					<dim>25</dim>
				</port>
			</output>
		</layer>
		<layer id="242" name="p2o.Shape.9" type="ShapeOf" version="opset3">
			<data output_type="i64"/>
			<rt_info>
				<attribute name="fused_names" version="0" value="p2o.Shape.9"/>
			</rt_info>
			<input>
				<port id="0" precision="FP32">
					<dim>1</dim>
					<dim>64</dim>
					<dim>8</dim>
					<dim>25</dim>
				</port>
			</input>
			<output>
				<port id="1" precision="I64" names="p2o.Shape.9">
					<dim>4</dim>
				</port>
			</output>
		</layer>
		<layer id="243" name="p2o.helper.constant.116" type="Const" version="opset1">
			<data element_type="i64" shape="1" offset="56" size="8"/>
			<rt_info>
				<attribute name="fused_names" version="0" value="Broadcast_1075, p2o.helper.constant.115, p2o.helper.constant.116, p2o.helper.constant.117, p2o.helper.slice.1"/>
			</rt_info>
			<output>
				<port id="0" precision="I64" names="p2o.helper.constant.116">
					<dim>1</dim>
				</port>
			</output>
		</layer>
		<layer id="244" name="p2o.helper.constant.117" type="Const" version="opset1">
			<data element_type="i64" shape="1" offset="299284" size="8"/>
			<rt_info>
				<attribute name="fused_names" version="0" value="Broadcast_1075, p2o.helper.constant.115, p2o.helper.constant.116, p2o.helper.constant.117, p2o.helper.slice.1"/>
			</rt_info>
			<output>
				<port id="0" precision="I64" names="p2o.helper.constant.117">
					<dim>1</dim>
				</port>
			</output>
		</layer>
		<layer id="245" name="Broadcast_1075" type="Const" version="opset1">
			<data element_type="i64" shape="1" offset="48" size="8"/>
			<rt_info>
				<attribute name="fused_names" version="0" value="Broadcast_1075, p2o.helper.constant.115, p2o.helper.constant.116, p2o.helper.constant.117, p2o.helper.slice.1"/>
			</rt_info>
			<output>
				<port id="0" precision="I64">
					<dim>1</dim>
				</port>
			</output>
		</layer>
		<layer id="246" name="p2o.helper.slice.1" type="StridedSlice" version="opset1">
			<data begin_mask="0" end_mask="0" new_axis_mask="" shrink_axis_mask="" ellipsis_mask=""/>
			<rt_info>
				<attribute name="fused_names" version="0" value="Broadcast_1075, p2o.helper.constant.115, p2o.helper.constant.116, p2o.helper.constant.117, p2o.helper.slice.1"/>
			</rt_info>
			<input>
				<port id="0" precision="I64">
					<dim>4</dim>
				</port>
				<port id="1" precision="I64">
					<dim>1</dim>
				</port>
				<port id="2" precision="I64">
					<dim>1</dim>
				</port>
				<port id="3" precision="I64">
					<dim>1</dim>
				</port>
			</input>
			<output>
				<port id="4" precision="I64" names="p2o.helper.slice.1">
					<dim>2</dim>
				</port>
			</output>
		</layer>
		<layer id="247" name="p2o.helper.constant.114" type="Const" version="opset1">
			<data element_type="i64" shape="1" offset="6571568" size="8"/>
			<rt_info>
				<attribute name="fused_names" version="0" value="p2o.helper.constant.114"/>
			</rt_info>
			<output>
				<port id="0" precision="I64" names="p2o.helper.constant.114">
					<dim>1</dim>
				</port>
			</output>
		</layer>
		<layer id="248" name="p2o.Concat.20" type="Concat" version="opset1">
			<data axis="0"/>
			<rt_info>
				<attribute name="fused_names" version="0" value="p2o.Concat.20, p2o.helper.constant.114"/>
			</rt_info>
			<input>
				<port id="0" precision="I64">
					<dim>2</dim>
				</port>
				<port id="1" precision="I64">
					<dim>1</dim>
				</port>
			</input>
			<output>
				<port id="2" precision="I64" names="p2o.Concat.20">
					<dim>3</dim>
				</port>
			</output>
		</layer>
		<layer id="249" name="flatten_0.tmp_0" type="Reshape" version="opset1">
			<data special_zero="true"/>
			<rt_info>
				<attribute name="fused_names" version="0" value="flatten_0.tmp_0"/>
			</rt_info>
			<input>
				<port id="0" precision="FP32">
					<dim>1</dim>
					<dim>64</dim>
					<dim>8</dim>
					<dim>25</dim>
				</port>
				<port id="1" precision="I64">
					<dim>3</dim>
				</port>
			</input>
			<output>
				<port id="2" precision="FP32" names="flatten_0.tmp_0">
					<dim>1</dim>
					<dim>64</dim>
					<dim>200</dim>
				</port>
			</output>
		</layer>
		<layer id="250" name="Constant_1126" type="Const" version="opset1">
			<data element_type="i64" shape="3" offset="7779688" size="24"/>
			<rt_info>
				<attribute name="fused_names" version="0" value="Constant_1126"/>
			</rt_info>
			<output>
				<port id="0" precision="I64">
					<dim>3</dim>
				</port>
			</output>
		</layer>
		<layer id="251" name="transpose_0.tmp_0" type="Transpose" version="opset1">
			<rt_info>
				<attribute name="fused_names" version="0" value="transpose_0.tmp_0"/>
			</rt_info>
			<input>
				<port id="0" precision="FP32">
					<dim>1</dim>
					<dim>64</dim>
					<dim>200</dim>
				</port>
				<port id="1" precision="I64">
					<dim>3</dim>
				</port>
			</input>
			<output>
				<port id="2" precision="FP32" names="transpose_0.tmp_0">
					<dim>1</dim>
					<dim>200</dim>
					<dim>64</dim>
				</port>
			</output>
		</layer>
		<layer id="252" name="svtr_net_0.w_0" type="Const" version="opset1">
			<data element_type="f32" shape="1, 200, 64" offset="7779712" size="51200"/>
			<rt_info>
				<attribute name="fused_names" version="0" value="svtr_net_0.w_0"/>
			</rt_info>
			<output>
				<port id="0" precision="FP32" names="svtr_net_0.w_0">
					<dim>1</dim>
					<dim>200</dim>
					<dim>64</dim>
				</port>
			</output>
		</layer>
		<layer id="253" name="tmp_60" type="Add" version="opset1">
			<data auto_broadcast="numpy"/>
			<rt_info>
				<attribute name="fused_names" version="0" value="tmp_60"/>
			</rt_info>
			<input>
				<port id="0" precision="FP32">
					<dim>1</dim>
					<dim>200</dim>
					<dim>64</dim>
				</port>
				<port id="1" precision="FP32">
					<dim>1</dim>
					<dim>200</dim>
					<dim>64</dim>
				</port>
			</input>
			<output>
				<port id="2" precision="FP32" names="tmp_60">
					<dim>1</dim>
					<dim>200</dim>
					<dim>64</dim>
				</port>
			</output>
		</layer>
		<layer id="254" name="Constant_1131" type="Const" version="opset1">
			<data element_type="i64" shape="1" offset="6571568" size="8"/>
			<rt_info>
				<attribute name="fused_names" version="0" value="Constant_1131"/>
			</rt_info>
			<output>
				<port id="0" precision="I64">
					<dim>1</dim>
				</port>
			</output>
		</layer>
		<layer id="255" name="p2o.Div.5" type="MVN" version="opset6">
			<data eps="9.9999999747524271e-07" normalize_variance="true" eps_mode="INSIDE_SQRT"/>
			<rt_info>
				<attribute name="fused_names" version="0" value="p2o.Add.33, p2o.Add.35, p2o.Div.5, p2o.Mul.27, p2o.Pow.1, p2o.ReduceMean.1, p2o.ReduceMean.3, p2o.Sqrt.1, p2o.Sub.9"/>
			</rt_info>
			<input>
				<port id="0" precision="FP32">
					<dim>1</dim>
					<dim>200</dim>
					<dim>64</dim>
				</port>
				<port id="1" precision="I64">
					<dim>1</dim>
				</port>
			</input>
			<output>
				<port id="2" precision="FP32" names="p2o.Add.35,p2o.Div.5,p2o.Mul.27">
					<dim>1</dim>
					<dim>200</dim>
					<dim>64</dim>
				</port>
			</output>
		</layer>
		<layer id="256" name="Constant_5700" type="Const" version="opset1">
			<data element_type="f32" shape="192, 64" offset="7830912" size="49152"/>
			<rt_info>
				<attribute name="fused_names" version="0" value="linear_2.w_0, linear_53.tmp_1, p2o.MatMul.9"/>
			</rt_info>
			<output>
				<port id="0" precision="FP32">
					<dim>192</dim>
					<dim>64</dim>
				</port>
			</output>
		</layer>
		<layer id="257" name="p2o.MatMul.9" type="MatMul" version="opset1">
			<data transpose_a="false" transpose_b="true"/>
			<rt_info>
				<attribute name="fused_names" version="0" value="linear_2.w_0, linear_53.tmp_1, p2o.MatMul.9"/>
			</rt_info>
			<input>
				<port id="0" precision="FP32">
					<dim>1</dim>
					<dim>200</dim>
					<dim>64</dim>
				</port>
				<port id="1" precision="FP32">
					<dim>192</dim>
					<dim>64</dim>
				</port>
			</input>
			<output>
				<port id="2" precision="FP32" names="linear_53.tmp_1,p2o.MatMul.9">
					<dim>1</dim>
					<dim>200</dim>
					<dim>192</dim>
				</port>
			</output>
		</layer>
		<layer id="258" name="p2o.helper.constant.125" type="Const" version="opset1">
			<data element_type="i64" shape="5" offset="7880064" size="40"/>
			<rt_info>
				<attribute name="fused_names" version="0" value="p2o.helper.constant.125"/>
			</rt_info>
			<output>
				<port id="0" precision="I64" names="p2o.helper.constant.125">
					<dim>5</dim>
				</port>
			</output>
		</layer>
		<layer id="259" name="reshape2_8.tmp_0" type="Reshape" version="opset1">
			<data special_zero="true"/>
			<rt_info>
				<attribute name="fused_names" version="0" value="reshape2_8.tmp_0"/>
			</rt_info>
			<input>
				<port id="0" precision="FP32">
					<dim>1</dim>
					<dim>200</dim>
					<dim>192</dim>
				</port>
				<port id="1" precision="I64">
					<dim>5</dim>
				</port>
			</input>
			<output>
				<port id="2" precision="FP32" names="reshape2_8.tmp_0">
					<dim>1</dim>
					<dim>200</dim>
					<dim>3</dim>
					<dim>2</dim>
					<dim>32</dim>
				</port>
			</output>
		</layer>
		<layer id="260" name="Constant_1151" type="Const" version="opset1">
			<data element_type="i64" shape="5" offset="7880104" size="40"/>
			<rt_info>
				<attribute name="fused_names" version="0" value="Constant_1151"/>
			</rt_info>
			<output>
				<port id="0" precision="I64">
					<dim>5</dim>
				</port>
			</output>
		</layer>
		<layer id="261" name="transpose_1.tmp_0" type="Transpose" version="opset1">
			<rt_info>
				<attribute name="fused_names" version="0" value="transpose_1.tmp_0"/>
			</rt_info>
			<input>
				<port id="0" precision="FP32">
					<dim>1</dim>
					<dim>200</dim>
					<dim>3</dim>
					<dim>2</dim>
					<dim>32</dim>
				</port>
				<port id="1" precision="I64">
					<dim>5</dim>
				</port>
			</input>
			<output>
				<port id="2" precision="FP32" names="transpose_1.tmp_0">
					<dim>3</dim>
					<dim>1</dim>
					<dim>2</dim>
					<dim>200</dim>
					<dim>32</dim>
				</port>
			</output>
		</layer>
		<layer id="262" name="p2o.helper.constant.126" type="Const" version="opset1">
			<data element_type="i64" shape="1" offset="56" size="8"/>
			<rt_info>
				<attribute name="fused_names" version="0" value="p2o.Slice.26"/>
			</rt_info>
			<output>
				<port id="0" precision="I64" names="p2o.helper.constant.126">
					<dim>1</dim>
				</port>
			</output>
		</layer>
		<layer id="263" name="p2o.helper.constant.127" type="Const" version="opset1">
			<data element_type="i64" shape="1" offset="48" size="8"/>
			<rt_info>
				<attribute name="fused_names" version="0" value="p2o.Slice.26"/>
			</rt_info>
			<output>
				<port id="0" precision="I64" names="p2o.helper.constant.127">
					<dim>1</dim>
				</port>
			</output>
		</layer>
		<layer id="264" name="p2o.helper.constant.128" type="Const" version="opset1">
			<data element_type="i64" shape="1" offset="48" size="8"/>
			<rt_info>
				<attribute name="fused_names" version="0" value="p2o.Slice.26"/>
			</rt_info>
			<output>
				<port id="0" precision="I64" names="p2o.helper.constant.128">
					<dim>1</dim>
				</port>
			</output>
		</layer>
		<layer id="265" name="p2o.Slice.26" type="StridedSlice" version="opset1">
			<data begin_mask="0" end_mask="0" new_axis_mask="" shrink_axis_mask="" ellipsis_mask=""/>
			<rt_info>
				<attribute name="fused_names" version="0" value="p2o.Slice.26"/>
			</rt_info>
			<input>
				<port id="0" precision="FP32">
					<dim>3</dim>
					<dim>1</dim>
					<dim>2</dim>
					<dim>200</dim>
					<dim>32</dim>
				</port>
				<port id="1" precision="I64">
					<dim>1</dim>
				</port>
				<port id="2" precision="I64">
					<dim>1</dim>
				</port>
				<port id="3" precision="I64">
					<dim>1</dim>
				</port>
			</input>
			<output>
				<port id="4" precision="FP32" names="p2o.Slice.26">
					<dim>1</dim>
					<dim>1</dim>
					<dim>2</dim>
					<dim>200</dim>
					<dim>32</dim>
				</port>
			</output>
		</layer>
		<layer id="266" name="p2o.helper.constant.130" type="Const" version="opset1">
			<data element_type="i64" shape="1" offset="56" size="8"/>
			<rt_info>
				<attribute name="fused_names" version="0" value="p2o.helper.constant.130"/>
			</rt_info>
			<output>
				<port id="0" precision="I64" names="p2o.helper.constant.130">
					<dim>1</dim>
				</port>
			</output>
		</layer>
		<layer id="267" name="transpose_1.tmp_0_slice_0" type="Squeeze" version="opset1">
			<rt_info>
				<attribute name="fused_names" version="0" value="transpose_1.tmp_0_slice_0"/>
			</rt_info>
			<input>
				<port id="0" precision="FP32">
					<dim>1</dim>
					<dim>1</dim>
					<dim>2</dim>
					<dim>200</dim>
					<dim>32</dim>
				</port>
				<port id="1" precision="I64">
					<dim>1</dim>
				</port>
			</input>
			<output>
				<port id="2" precision="FP32" names="transpose_1.tmp_0_slice_0">
					<dim>1</dim>
					<dim>2</dim>
					<dim>200</dim>
					<dim>32</dim>
				</port>
			</output>
		</layer>
		<layer id="268" name="Constant_7591" type="Const" version="opset1">
			<data element_type="f32" shape="1, 1, 1, 1" offset="7880144" size="4"/>
			<output>
				<port id="0" precision="FP32">
					<dim>1</dim>
					<dim>1</dim>
					<dim>1</dim>
					<dim>1</dim>
				</port>
			</output>
		</layer>
		<layer id="269" name="p2o.Mul.29" type="Multiply" version="opset1">
			<data auto_broadcast="numpy"/>
			<rt_info>
				<attribute name="fused_names" version="0" value="p2o.Mul.29"/>
			</rt_info>
			<input>
				<port id="0" precision="FP32">
					<dim>1</dim>
					<dim>2</dim>
					<dim>200</dim>
					<dim>32</dim>
				</port>
				<port id="1" precision="FP32">
					<dim>1</dim>
					<dim>1</dim>
					<dim>1</dim>
					<dim>1</dim>
				</port>
			</input>
			<output>
				<port id="2" precision="FP32" names="p2o.Mul.29">
					<dim>1</dim>
					<dim>2</dim>
					<dim>200</dim>
					<dim>32</dim>
				</port>
			</output>
		</layer>
		<layer id="270" name="p2o.helper.constant.132" type="Const" version="opset1">
			<data element_type="i64" shape="1" offset="48" size="8"/>
			<rt_info>
				<attribute name="fused_names" version="0" value="p2o.Slice.28"/>
			</rt_info>
			<output>
				<port id="0" precision="I64" names="p2o.helper.constant.132">
					<dim>1</dim>
				</port>
			</output>
		</layer>
		<layer id="271" name="p2o.helper.constant.133" type="Const" version="opset1">
			<data element_type="i64" shape="1" offset="299284" size="8"/>
			<rt_info>
				<attribute name="fused_names" version="0" value="p2o.Slice.28"/>
			</rt_info>
			<output>
				<port id="0" precision="I64" names="p2o.helper.constant.133">
					<dim>1</dim>
				</port>
			</output>
		</layer>
		<layer id="272" name="p2o.helper.constant.134" type="Const" version="opset1">
			<data element_type="i64" shape="1" offset="48" size="8"/>
			<rt_info>
				<attribute name="fused_names" version="0" value="p2o.Slice.28"/>
			</rt_info>
			<output>
				<port id="0" precision="I64" names="p2o.helper.constant.134">
					<dim>1</dim>
				</port>
			</output>
		</layer>
		<layer id="273" name="p2o.Slice.28" type="StridedSlice" version="opset1">
			<data begin_mask="0" end_mask="0" new_axis_mask="" shrink_axis_mask="" ellipsis_mask=""/>
			<rt_info>
				<attribute name="fused_names" version="0" value="p2o.Slice.28"/>
			</rt_info>
			<input>
				<port id="0" precision="FP32">
					<dim>3</dim>
					<dim>1</dim>
					<dim>2</dim>
					<dim>200</dim>
					<dim>32</dim>
				</port>
				<port id="1" precision="I64">
					<dim>1</dim>
				</port>
				<port id="2" precision="I64">
					<dim>1</dim>
				</port>
				<port id="3" precision="I64">
					<dim>1</dim>
				</port>
			</input>
			<output>
				<port id="4" precision="FP32" names="p2o.Slice.28">
					<dim>1</dim>
					<dim>1</dim>
					<dim>2</dim>
					<dim>200</dim>
					<dim>32</dim>
				</port>
			</output>
		</layer>
		<layer id="274" name="p2o.helper.constant.136" type="Const" version="opset1">
			<data element_type="i64" shape="1" offset="56" size="8"/>
			<rt_info>
				<attribute name="fused_names" version="0" value="p2o.helper.constant.136"/>
			</rt_info>
			<output>
				<port id="0" precision="I64" names="p2o.helper.constant.136">
					<dim>1</dim>
				</port>
			</output>
		</layer>
		<layer id="275" name="transpose_1.tmp_0_slice_1" type="Squeeze" version="opset1">
			<rt_info>
				<attribute name="fused_names" version="0" value="transpose_1.tmp_0_slice_1"/>
			</rt_info>
			<input>
				<port id="0" precision="FP32">
					<dim>1</dim>
					<dim>1</dim>
					<dim>2</dim>
					<dim>200</dim>
					<dim>32</dim>
				</port>
				<port id="1" precision="I64">
					<dim>1</dim>
				</port>
			</input>
			<output>
				<port id="2" precision="FP32" names="transpose_1.tmp_0_slice_1">
					<dim>1</dim>
					<dim>2</dim>
					<dim>200</dim>
					<dim>32</dim>
				</port>
			</output>
		</layer>
		<layer id="276" name="Constant_1176" type="Const" version="opset1">
			<data element_type="i64" shape="4" offset="7880148" size="32"/>
			<rt_info>
				<attribute name="fused_names" version="0" value="Constant_1176"/>
			</rt_info>
			<output>
				<port id="0" precision="I64">
					<dim>4</dim>
				</port>
			</output>
		</layer>
		<layer id="277" name="transpose_2.tmp_0" type="Transpose" version="opset1">
			<rt_info>
				<attribute name="fused_names" version="0" value="transpose_2.tmp_0"/>
			</rt_info>
			<input>
				<port id="0" precision="FP32">
					<dim>1</dim>
					<dim>2</dim>
					<dim>200</dim>
					<dim>32</dim>
				</port>
				<port id="1" precision="I64">
					<dim>4</dim>
				</port>
			</input>
			<output>
				<port id="2" precision="FP32" names="transpose_2.tmp_0">
					<dim>1</dim>
					<dim>2</dim>
					<dim>32</dim>
					<dim>200</dim>
				</port>
			</output>
		</layer>
		<layer id="278" name="p2o.MatMul.11" type="MatMul" version="opset1">
			<data transpose_a="false" transpose_b="false"/>
			<rt_info>
				<attribute name="fused_names" version="0" value="p2o.MatMul.11"/>
			</rt_info>
			<input>
				<port id="0" precision="FP32">
					<dim>1</dim>
					<dim>2</dim>
					<dim>200</dim>
					<dim>32</dim>
				</port>
				<port id="1" precision="FP32">
					<dim>1</dim>
					<dim>2</dim>
					<dim>32</dim>
					<dim>200</dim>
				</port>
			</input>
			<output>
				<port id="2" precision="FP32" names="p2o.MatMul.11">
					<dim>1</dim>
					<dim>2</dim>
					<dim>200</dim>
					<dim>200</dim>
				</port>
			</output>
		</layer>
		<layer id="279" name="auto_48_" type="Const" version="opset1">
			<data element_type="f32" shape="1, 1, 200, 200" offset="7880180" size="160000"/>
			<rt_info>
				<attribute name="fused_names" version="0" value="auto_48_"/>
			</rt_info>
			<output>
				<port id="0" precision="FP32" names="auto_48_">
					<dim>1</dim>
					<dim>1</dim>
					<dim>200</dim>
					<dim>200</dim>
				</port>
			</output>
		</layer>
		<layer id="280" name="tmp_62" type="Add" version="opset1">
			<data auto_broadcast="numpy"/>
			<rt_info>
				<attribute name="fused_names" version="0" value="tmp_62"/>
			</rt_info>
			<input>
				<port id="0" precision="FP32">
					<dim>1</dim>
					<dim>2</dim>
					<dim>200</dim>
					<dim>200</dim>
				</port>
				<port id="1" precision="FP32">
					<dim>1</dim>
					<dim>1</dim>
					<dim>200</dim>
					<dim>200</dim>
				</port>
			</input>
			<output>
				<port id="2" precision="FP32" names="tmp_62">
					<dim>1</dim>
					<dim>2</dim>
					<dim>200</dim>
					<dim>200</dim>
				</port>
			</output>
		</layer>
		<layer id="281" name="softmax_0.tmp_0" type="SoftMax" version="opset8">
			<data axis="-1"/>
			<rt_info>
				<attribute name="fused_names" version="0" value="softmax_0.tmp_0"/>
			</rt_info>
			<input>
				<port id="0" precision="FP32">
					<dim>1</dim>
					<dim>2</dim>
					<dim>200</dim>
					<dim>200</dim>
				</port>
			</input>
			<output>
				<port id="1" precision="FP32" names="softmax_0.tmp_0">
					<dim>1</dim>
					<dim>2</dim>
					<dim>200</dim>
					<dim>200</dim>
				</port>
			</output>
		</layer>
		<layer id="282" name="p2o.helper.constant.137" type="Const" version="opset1">
			<data element_type="i64" shape="1" offset="299284" size="8"/>
			<rt_info>
				<attribute name="fused_names" version="0" value="p2o.Slice.30"/>
			</rt_info>
			<output>
				<port id="0" precision="I64" names="p2o.helper.constant.137">
					<dim>1</dim>
				</port>
			</output>
		</layer>
		<layer id="283" name="p2o.helper.constant.138" type="Const" version="opset1">
			<data element_type="i64" shape="1" offset="7702260" size="8"/>
			<rt_info>
				<attribute name="fused_names" version="0" value="p2o.Slice.30"/>
			</rt_info>
			<output>
				<port id="0" precision="I64" names="p2o.helper.constant.138">
					<dim>1</dim>
				</port>
			</output>
		</layer>
		<layer id="284" name="p2o.helper.constant.139" type="Const" version="opset1">
			<data element_type="i64" shape="1" offset="48" size="8"/>
			<rt_info>
				<attribute name="fused_names" version="0" value="p2o.Slice.30"/>
			</rt_info>
			<output>
				<port id="0" precision="I64" names="p2o.helper.constant.139">
					<dim>1</dim>
				</port>
			</output>
		</layer>
		<layer id="285" name="p2o.Slice.30" type="StridedSlice" version="opset1">
			<data begin_mask="0" end_mask="0" new_axis_mask="" shrink_axis_mask="" ellipsis_mask=""/>
			<rt_info>
				<attribute name="fused_names" version="0" value="p2o.Slice.30"/>
			</rt_info>
			<input>
				<port id="0" precision="FP32">
					<dim>3</dim>
					<dim>1</dim>
					<dim>2</dim>
					<dim>200</dim>
					<dim>32</dim>
				</port>
				<port id="1" precision="I64">
					<dim>1</dim>
				</port>
				<port id="2" precision="I64">
					<dim>1</dim>
				</port>
				<port id="3" precision="I64">
					<dim>1</dim>
				</port>
			</input>
			<output>
				<port id="4" precision="FP32" names="p2o.Slice.30">
					<dim>1</dim>
					<dim>1</dim>
					<dim>2</dim>
					<dim>200</dim>
					<dim>32</dim>
				</port>
			</output>
		</layer>
		<layer id="286" name="p2o.helper.constant.141" type="Const" version="opset1">
			<data element_type="i64" shape="1" offset="56" size="8"/>
			<rt_info>
				<attribute name="fused_names" version="0" value="p2o.helper.constant.141"/>
			</rt_info>
			<output>
				<port id="0" precision="I64" names="p2o.helper.constant.141">
					<dim>1</dim>
				</port>
			</output>
		</layer>
		<layer id="287" name="transpose_1.tmp_0_slice_2" type="Squeeze" version="opset1">
			<rt_info>
				<attribute name="fused_names" version="0" value="transpose_1.tmp_0_slice_2"/>
			</rt_info>
			<input>
				<port id="0" precision="FP32">
					<dim>1</dim>
					<dim>1</dim>
					<dim>2</dim>
					<dim>200</dim>
					<dim>32</dim>
				</port>
				<port id="1" precision="I64">
					<dim>1</dim>
				</port>
			</input>
			<output>
				<port id="2" precision="FP32" names="transpose_1.tmp_0_slice_2">
					<dim>1</dim>
					<dim>2</dim>
					<dim>200</dim>
					<dim>32</dim>
				</port>
			</output>
		</layer>
		<layer id="288" name="p2o.MatMul.13" type="MatMul" version="opset1">
			<data transpose_a="false" transpose_b="false"/>
			<rt_info>
				<attribute name="fused_names" version="0" value="p2o.MatMul.13"/>
			</rt_info>
			<input>
				<port id="0" precision="FP32">
					<dim>1</dim>
					<dim>2</dim>
					<dim>200</dim>
					<dim>200</dim>
				</port>
				<port id="1" precision="FP32">
					<dim>1</dim>
					<dim>2</dim>
					<dim>200</dim>
					<dim>32</dim>
				</port>
			</input>
			<output>
				<port id="2" precision="FP32" names="p2o.MatMul.13">
					<dim>1</dim>
					<dim>2</dim>
					<dim>200</dim>
					<dim>32</dim>
				</port>
			</output>
		</layer>
		<layer id="289" name="Constant_1182" type="Const" version="opset1">
			<data element_type="i64" shape="4" offset="8040180" size="32"/>
			<rt_info>
				<attribute name="fused_names" version="0" value="Constant_1182"/>
			</rt_info>
			<output>
				<port id="0" precision="I64">
					<dim>4</dim>
				</port>
			</output>
		</layer>
		<layer id="290" name="transpose_3.tmp_0" type="Transpose" version="opset1">
			<rt_info>
				<attribute name="fused_names" version="0" value="transpose_3.tmp_0"/>
			</rt_info>
			<input>
				<port id="0" precision="FP32">
					<dim>1</dim>
					<dim>2</dim>
					<dim>200</dim>
					<dim>32</dim>
				</port>
				<port id="1" precision="I64">
					<dim>4</dim>
				</port>
			</input>
			<output>
				<port id="2" precision="FP32" names="transpose_3.tmp_0">
					<dim>1</dim>
					<dim>200</dim>
					<dim>2</dim>
					<dim>32</dim>
				</port>
			</output>
		</layer>
		<layer id="291" name="p2o.helper.constant.142" type="Const" version="opset1">
			<data element_type="i64" shape="3" offset="8040212" size="24"/>
			<rt_info>
				<attribute name="fused_names" version="0" value="p2o.helper.constant.142"/>
			</rt_info>
			<output>
				<port id="0" precision="I64" names="p2o.helper.constant.142">
					<dim>3</dim>
				</port>
			</output>
		</layer>
		<layer id="292" name="reshape2_9.tmp_0" type="Reshape" version="opset1">
			<data special_zero="true"/>
			<rt_info>
				<attribute name="fused_names" version="0" value="reshape2_9.tmp_0"/>
			</rt_info>
			<input>
				<port id="0" precision="FP32">
					<dim>1</dim>
					<dim>200</dim>
					<dim>2</dim>
					<dim>32</dim>
				</port>
				<port id="1" precision="I64">
					<dim>3</dim>
				</port>
			</input>
			<output>
				<port id="2" precision="FP32" names="reshape2_9.tmp_0">
					<dim>1</dim>
					<dim>200</dim>
					<dim>64</dim>
				</port>
			</output>
		</layer>
		<layer id="293" name="Constant_5707" type="Const" version="opset1">
			<data element_type="f32" shape="64, 64" offset="8040236" size="16384"/>
			<rt_info>
				<attribute name="fused_names" version="0" value="linear_3.w_0, linear_54.tmp_1, p2o.MatMul.15"/>
			</rt_info>
			<output>
				<port id="0" precision="FP32">
					<dim>64</dim>
					<dim>64</dim>
				</port>
			</output>
		</layer>
		<layer id="294" name="p2o.MatMul.15" type="MatMul" version="opset1">
			<data transpose_a="false" transpose_b="true"/>
			<rt_info>
				<attribute name="fused_names" version="0" value="linear_3.w_0, linear_54.tmp_1, p2o.MatMul.15"/>
			</rt_info>
			<input>
				<port id="0" precision="FP32">
					<dim>1</dim>
					<dim>200</dim>
					<dim>64</dim>
				</port>
				<port id="1" precision="FP32">
					<dim>64</dim>
					<dim>64</dim>
				</port>
			</input>
			<output>
				<port id="2" precision="FP32" names="linear_54.tmp_1,p2o.MatMul.15">
					<dim>1</dim>
					<dim>200</dim>
					<dim>64</dim>
				</port>
			</output>
		</layer>
		<layer id="295" name="tmp_63" type="Add" version="opset1">
			<data auto_broadcast="numpy"/>
			<rt_info>
				<attribute name="fused_names" version="0" value="tmp_63"/>
			</rt_info>
			<input>
				<port id="0" precision="FP32">
					<dim>1</dim>
					<dim>200</dim>
					<dim>64</dim>
				</port>
				<port id="1" precision="FP32">
					<dim>1</dim>
					<dim>200</dim>
					<dim>64</dim>
				</port>
			</input>
			<output>
				<port id="2" precision="FP32" names="tmp_63">
					<dim>1</dim>
					<dim>200</dim>
					<dim>64</dim>
				</port>
			</output>
		</layer>
		<layer id="296" name="Constant_1196" type="Const" version="opset1">
			<data element_type="i64" shape="1" offset="6571568" size="8"/>
			<rt_info>
				<attribute name="fused_names" version="0" value="Constant_1196"/>
			</rt_info>
			<output>
				<port id="0" precision="I64">
					<dim>1</dim>
				</port>
			</output>
		</layer>
		<layer id="297" name="p2o.Div.7" type="MVN" version="opset6">
			<data eps="9.9999999747524271e-07" normalize_variance="true" eps_mode="INSIDE_SQRT"/>
			<rt_info>
				<attribute name="fused_names" version="0" value="p2o.Add.41, p2o.Add.43, p2o.Div.7, p2o.Mul.31, p2o.Pow.3, p2o.ReduceMean.5, p2o.ReduceMean.7, p2o.Sqrt.3, p2o.Sub.11"/>
			</rt_info>
			<input>
				<port id="0" precision="FP32">
					<dim>1</dim>
					<dim>200</dim>
					<dim>64</dim>
				</port>
				<port id="1" precision="I64">
					<dim>1</dim>
				</port>
			</input>
			<output>
				<port id="2" precision="FP32" names="p2o.Add.43,p2o.Div.7,p2o.Mul.31">
					<dim>1</dim>
					<dim>200</dim>
					<dim>64</dim>
				</port>
			</output>
		</layer>
		<layer id="298" name="Constant_5715" type="Const" version="opset1">
			<data element_type="f32" shape="256, 64" offset="8056620" size="65536"/>
			<rt_info>
				<attribute name="fused_names" version="0" value="linear_4.w_0, linear_55.tmp_1, p2o.MatMul.17"/>
			</rt_info>
			<output>
				<port id="0" precision="FP32">
					<dim>256</dim>
					<dim>64</dim>
				</port>
			</output>
		</layer>
		<layer id="299" name="p2o.MatMul.17" type="MatMul" version="opset1">
			<data transpose_a="false" transpose_b="true"/>
			<rt_info>
				<attribute name="fused_names" version="0" value="linear_4.w_0, linear_55.tmp_1, p2o.MatMul.17"/>
			</rt_info>
			<input>
				<port id="0" precision="FP32">
					<dim>1</dim>
					<dim>200</dim>
					<dim>64</dim>
				</port>
				<port id="1" precision="FP32">
					<dim>256</dim>
					<dim>64</dim>
				</port>
			</input>
			<output>
				<port id="2" precision="FP32" names="linear_55.tmp_1,p2o.MatMul.17">
					<dim>1</dim>
					<dim>200</dim>
					<dim>256</dim>
				</port>
			</output>
		</layer>
		<layer id="300" name="gelu_16.tmp_0" type="Gelu" version="opset7">
			<data approximation_mode="ERF"/>
			<rt_info>
				<attribute name="fused_names" version="0" value="gelu_16.tmp_0, p2o.Add.46, p2o.Div.9, p2o.Erf.5, p2o.Mul.33"/>
			</rt_info>
			<input>
				<port id="0" precision="FP32">
					<dim>1</dim>
					<dim>200</dim>
					<dim>256</dim>
				</port>
			</input>
			<output>
				<port id="1" precision="FP32" names="gelu_16.tmp_0">
					<dim>1</dim>
					<dim>200</dim>
					<dim>256</dim>
				</port>
			</output>
		</layer>
		<layer id="301" name="Constant_5723" type="Const" version="opset1">
			<data element_type="f32" shape="64, 256" offset="8122156" size="65536"/>
			<rt_info>
				<attribute name="fused_names" version="0" value="linear_5.w_0, linear_56.tmp_1, p2o.MatMul.19"/>
			</rt_info>
			<output>
				<port id="0" precision="FP32">
					<dim>64</dim>
					<dim>256</dim>
				</port>
			</output>
		</layer>
		<layer id="302" name="p2o.MatMul.19" type="MatMul" version="opset1">
			<data transpose_a="false" transpose_b="true"/>
			<rt_info>
				<attribute name="fused_names" version="0" value="linear_5.w_0, linear_56.tmp_1, p2o.MatMul.19"/>
			</rt_info>
			<input>
				<port id="0" precision="FP32">
					<dim>1</dim>
					<dim>200</dim>
					<dim>256</dim>
				</port>
				<port id="1" precision="FP32">
					<dim>64</dim>
					<dim>256</dim>
				</port>
			</input>
			<output>
				<port id="2" precision="FP32" names="linear_56.tmp_1,p2o.MatMul.19">
					<dim>1</dim>
					<dim>200</dim>
					<dim>64</dim>
				</port>
			</output>
		</layer>
		<layer id="303" name="tmp_64" type="Add" version="opset1">
			<data auto_broadcast="numpy"/>
			<rt_info>
				<attribute name="fused_names" version="0" value="tmp_64"/>
			</rt_info>
			<input>
				<port id="0" precision="FP32">
					<dim>1</dim>
					<dim>200</dim>
					<dim>64</dim>
				</port>
				<port id="1" precision="FP32">
					<dim>1</dim>
					<dim>200</dim>
					<dim>64</dim>
				</port>
			</input>
			<output>
				<port id="2" precision="FP32" names="tmp_64">
					<dim>1</dim>
					<dim>200</dim>
					<dim>64</dim>
				</port>
			</output>
		</layer>
		<layer id="304" name="Constant_1222" type="Const" version="opset1">
			<data element_type="i64" shape="1" offset="6571568" size="8"/>
			<rt_info>
				<attribute name="fused_names" version="0" value="Constant_1222"/>
			</rt_info>
			<output>
				<port id="0" precision="I64">
					<dim>1</dim>
				</port>
			</output>
		</layer>
		<layer id="305" name="p2o.Div.11" type="MVN" version="opset6">
			<data eps="9.9999999747524271e-07" normalize_variance="true" eps_mode="INSIDE_SQRT"/>
			<rt_info>
				<attribute name="fused_names" version="0" value="p2o.Add.50, p2o.Add.52, p2o.Div.11, p2o.Mul.36, p2o.Pow.5, p2o.ReduceMean.11, p2o.ReduceMean.9, p2o.Sqrt.5, p2o.Sub.13"/>
			</rt_info>
			<input>
				<port id="0" precision="FP32">
					<dim>1</dim>
					<dim>200</dim>
					<dim>64</dim>
				</port>
				<port id="1" precision="I64">
					<dim>1</dim>
				</port>
			</input>
			<output>
				<port id="2" precision="FP32" names="p2o.Add.52,p2o.Div.11,p2o.Mul.36">
					<dim>1</dim>
					<dim>200</dim>
					<dim>64</dim>
				</port>
			</output>
		</layer>
		<layer id="306" name="Constant_5731" type="Const" version="opset1">
			<data element_type="f32" shape="192, 64" offset="8187692" size="49152"/>
			<rt_info>
				<attribute name="fused_names" version="0" value="linear_57.tmp_1, linear_6.w_0, p2o.MatMul.21"/>
			</rt_info>
			<output>
				<port id="0" precision="FP32">
…
		<edge from-layer="246" from-port="4" to-layer="248" to-port="0"/>
		<edge from-layer="247" from-port="0" to-layer="248" to-port="1"/>
		<edge from-layer="248" from-port="2" to-layer="249" to-port="1"/>
		<edge from-layer="249" from-port="2" to-layer="251" to-port="0"/>
		<edge from-layer="250" from-port="0" to-layer="251" to-port="1"/>
		<edge from-layer="251" from-port="2" to-layer="253" to-port="0"/>
		<edge from-layer="252" from-port="0" to-layer="253" to-port="1"/>
		<edge from-layer="253" from-port="2" to-layer="255" to-port="0"/>
		<edge from-layer="253" from-port="2" to-layer="295" to-port="0"/>
		<edge from-layer="254" from-port="0" to-layer="255" to-port="1"/>
		<edge from-layer="255" from-port="2" to-layer="257" to-port="0"/>
		<edge from-layer="256" from-port="0" to-layer="257" to-port="1"/>
		<edge from-layer="257" from-port="2" to-layer="259" to-port="0"/>
		<edge from-layer="258" from-port="0" to-layer="259" to-port="1"/>
		<edge from-layer="259" from-port="2" to-layer="261" to-port="0"/>
		<edge from-layer="260" from-port="0" to-layer="261" to-port="1"/>
		<edge from-layer="261" from-port="2" to-layer="265" to-port="0"/>
		<edge from-layer="261" from-port="2" to-layer="273" to-port="0"/>
		<edge from-layer="261" from-port="2" to-layer="285" to-port="0"/>
		<edge from-layer="262" from-port="0" to-layer="265" to-port="1"/>
		<edge from-layer="263" from-port="0" to-layer="265" to-port="2"/>
		<edge from-layer="264" from-port="0" to-layer="265" to-port="3"/>
		<edge from-layer="265" from-port="4" to-layer="267" to-port="0"/>
		<edge from-layer="266" from-port="0" to-layer="267" to-port="1"/>
		<edge from-layer="267" from-port="2" to-layer="269" to-port="0"/>
		<edge from-layer="268" from-port="0" to-layer="269" to-port="1"/>
		<edge from-layer="269" from-port="2" to-layer="278" to-port="0"/>
		<edge from-layer="270" from-port="0" to-layer="273" to-port="1"/>
		<edge from-layer="271" from-port="0" to-layer="273" to-port="2"/>
		<edge from-layer="272" from-port="0" to-layer="273" to-port="3"/>
		<edge from-layer="273" from-port="4" to-layer="275" to-port="0"/>
		<edge from-layer="274" from-port="0" to-layer="275" to-port="1"/>
		<edge from-layer="275" from-port="2" to-layer="277" to-port="0"/>
		<edge from-layer="276" from-port="0" to-layer="277" to-port="1"/>
		<edge from-layer="277" from-port="2" to-layer="278" to-port="1"/>
		<edge from-layer="278" from-port="2" to-layer="280" to-port="0"/>
		<edge from-layer="279" from-port="0" to-layer="280" to-port="1"/>
		<edge from-layer="280" from-port="2" to-layer="281" to-port="0"/>
		<edge from-layer="281" from-port="1" to-layer="288" to-port="0"/>
		<edge from-layer="282" from-port="0" to-layer="285" to-port="1"/>
		<edge from-layer="283" from-port="0" to-layer="285" to-port="2"/>
		<edge from-layer="284" from-port="0" to-layer="285" to-port="3"/>
		<edge from-layer="285" from-port="4" to-layer="287" to-port="0"/>
		<edge from-layer="286" from-port="0" to-layer="287" to-port="1"/>
		<edge from-layer="287" from-port="2" to-layer="288" to-port="1"/>
		<edge from-layer="288" from-port="2" to-layer="290" to-port="0"/>
		<edge from-layer="289" from-port="0" to-layer="290" to-port="1"/>
		<edge from-layer="290" from-port="2" to-layer="292" to-port="0"/>
		<edge from-layer="291" from-port="0" to-layer="292" to-port="1"/>
		<edge from-layer="292" from-port="2" to-layer="294" to-port="0"/>
		<edge from-layer="293" from-port="0" to-layer="294" to-port="1"/>
		<edge from-layer="294" from-port="2" to-layer="295" to-port="1"/>
		<edge from-layer="295" from-port="2" to-layer="297" to-port="0"/>
		<edge from-layer="295" from-port="2" to-layer="303" to-port="0"/>
		<edge from-layer="296" from-port="0" to-layer="297" to-port="1"/>
		<edge from-layer="297" from-port="2" to-layer="299" to-port="0"/>
		<edge from-layer="298" from-port="0" to-layer="299" to-port="1"/>
		<edge from-layer="299" from-port="2" to-layer="300" to-port="0"/>
		<edge from-layer="300" from-port="1" to-layer="302" to-port="0"/>
		<edge from-layer="301" from-port="0" to-layer="302" to-port="1"/>
		<edge from-layer="302" from-port="2" to-layer="303" to-port="1"/>
		<edge from-layer="303" from-port="2" to-layer="305" to-port="0"/>
		<edge from-layer="303" from-port="2" to-layer="345" to-port="0"/>
		<edge from-layer="304" from-port="0" to-layer="305" to-port="1"/>
		<edge from-layer="305" from-port="2" to-layer="307" to-port="0"/>
		<edge from-layer="306" from-port="0" to-layer="307" to-port="1"/>
		<edge from-layer="307" from-port="2" to-layer="309" to-port="0"/>
		<edge from-layer="308" from-port="0" to-layer="309" to-port="1"/>
		<edge from-layer="309" from-port="2" to-layer="311" to-port="0"/>
		<edge from-layer="310" from-port="0" to-layer="311" to-port="1"/>
		<edge from-layer="311" from-port="2" to-layer="315" to-port="0"/>
		<edge from-layer="311" from-port="2" to-layer="323" to-port="0"/>
		<edge from-layer="311" from-port="2" to-layer="335" to-port="0"/>
		<edge from-layer="312" from-port="0" to-layer="315" to-port="1"/>
		<edge from-layer="313" from-port="0" to-layer="315" to-port="2"/>
		<edge from-layer="314" from-port="0" to-layer="315" to-port="3"/>
		<edge from-layer="315" from-port="4" to-layer="317" to-port="0"/>
		<edge from-layer="316" from-port="0" to-layer="317" to-port="1"/>
		<edge from-layer="317" from-port="2" to-layer="319" to-port="0"/>
		<edge from-layer="318" from-port="0" to-layer="319" to-port="1"/>
		<edge from-layer="319" from-port="2" to-layer="328" to-port="0"/>
		<edge from-layer="320" from-port="0" to-layer="323" to-port="1"/>
		<edge from-layer="321" from-port="0" to-layer="323" to-port="2"/>
		<edge from-layer="322" from-port="0" to-layer="323" to-port="3"/>
		<edge from-layer="323" from-port="4" to-layer="325" to-port="0"/>
		<edge from-layer="324" from-port="0" to-layer="325" to-port="1"/>
		<edge from-layer="325" from-port="2" to-layer="327" to-port="0"/>
		<edge from-layer="326" from-port="0" to-layer="327" to-port="1"/>
		<edge from-layer="327" from-port="2" to-layer="328" to-port="1"/>
		<edge from-layer="328" from-port="2" to-layer="330" to-port="0"/>
		<edge from-layer="329" from-port="0" to-layer="330" to-port="1"/>
		<edge from-layer="330" from-port="2" to-layer="331" to-port="0"/>
		<edge from-layer="331" from-port="1" to-layer="338" to-port="0"/>
		<edge from-layer="332" from-port="0" to-layer="335" to-port="1"/>
		<edge from-layer="333" from-port="0" to-layer="335" to-port="2"/>
		<edge from-layer="334" from-port="0" to-layer="335" to-port="3"/>
		<edge from-layer="335" from-port="4" to-layer="337" to-port="0"/>
		<edge from-layer="336" from-port="0" to-layer="337" to-port="1"/>
		<edge from-layer="337" from-port="2" to-layer="338" to-port="1"/>
		<edge from-layer="338" from-port="2" to-layer="340" to-port="0"/>
		<edge from-layer="339" from-port="0" to-layer="340" to-port="1"/>
		<edge from-layer="340" from-port="2" to-layer="342" to-port="0"/>
		<edge from-layer="341" from-port="0" to-layer="342" to-port="1"/>
		<edge from-layer="342" from-port="2" to-layer="344" to-port="0"/>
		<edge from-layer="343" from-port="0" to-layer="344" to-port="1"/>
		<edge from-layer="344" from-port="2" to-layer="345" to-port="1"/>
		<edge from-layer="345" from-port="2" to-layer="347" to-port="0"/>
		<edge from-layer="345" from-port="2" to-layer="353" to-port="0"/>
		<edge from-layer="346" from-port="0" to-layer="347" to-port="1"/>
		<edge from-layer="347" from-port="2" to-layer="349" to-port="0"/>
		<edge from-layer="348" from-port="0" to-layer="349" to-port="1"/>
		<edge from-layer="349" from-port="2" to-layer="350" to-port="0"/>
		<edge from-layer="350" from-port="1" to-layer="352" to-port="0"/>
		<edge from-layer="351" from-port="0" to-layer="352" to-port="1"/>
		<edge from-layer="352" from-port="2" to-layer="353" to-port="1"/>
		<edge from-layer="353" from-port="2" to-layer="355" to-port="0"/>
		<edge from-layer="353" from-port="2" to-layer="395" to-port="0"/>
		<edge from-layer="354" from-port="0" to-layer="355" to-port="1"/>
		<edge from-layer="355" from-port="2" to-layer="357" to-port="0"/>
		<edge from-layer="356" from-port="0" to-layer="357" to-port="1"/>
		<edge from-layer="357" from-port="2" to-layer="359" to-port="0"/>
		<edge from-layer="358" from-port="0" to-layer="359" to-port="1"/>
		<edge from-layer="359" from-port="2" to-layer="361" to-port="0"/>
		<edge from-layer="360" from-port="0" to-layer="361" to-port="1"/>
		<edge from-layer="361" from-port="2" to-layer="365" to-port="0"/>
		<edge from-layer="361" from-port="2" to-layer="373" to-port="0"/>
		<edge from-layer="361" from-port="2" to-layer="385" to-port="0"/>
		<edge from-layer="362" from-port="0" to-layer="365" to-port="1"/>
		<edge from-layer="363" from-port="0" to-layer="365" to-port="2"/>
		<edge from-layer="364" from-port="0" to-layer="365" to-port="3"/>
		<edge from-layer="365" from-port="4" to-layer="367" to-port="0"/>
		<edge from-layer="366" from-port="0" to-layer="367" to-port="1"/>
		<edge from-layer="367" from-port="2" to-layer="369" to-port="0"/>
		<edge from-layer="368" from-port="0" to-layer="369" to-port="1"/>
		<edge from-layer="369" from-port="2" to-layer="378" to-port="0"/>
		<edge from-layer="370" from-port="0" to-layer="373" to-port="1"/>
		<edge from-layer="371" from-port="0" to-layer="373" to-port="2"/>
		<edge from-layer="372" from-port="0" to-layer="373" to-port="3"/>
		<edge from-layer="373" from-port="4" to-layer="375" to-port="0"/>
		<edge from-layer="374" from-port="0" to-layer="375" to-port="1"/>
		<edge from-layer="375" from-port="2" to-layer="377" to-port="0"/>
		<edge from-layer="376" from-port="0" to-layer="377" to-port="1"/>
		<edge from-layer="377" from-port="2" to-layer="378" to-port="1"/>
		<edge from-layer="378" from-port="2" to-layer="380" to-port="0"/>
		<edge from-layer="379" from-port="0" to-layer="380" to-port="1"/>
		<edge from-layer="380" from-port="2" to-layer="381" to-port="0"/>
		<edge from-layer="381" from-port="1" to-layer="388" to-port="0"/>
		<edge from-layer="382" from-port="0" to-layer="385" to-port="1"/>
		<edge from-layer="383" from-port="0" to-layer="385" to-port="2"/>
		<edge from-layer="384" from-port="0" to-layer="385" to-port="3"/>
		<edge from-layer="385" from-port="4" to-layer="387" to-port="0"/>
		<edge from-layer="386" from-port="0" to-layer="387" to-port="1"/>
		<edge from-layer="387" from-port="2" to-layer="388" to-port="1"/>
		<edge from-layer="388" from-port="2" to-layer="390" to-port="0"/>
		<edge from-layer="389" from-port="0" to-layer="390" to-port="1"/>
		<edge from-layer="390" from-port="2" to-layer="392" to-port="0"/>
		<edge from-layer="391" from-port="0" to-layer="392" to-port="1"/>
		<edge from-layer="392" from-port="2" to-layer="394" to-port="0"/>
		<edge from-layer="393" from-port="0" to-layer="394" to-port="1"/>
		<edge from-layer="394" from-port="2" to-layer="395" to-port="1"/>
		<edge from-layer="395" from-port="2" to-layer="397" to-port="0"/>
		<edge from-layer="395" from-port="2" to-layer="403" to-port="0"/>
		<edge from-layer="396" from-port="0" to-layer="397" to-port="1"/>
		<edge from-layer="397" from-port="2" to-layer="399" to-port="0"/>
		<edge from-layer="398" from-port="0" to-layer="399" to-port="1"/>
		<edge from-layer="399" from-port="2" to-layer="400" to-port="0"/>
		<edge from-layer="400" from-port="1" to-layer="402" to-port="0"/>
		<edge from-layer="401" from-port="0" to-layer="402" to-port="1"/>
		<edge from-layer="402" from-port="2" to-layer="403" to-port="1"/>
		<edge from-layer="403" from-port="2" to-layer="405" to-port="0"/>
		<edge from-layer="404" from-port="0" to-layer="405" to-port="1"/>
		<edge from-layer="405" from-port="2" to-layer="407" to-port="0"/>
		<edge from-layer="406" from-port="0" to-layer="407" to-port="1"/>
		<edge from-layer="407" from-port="2" to-layer="409" to-port="0"/>
		<edge from-layer="408" from-port="0" to-layer="409" to-port="1"/>
		<edge from-layer="409" from-port="2" to-layer="410" to-port="0"/>
		<edge from-layer="409" from-port="2" to-layer="417" to-port="0"/>
		<edge from-layer="410" from-port="1" to-layer="414" to-port="0"/>
		<edge from-layer="411" from-port="0" to-layer="414" to-port="1"/>
		<edge from-layer="412" from-port="0" to-layer="414" to-port="2"/>
		<edge from-layer="413" from-port="0" to-layer="414" to-port="3"/>
		<edge from-layer="414" from-port="4" to-layer="416" to-port="0"/>
		<edge from-layer="415" from-port="0" to-layer="416" to-port="1"/>
		<edge from-layer="416" from-port="2" to-layer="417" to-port="1"/>
		<edge from-layer="417" from-port="2" to-layer="419" to-port="0"/>
		<edge from-layer="418" from-port="0" to-layer="419" to-port="1"/>
		<edge from-layer="419" from-port="2" to-layer="421" to-port="0"/>
		<edge from-layer="420" from-port="0" to-layer="421" to-port="1"/>
		<edge from-layer="421" from-port="2" to-layer="423" to-port="0"/>
		<edge from-layer="421" from-port="2" to-layer="463" to-port="0"/>
		<edge from-layer="422" from-port="0" to-layer="423" to-port="1"/>
		<edge from-layer="423" from-port="2" to-layer="425" to-port="0"/>
		<edge from-layer="424" from-port="0" to-layer="425" to-port="1"/>
		<edge from-layer="425" from-port="2" to-layer="427" to-port="0"/>
		<edge from-layer="426" from-port="0" to-layer="427" to-port="1"/>
		<edge from-layer="427" from-port="2" to-layer="429" to-port="0"/>
		<edge from-layer="428" from-port="0" to-layer="429" to-port="1"/>
		<edge from-layer="429" from-port="2" to-layer="441" to-port="0"/>
		<edge from-layer="429" from-port="2" to-layer="433" to-port="0"/>
		<edge from-layer="429" from-port="2" to-layer="453" to-port="0"/>
		<edge from-layer="430" from-port="0" to-layer="433" to-port="1"/>
		<edge from-layer="431" from-port="0" to-layer="433" to-port="2"/>
		<edge from-layer="432" from-port="0" to-layer="433" to-port="3"/>
		<edge from-layer="433" from-port="4" to-layer="435" to-port="0"/>
		<edge from-layer="434" from-port="0" to-layer="435" to-port="1"/>
		<edge from-layer="435" from-port="2" to-layer="437" to-port="0"/>
		<edge from-layer="436" from-port="0" to-layer="437" to-port="1"/>
		<edge from-layer="437" from-port="2" to-layer="446" to-port="0"/>
		<edge from-layer="438" from-port="0" to-layer="441" to-port="1"/>
		<edge from-layer="439" from-port="0" to-layer="441" to-port="2"/>
		<edge from-layer="440" from-port="0" to-layer="441" to-port="3"/>
		<edge from-layer="441" from-port="4" to-layer="443" to-port="0"/>
		<edge from-layer="442" from-port="0" to-layer="443" to-port="1"/>
		<edge from-layer="443" from-port="2" to-layer="445" to-port="0"/>
		<edge from-layer="444" from-port="0" to-layer="445" to-port="1"/>
		<edge from-layer="445" from-port="2" to-layer="446" to-port="1"/>
		<edge from-layer="446" from-port="2" to-layer="448" to-port="0"/>
		<edge from-layer="447" from-port="0" to-layer="448" to-port="1"/>
		<edge from-layer="448" from-port="2" to-layer="449" to-port="0"/>
		<edge from-layer="449" from-port="1" to-layer="456" to-port="0"/>
		<edge from-layer="450" from-port="0" to-layer="453" to-port="1"/>
		<edge from-layer="451" from-port="0" to-layer="453" to-port="2"/>
		<edge from-layer="452" from-port="0" to-layer="453" to-port="3"/>
		<edge from-layer="453" from-port="4" to-layer="455" to-port="0"/>
		<edge from-layer="454" from-port="0" to-layer="455" to-port="1"/>
		<edge from-layer="455" from-port="2" to-layer="456" to-port="1"/>
		<edge from-layer="456" from-port="2" to-layer="458" to-port="0"/>
		<edge from-layer="457" from-port="0" to-layer="458" to-port="1"/>
		<edge from-layer="458" from-port="2" to-layer="460" to-port="0"/>
		<edge from-layer="459" from-port="0" to-layer="460" to-port="1"/>
		<edge from-layer="460" from-port="2" to-layer="462" to-port="0"/>
		<edge from-layer="461" from-port="0" to-layer="462" to-port="1"/>
		<edge from-layer="462" from-port="2" to-layer="463" to-port="1"/>
		<edge from-layer="463" from-port="2" to-layer="465" to-port="0"/>
		<edge from-layer="463" from-port="2" to-layer="471" to-port="0"/>
		<edge from-layer="464" from-port="0" to-layer="465" to-port="1"/>
		<edge from-layer="465" from-port="2" to-layer="467" to-port="0"/>
		<edge from-layer="466" from-port="0" to-layer="467" to-port="1"/>
		<edge from-layer="467" from-port="2" to-layer="468" to-port="0"/>
		<edge from-layer="468" from-port="1" to-layer="470" to-port="0"/>
		<edge from-layer="469" from-port="0" to-layer="470" to-port="1"/>
		<edge from-layer="470" from-port="2" to-layer="471" to-port="1"/>
		<edge from-layer="471" from-port="2" to-layer="473" to-port="0"/>
		<edge from-layer="471" from-port="2" to-layer="513" to-port="0"/>
		<edge from-layer="472" from-port="0" to-layer="473" to-port="1"/>
		<edge from-layer="473" from-port="2" to-layer="475" to-port="0"/>
		<edge from-layer="474" from-port="0" to-layer="475" to-port="1"/>
		<edge from-layer="475" from-port="2" to-layer="477" to-port="0"/>
		<edge from-layer="476" from-port="0" to-layer="477" to-port="1"/>
		<edge from-layer="477" from-port="2" to-layer="479" to-port="0"/>
		<edge from-layer="478" from-port="0" to-layer="479" to-port="1"/>
		<edge from-layer="479" from-port="2" to-layer="483" to-port="0"/>
		<edge from-layer="479" from-port="2" to-layer="491" to-port="0"/>
		<edge from-layer="479" from-port="2" to-layer="503" to-port="0"/>
		<edge from-layer="480" from-port="0" to-layer="483" to-port="1"/>
		<edge from-layer="481" from-port="0" to-layer="483" to-port="2"/>
		<edge from-layer="482" from-port="0" to-layer="483" to-port="3"/>
		<edge from-layer="483" from-port="4" to-layer="485" to-port="0"/>
		<edge from-layer="484" from-port="0" to-layer="485" to-port="1"/>
		<edge from-layer="485" from-port="2" to-layer="487" to-port="0"/>
		<edge from-layer="486" from-port="0" to-layer="487" to-port="1"/>
		<edge from-layer="487" from-port="2" to-layer="496" to-port="0"/>
		<edge from-layer="488" from-port="0" to-layer="491" to-port="1"/>
		<edge from-layer="489" from-port="0" to-layer="491" to-port="2"/>
		<edge from-layer="490" from-port="0" to-layer="491" to-port="3"/>
		<edge from-layer="491" from-port="4" to-layer="493" to-port="0"/>
		<edge from-layer="492" from-port="0" to-layer="493" to-port="1"/>
		<edge from-layer="493" from-port="2" to-layer="495" to-port="0"/>
		<edge from-layer="494" from-port="0" to-layer="495" to-port="1"/>
		<edge from-layer="495" from-port="2" to-layer="496" to-port="1"/>
		<edge from-layer="496" from-port="2" to-layer="498" to-port="0"/>
		<edge from-layer="497" from-port="0" to-layer="498" to-port="1"/>
		<edge from-layer="498" from-port="2" to-layer="499" to-port="0"/>
		<edge from-layer="499" from-port="1" to-layer="506" to-port="0"/>
		<edge from-layer="500" from-port="0" to-layer="503" to-port="1"/>
		<edge from-layer="501" from-port="0" to-layer="503" to-port="2"/>
		<edge from-layer="502" from-port="0" to-layer="503" to-port="3"/>
		<edge from-layer="503" from-port="4" to-layer="505" to-port="0"/>
		<edge from-layer="504" from-port="0" to-layer="505" to-port="1"/>
		<edge from-layer="505" from-port="2" to-layer="506" to-port="1"/>
		<edge from-layer="506" from-port="2" to-layer="508" to-port="0"/>
		<edge from-layer="507" from-port="0" to-layer="508" to-port="1"/>
		<edge from-layer="508" from-port="2" to-layer="510" to-port="0"/>
		<edge from-layer="509" from-port="0" to-layer="510" to-port="1"/>
		<edge from-layer="510" from-port="2" to-layer="512" to-port="0"/>
		<edge from-layer="511" from-port="0" to-layer="512" to-port="1"/>
		<edge from-layer="512" from-port="2" to-layer="513" to-port="1"/>
		<edge from-layer="513" from-port="2" to-layer="515" to-port="0"/>
		<edge from-layer="513" from-port="2" to-layer="521" to-port="0"/>
		<edge from-layer="514" from-port="0" to-layer="515" to-port="1"/>
		<edge from-layer="515" from-port="2" to-layer="517" to-port="0"/>
		<edge from-layer="516" from-port="0" to-layer="517" to-port="1"/>
		<edge from-layer="517" from-port="2" to-layer="518" to-port="0"/>
		<edge from-layer="518" from-port="1" to-layer="520" to-port="0"/>
		<edge from-layer="519" from-port="0" to-layer="520" to-port="1"/>
		<edge from-layer="520" from-port="2" to-layer="521" to-port="1"/>
		<edge from-layer="521" from-port="2" to-layer="523" to-port="0"/>
		<edge from-layer="521" from-port="2" to-layer="563" to-port="0"/>
		<edge from-layer="522" from-port="0" to-layer="523" to-port="1"/>
		<edge from-layer="523" from-port="2" to-layer="525" to-port="0"/>
		<edge from-layer="524" from-port="0" to-layer="525" to-port="1"/>
		<edge from-layer="525" from-port="2" to-layer="527" to-port="0"/>
		<edge from-layer="526" from-port="0" to-layer="527" to-port="1"/>
		<edge from-layer="527" from-port="2" to-layer="529" to-port="0"/>
		<edge from-layer="528" from-port="0" to-layer="529" to-port="1"/>
		<edge from-layer="529" from-port="2" to-layer="533" to-port="0"/>
		<edge from-layer="529" from-port="2" to-layer="553" to-port="0"/>
		<edge from-layer="529" from-port="2" to-layer="541" to-port="0"/>
		<edge from-layer="530" from-port="0" to-layer="533" to-port="1"/>
		<edge from-layer="531" from-port="0" to-layer="533" to-port="2"/>
		<edge from-layer="532" from-port="0" to-layer="533" to-port="3"/>
		<edge from-layer="533" from-port="4" to-layer="535" to-port="0"/>
		<edge from-layer="534" from-port="0" to-layer="535" to-port="1"/>
		<edge from-layer="535" from-port="2" to-layer="537" to-port="0"/>
		<edge from-layer="536" from-port="0" to-layer="537" to-port="1"/>
		<edge from-layer="537" from-port="2" to-layer="546" to-port="0"/>
		<edge from-layer="538" from-port="0" to-layer="541" to-port="1"/>
		<edge from-layer="539" from-port="0" to-layer="541" to-port="2"/>
		<edge from-layer="540" from-port="0" to-layer="541" to-port="3"/>
		<edge from-layer="541" from-port="4" to-layer="543" to-port="0"/>
		<edge from-layer="542" from-port="0" to-layer="543" to-port="1"/>
		<edge from-layer="543" from-port="2" to-layer="545" to-port="0"/>
		<edge from-layer="544" from-port="0" to-layer="545" to-port="1"/>
		<edge from-layer="545" from-port="2" to-layer="546" to-port="1"/>
		<edge from-layer="546" from-port="2" to-layer="548" to-port="0"/>
		<edge from-layer="547" from-port="0" to-layer="548" to-port="1"/>
		<edge from-layer="548" from-port="2" to-layer="549" to-port="0"/>
		<edge from-layer="549" from-port="1" to-layer="556" to-port="0"/>
		<edge from-layer="550" from-port="0" to-layer="553" to-port="1"/>
		<edge from-layer="551" from-port="0" to-layer="553" to-port="2"/>
		<edge from-layer="552" from-port="0" to-layer="553" to-port="3"/>
		<edge from-layer="553" from-port="4" to-layer="555" to-port="0"/>
		<edge from-layer="554" from-port="0" to-layer="555" to-port="1"/>
		<edge from-layer="555" from-port="2" to-layer="556" to-port="1"/>
		<edge from-layer="556" from-port="2" to-layer="558" to-port="0"/>
		<edge from-layer="557" from-port="0" to-layer="558" to-port="1"/>
		<edge from-layer="558" from-port="2" to-layer="560" to-port="0"/>
		<edge from-layer="559" from-port="0" to-layer="560" to-port="1"/>
		<edge from-layer="560" from-port="2" to-layer="562" to-port="0"/>
		<edge from-layer="561" from-port="0" to-layer="562" to-port="1"/>
		<edge from-layer="562" from-port="2" to-layer="563" to-port="1"/>
		<edge from-layer="563" from-port="2" to-layer="565" to-port="0"/>
		<edge from-layer="563" from-port="2" to-layer="571" to-port="0"/>
		<edge from-layer="564" from-port="0" to-layer="565" to-port="1"/>
		<edge from-layer="565" from-port="2" to-layer="567" to-port="0"/>
		<edge from-layer="566" from-port="0" to-layer="567" to-port="1"/>
		<edge from-layer="567" from-port="2" to-layer="568" to-port="0"/>
		<edge from-layer="568" from-port="1" to-layer="570" to-port="0"/>
		<edge from-layer="569" from-port="0" to-layer="570" to-port="1"/>
		<edge from-layer="570" from-port="2" to-layer="571" to-port="1"/>
		<edge from-layer="571" from-port="2" to-layer="573" to-port="0"/>
		<edge from-layer="571" from-port="2" to-layer="611" to-port="0"/>
		<edge from-layer="572" from-port="0" to-layer="573" to-port="1"/>
		<edge from-layer="573" from-port="2" to-layer="575" to-port="0"/>
		<edge from-layer="574" from-port="0" to-layer="575" to-port="1"/>
		<edge from-layer="575" from-port="2" to-layer="577" to-port="0"/>
		<edge from-layer="576" from-port="0" to-layer="577" to-port="1"/>
		<edge from-layer="577" from-port="2" to-layer="579" to-port="0"/>
		<edge from-layer="578" from-port="0" to-layer="579" to-port="1"/>
		<edge from-layer="579" from-port="2" to-layer="583" to-port="0"/>
		<edge from-layer="579" from-port="2" to-layer="591" to-port="0"/>
		<edge from-layer="579" from-port="2" to-layer="601" to-port="0"/>
		<edge from-layer="580" from-port="0" to-layer="583" to-port="1"/>
		<edge from-layer="581" from-port="0" to-layer="583" to-port="2"/>
		<edge from-layer="582" from-port="0" to-layer="583" to-port="3"/>
		<edge from-layer="583" from-port="4" to-layer="585" to-port="0"/>
		<edge from-layer="584" from-port="0" to-layer="585" to-port="1"/>
		<edge from-layer="585" from-port="2" to-layer="587" to-port="0"/>
		<edge from-layer="586" from-port="0" to-layer="587" to-port="1"/>
		<edge from-layer="587" from-port="2" to-layer="596" to-port="0"/>
		<edge from-layer="588" from-port="0" to-layer="591" to-port="1"/>
		<edge from-layer="589" from-port="0" to-layer="591" to-port="2"/>
		<edge from-layer="590" from-port="0" to-layer="591" to-port="3"/>
		<edge from-layer="591" from-port="4" to-layer="593" to-port="0"/>
		<edge from-layer="592" from-port="0" to-layer="593" to-port="1"/>
		<edge from-layer="593" from-port="2" to-layer="595" to-port="0"/>
		<edge from-layer="594" from-port="0" to-layer="595" to-port="1"/>
		<edge from-layer="595" from-port="2" to-layer="596" to-port="1"/>
		<edge from-layer="596" from-port="2" to-layer="597" to-port="0"/>
		<edge from-layer="597" from-port="1" to-layer="604" to-port="0"/>
		<edge from-layer="598" from-port="0" to-layer="601" to-port="1"/>
		<edge from-layer="599" from-port="0" to-layer="601" to-port="2"/>
		<edge from-layer="600" from-port="0" to-layer="601" to-port="3"/>
		<edge from-layer="601" from-port="4" to-layer="603" to-port="0"/>
		<edge from-layer="602" from-port="0" to-layer="603" to-port="1"/>
		<edge from-layer="603" from-port="2" to-layer="604" to-port="1"/>
		<edge from-layer="604" from-port="2" to-layer="606" to-port="0"/>
		<edge from-layer="605" from-port="0" to-layer="606" to-port="1"/>
		<edge from-layer="606" from-port="2" to-layer="608" to-port="0"/>
		<edge from-layer="607" from-port="0" to-layer="608" to-port="1"/>
		<edge from-layer="608" from-port="2" to-layer="610" to-port="0"/>
		<edge from-layer="609" from-port="0" to-layer="610" to-port="1"/>
		<edge from-layer="610" from-port="2" to-layer="611" to-port="1"/>
		<edge from-layer="611" from-port="2" to-layer="613" to-port="0"/>
		<edge from-layer="611" from-port="2" to-layer="619" to-port="0"/>
		<edge from-layer="612" from-port="0" to-layer="613" to-port="1"/>
		<edge from-layer="613" from-port="2" to-layer="615" to-port="0"/>
		<edge from-layer="614" from-port="0" to-layer="615" to-port="1"/>
		<edge from-layer="615" from-port="2" to-layer="616" to-port="0"/>
		<edge from-layer="616" from-port="1" to-layer="618" to-port="0"/>
		<edge from-layer="617" from-port="0" to-layer="618" to-port="1"/>
		<edge from-layer="618" from-port="2" to-layer="619" to-port="1"/>
		<edge from-layer="619" from-port="2" to-layer="621" to-port="0"/>
		<edge from-layer="619" from-port="2" to-layer="659" to-port="0"/>
		<edge from-layer="620" from-port="0" to-layer="621" to-port="1"/>
		<edge from-layer="621" from-port="2" to-layer="623" to-port="0"/>
		<edge from-layer="622" from-port="0" to-layer="623" to-port="1"/>
		<edge from-layer="623" from-port="2" to-layer="625" to-port="0"/>
		<edge from-layer="624" from-port="0" to-layer="625" to-port="1"/>
		<edge from-layer="625" from-port="2" to-layer="627" to-port="0"/>
		<edge from-layer="626" from-port="0" to-layer="627" to-port="1"/>
		<edge from-layer="627" from-port="2" to-layer="631" to-port="0"/>
		<edge from-layer="627" from-port="2" to-layer="639" to-port="0"/>
		<edge from-layer="627" from-port="2" to-layer="649" to-port="0"/>
		<edge from-layer="628" from-port="0" to-layer="631" to-port="1"/>
		<edge from-layer="629" from-port="0" to-layer="631" to-port="2"/>
		<edge from-layer="630" from-port="0" to-layer="631" to-port="3"/>
		<edge from-layer="631" from-port="4" to-layer="633" to-port="0"/>
		<edge from-layer="632" from-port="0" to-layer="633" to-port="1"/>
		<edge from-layer="633" from-port="2" to-layer="635" to-port="0"/>
		<edge from-layer="634" from-port="0" to-layer="635" to-port="1"/>
		<edge from-layer="635" from-port="2" to-layer="644" to-port="0"/>
		<edge from-layer="636" from-port="0" to-layer="639" to-port="1"/>
		<edge from-layer="637" from-port="0" to-layer="639" to-port="2"/>
		<edge from-layer="638" from-port="0" to-layer="639" to-port="3"/>
		<edge from-layer="639" from-port="4" to-layer="641" to-port="0"/>
		<edge from-layer="640" from-port="0" to-layer="641" to-port="1"/>
		<edge from-layer="641" from-port="2" to-layer="643" to-port="0"/>
		<edge from-layer="642" from-port="0" to-layer="643" to-port="1"/>
		<edge from-layer="643" from-port="2" to-layer="644" to-port="1"/>
		<edge from-layer="644" from-port="2" to-layer="645" to-port="0"/>
		<edge from-layer="645" from-port="1" to-layer="652" to-port="0"/>
		<edge from-layer="646" from-port="0" to-layer="649" to-port="1"/>
		<edge from-layer="647" from-port="0" to-layer="649" to-port="2"/>
		<edge from-layer="648" from-port="0" to-layer="649" to-port="3"/>
		<edge from-layer="649" from-port="4" to-layer="651" to-port="0"/>
		<edge from-layer="650" from-port="0" to-layer="651" to-port="1"/>
		<edge from-layer="651" from-port="2" to-layer="652" to-port="1"/>
		<edge from-layer="652" from-port="2" to-layer="654" to-port="0"/>
		<edge from-layer="653" from-port="0" to-layer="654" to-port="1"/>
		<edge from-layer="654" from-port="2" to-layer="656" to-port="0"/>
		<edge from-layer="655" from-port="0" to-layer="656" to-port="1"/>
		<edge from-layer="656" from-port="2" to-layer="658" to-port="0"/>
		<edge from-layer="657" from-port="0" to-layer="658" to-port="1"/>
		<edge from-layer="658" from-port="2" to-layer="659" to-port="1"/>
		<edge from-layer="659" from-port="2" to-layer="661" to-port="0"/>
		<edge from-layer="659" from-port="2" to-layer="667" to-port="0"/>
		<edge from-layer="660" from-port="0" to-layer="661" to-port="1"/>
		<edge from-layer="661" from-port="2" to-layer="663" to-port="0"/>
		<edge from-layer="662" from-port="0" to-layer="663" to-port="1"/>
		<edge from-layer="663" from-port="2" to-layer="664" to-port="0"/>
		<edge from-layer="664" from-port="1" to-layer="666" to-port="0"/>
		<edge from-layer="665" from-port="0" to-layer="666" to-port="1"/>
		<edge from-layer="666" from-port="2" to-layer="667" to-port="1"/>
		<edge from-layer="667" from-port="2" to-layer="669" to-port="0"/>
		<edge from-layer="667" from-port="2" to-layer="707" to-port="0"/>
		<edge from-layer="668" from-port="0" to-layer="669" to-port="1"/>
		<edge from-layer="669" from-port="2" to-layer="671" to-port="0"/>
		<edge from-layer="670" from-port="0" to-layer="671" to-port="1"/>
		<edge from-layer="671" from-port="2" to-layer="673" to-port="0"/>
		<edge from-layer="672" from-port="0" to-layer="673" to-port="1"/>
		<edge from-layer="673" from-port="2" to-layer="675" to-port="0"/>
		<edge from-layer="674" from-port="0" to-layer="675" to-port="1"/>
		<edge from-layer="675" from-port="2" to-layer="679" to-port="0"/>
		<edge from-layer="675" from-port="2" to-layer="687" to-port="0"/>
		<edge from-layer="675" from-port="2" to-layer="697" to-port="0"/>
		<edge from-layer="676" from-port="0" to-layer="679" to-port="1"/>
		<edge from-layer="677" from-port="0" to-layer="679" to-port="2"/>
		<edge from-layer="678" from-port="0" to-layer="679" to-port="3"/>
		<edge from-layer="679" from-port="4" to-layer="681" to-port="0"/>
		<edge from-layer="680" from-port="0" to-layer="681" to-port="1"/>
		<edge from-layer="681" from-port="2" to-layer="683" to-port="0"/>
		<edge from-layer="682" from-port="0" to-layer="683" to-port="1"/>
		<edge from-layer="683" from-port="2" to-layer="692" to-port="0"/>
		<edge from-layer="684" from-port="0" to-layer="687" to-port="1"/>
		<edge from-layer="685" from-port="0" to-layer="687" to-port="2"/>
		<edge from-layer="686" from-port="0" to-layer="687" to-port="3"/>
		<edge from-layer="687" from-port="4" to-layer="689" to-port="0"/>
		<edge from-layer="688" from-port="0" to-layer="689" to-port="1"/>
		<edge from-layer="689" from-port="2" to-layer="691" to-port="0"/>
		<edge from-layer="690" from-port="0" to-layer="691" to-port="1"/>
		<edge from-layer="691" from-port="2" to-layer="692" to-port="1"/>
		<edge from-layer="692" from-port="2" to-layer="693" to-port="0"/>
		<edge from-layer="693" from-port="1" to-layer="700" to-port="0"/>
		<edge from-layer="694" from-port="0" to-layer="697" to-port="1"/>
		<edge from-layer="695" from-port="0" to-layer="697" to-port="2"/>
		<edge from-layer="696" from-port="0" to-layer="697" to-port="3"/>
		<edge from-layer="697" from-port="4" to-layer="699" to-port="0"/>
		<edge from-layer="698" from-port="0" to-layer="699" to-port="1"/>
		<edge from-layer="699" from-port="2" to-layer="700" to-port="1"/>
		<edge from-layer="700" from-port="2" to-layer="702" to-port="0"/>
		<edge from-layer="701" from-port="0" to-layer="702" to-port="1"/>
		<edge from-layer="702" from-port="2" to-layer="704" to-port="0"/>
		<edge from-layer="703" from-port="0" to-layer="704" to-port="1"/>
		<edge from-layer="704" from-port="2" to-layer="706" to-port="0"/>
		<edge from-layer="705" from-port="0" to-layer="706" to-port="1"/>
		<edge from-layer="706" from-port="2" to-layer="707" to-port="1"/>
		<edge from-layer="707" from-port="2" to-layer="709" to-port="0"/>
		<edge from-layer="707" from-port="2" to-layer="715" to-port="0"/>
		<edge from-layer="708" from-port="0" to-layer="709" to-port="1"/>
		<edge from-layer="709" from-port="2" to-layer="711" to-port="0"/>
		<edge from-layer="710" from-port="0" to-layer="711" to-port="1"/>
		<edge from-layer="711" from-port="2" to-layer="712" to-port="0"/>
		<edge from-layer="712" from-port="1" to-layer="714" to-port="0"/>
		<edge from-layer="713" from-port="0" to-layer="714" to-port="1"/>
		<edge from-layer="714" from-port="2" to-layer="715" to-port="1"/>
		<edge from-layer="715" from-port="2" to-layer="717" to-port="0"/>
		<edge from-layer="716" from-port="0" to-layer="717" to-port="1"/>
		<edge from-layer="717" from-port="2" to-layer="719" to-port="0"/>
		<edge from-layer="718" from-port="0" to-layer="719" to-port="1"/>
		<edge from-layer="719" from-port="2" to-layer="721" to-port="0"/>
		<edge from-layer="720" from-port="0" to-layer="721" to-port="1"/>
		<edge from-layer="721" from-port="2" to-layer="722" to-port="0"/>
		<edge from-layer="721" from-port="2" to-layer="729" to-port="0"/>
		<edge from-layer="722" from-port="1" to-layer="726" to-port="0"/>
		<edge from-layer="723" from-port="0" to-layer="726" to-port="1"/>
		<edge from-layer="724" from-port="0" to-layer="726" to-port="2"/>
		<edge from-layer="725" from-port="0" to-layer="726" to-port="3"/>
		<edge from-layer="726" from-port="4" to-layer="728" to-port="0"/>
		<edge from-layer="727" from-port="0" to-layer="728" to-port="1"/>
		<edge from-layer="728" from-port="2" to-layer="729" to-port="1"/>
		<edge from-layer="729" from-port="2" to-layer="731" to-port="0"/>
		<edge from-layer="730" from-port="0" to-layer="731" to-port="1"/>
		<edge from-layer="731" from-port="2" to-layer="733" to-port="0"/>
		<edge from-layer="732" from-port="0" to-layer="733" to-port="1"/>
		<edge from-layer="733" from-port="2" to-layer="735" to-port="0"/>
		<edge from-layer="733" from-port="2" to-layer="773" to-port="0"/>
		<edge from-layer="734" from-port="0" to-layer="735" to-port="1"/>
		<edge from-layer="735" from-port="2" to-layer="737" to-port="0"/>
		<edge from-layer="736" from-port="0" to-layer="737" to-port="1"/>
		<edge from-layer="737" from-port="2" to-layer="739" to-port="0"/>
		<edge from-layer="738" from-port="0" to-layer="739" to-port="1"/>
		<edge from-layer="739" from-port="2" to-layer="741" to-port="0"/>
		<edge from-layer="740" from-port="0" to-layer="741" to-port="1"/>
		<edge from-layer="741" from-port="2" to-layer="745" to-port="0"/>
		<edge from-layer="741" from-port="2" to-layer="753" to-port="0"/>
		<edge from-layer="741" from-port="2" to-layer="763" to-port="0"/>
		<edge from-layer="742" from-port="0" to-layer="745" to-port="1"/>
		<edge from-layer="743" from-port="0" to-layer="745" to-port="2"/>
		<edge from-layer="744" from-port="0" to-layer="745" to-port="3"/>
		<edge from-layer="745" from-port="4" to-layer="747" to-port="0"/>
		<edge from-layer="746" from-port="0" to-layer="747" to-port="1"/>
		<edge from-layer="747" from-port="2" to-layer="749" to-port="0"/>
		<edge from-layer="748" from-port="0" to-layer="749" to-port="1"/>
		<edge from-layer="749" from-port="2" to-layer="758" to-port="0"/>
		<edge from-layer="750" from-port="0" to-layer="753" to-port="1"/>
		<edge from-layer="751" from-port="0" to-layer="753" to-port="2"/>
		<edge from-layer="752" from-port="0" to-layer="753" to-port="3"/>
		<edge from-layer="753" from-port="4" to-layer="755" to-port="0"/>
		<edge from-layer="754" from-port="0" to-layer="755" to-port="1"/>
		<edge from-layer="755" from-port="2" to-layer="757" to-port="0"/>
		<edge from-layer="756" from-port="0" to-layer="757" to-port="1"/>
		<edge from-layer="757" from-port="2" to-layer="758" to-port="1"/>
		<edge from-layer="758" from-port="2" to-layer="759" to-port="0"/>
		<edge from-layer="759" from-port="1" to-layer="766" to-port="0"/>
		<edge from-layer="760" from-port="0" to-layer="763" to-port="1"/>
		<edge from-layer="761" from-port="0" to-layer="763" to-port="2"/>
		<edge from-layer="762" from-port="0" to-layer="763" to-port="3"/>
		<edge from-layer="763" from-port="4" to-layer="765" to-port="0"/>
		<edge from-layer="764" from-port="0" to-layer="765" to-port="1"/>
		<edge from-layer="765" from-port="2" to-layer="766" to-port="1"/>
		<edge from-layer="766" from-port="2" to-layer="768" to-port="0"/>
		<edge from-layer="767" from-port="0" to-layer="768" to-port="1"/>
		<edge from-layer="768" from-port="2" to-layer="770" to-port="0"/>
		<edge from-layer="769" from-port="0" to-layer="770" to-port="1"/>
		<edge from-layer="770" from-port="2" to-layer="772" to-port="0"/>
		<edge from-layer="771" from-port="0" to-layer="772" to-port="1"/>
		<edge from-layer="772" from-port="2" to-layer="773" to-port="1"/>
		<edge from-layer="773" from-port="2" to-layer="775" to-port="0"/>
		<edge from-layer="773" from-port="2" to-layer="781" to-port="0"/>
		<edge from-layer="774" from-port="0" to-layer="775" to-port="1"/>
		<edge from-layer="775" from-port="2" to-layer="777" to-port="0"/>
		<edge from-layer="776" from-port="0" to-layer="777" to-port="1"/>
		<edge from-layer="777" from-port="2" to-layer="778" to-port="0"/>
		<edge from-layer="778" from-port="1" to-layer="780" to-port="0"/>
		<edge from-layer="779" from-port="0" to-layer="780" to-port="1"/>
		<edge from-layer="780" from-port="2" to-layer="781" to-port="1"/>
		<edge from-layer="781" from-port="2" to-layer="783" to-port="0"/>
		<edge from-layer="781" from-port="2" to-layer="821" to-port="0"/>
		<edge from-layer="782" from-port="0" to-layer="783" to-port="1"/>
		<edge from-layer="783" from-port="2" to-layer="785" to-port="0"/>
		<edge from-layer="784" from-port="0" to-layer="785" to-port="1"/>
		<edge from-layer="785" from-port="2" to-layer="787" to-port="0"/>
		<edge from-layer="786" from-port="0" to-layer="787" to-port="1"/>
		<edge from-layer="787" from-port="2" to-layer="789" to-port="0"/>
		<edge from-layer="788" from-port="0" to-layer="789" to-port="1"/>
		<edge from-layer="789" from-port="2" to-layer="793" to-port="0"/>
		<edge from-layer="789" from-port="2" to-layer="801" to-port="0"/>
		<edge from-layer="789" from-port="2" to-layer="811" to-port="0"/>
		<edge from-layer="790" from-port="0" to-layer="793" to-port="1"/>
		<edge from-layer="791" from-port="0" to-layer="793" to-port="2"/>
		<edge from-layer="792" from-port="0" to-layer="793" to-port="3"/>
		<edge from-layer="793" from-port="4" to-layer="795" to-port="0"/>
		<edge from-layer="794" from-port="0" to-layer="795" to-port="1"/>
		<edge from-layer="795" from-port="2" to-layer="797" to-port="0"/>
		<edge from-layer="796" from-port="0" to-layer="797" to-port="1"/>
		<edge from-layer="797" from-port="2" to-layer="806" to-port="0"/>
		<edge from-layer="798" from-port="0" to-layer="801" to-port="1"/>
		<edge from-layer="799" from-port="0" to-layer="801" to-port="2"/>
		<edge from-layer="800" from-port="0" to-layer="801" to-port="3"/>
		<edge from-layer="801" from-port="4" to-layer="803" to-port="0"/>
		<edge from-layer="802" from-port="0" to-layer="803" to-port="1"/>
		<edge from-layer="803" from-port="2" to-layer="805" to-port="0"/>
		<edge from-layer="804" from-port="0" to-layer="805" to-port="1"/>
		<edge from-layer="805" from-port="2" to-layer="806" to-port="1"/>
		<edge from-layer="806" from-port="2" to-layer="807" to-port="0"/>
		<edge from-layer="807" from-port="1" to-layer="814" to-port="0"/>
		<edge from-layer="808" from-port="0" to-layer="811" to-port="1"/>
		<edge from-layer="809" from-port="0" to-layer="811" to-port="2"/>
		<edge from-layer="810" from-port="0" to-layer="811" to-port="3"/>
		<edge from-layer="811" from-port="4" to-layer="813" to-port="0"/>
		<edge from-layer="812" from-port="0" to-layer="813" to-port="1"/>
		<edge from-layer="813" from-port="2" to-layer="814" to-port="1"/>
		<edge from-layer="814" from-port="2" to-layer="816" to-port="0"/>
		<edge from-layer="815" from-port="0" to-layer="816" to-port="1"/>
		<edge from-layer="816" from-port="2" to-layer="818" to-port="0"/>
		<edge from-layer="817" from-port="0" to-layer="818" to-port="1"/>
		<edge from-layer="818" from-port="2" to-layer="820" to-port="0"/>
		<edge from-layer="819" from-port="0" to-layer="820" to-port="1"/>
		<edge from-layer="820" from-port="2" to-layer="821" to-port="1"/>
		<edge from-layer="821" from-port="2" to-layer="823" to-port="0"/>
		<edge from-layer="821" from-port="2" to-layer="829" to-port="0"/>
		<edge from-layer="822" from-port="0" to-layer="823" to-port="1"/>
		<edge from-layer="823" from-port="2" to-layer="825" to-port="0"/>
		<edge from-layer="824" from-port="0" to-layer="825" to-port="1"/>
		<edge from-layer="825" from-port="2" to-layer="826" to-port="0"/>
		<edge from-layer="826" from-port="1" to-layer="828" to-port="0"/>
		<edge from-layer="827" from-port="0" to-layer="828" to-port="1"/>
		<edge from-layer="828" from-port="2" to-layer="829" to-port="1"/>
		<edge from-layer="829" from-port="2" to-layer="831" to-port="0"/>
		<edge from-layer="829" from-port="2" to-layer="869" to-port="0"/>
		<edge from-layer="830" from-port="0" to-layer="831" to-port="1"/>
		<edge from-layer="831" from-port="2" to-layer="833" to-port="0"/>
		<edge from-layer="832" from-port="0" to-layer="833" to-port="1"/>
		<edge from-layer="833" from-port="2" to-layer="835" to-port="0"/>
		<edge from-layer="834" from-port="0" to-layer="835" to-port="1"/>
		<edge from-layer="835" from-port="2" to-layer="837" to-port="0"/>
		<edge from-layer="836" from-port="0" to-layer="837" to-port="1"/>
		<edge from-layer="837" from-port="2" to-layer="841" to-port="0"/>
		<edge from-layer="837" from-port="2" to-layer="849" to-port="0"/>
		<edge from-layer="837" from-port="2" to-layer="859" to-port="0"/>
		<edge from-layer="838" from-port="0" to-layer="841" to-port="1"/>
		<edge from-layer="839" from-port="0" to-layer="841" to-port="2"/>
		<edge from-layer="840" from-port="0" to-layer="841" to-port="3"/>
		<edge from-layer="841" from-port="4" to-layer="843" to-port="0"/>
		<edge from-layer="842" from-port="0" to-layer="843" to-port="1"/>
		<edge from-layer="843" from-port="2" to-layer="845" to-port="0"/>
		<edge from-layer="844" from-port="0" to-layer="845" to-port="1"/>
		<edge from-layer="845" from-port="2" to-layer="854" to-port="0"/>
		<edge from-layer="846" from-port="0" to-layer="849" to-port="1"/>
		<edge from-layer="847" from-port="0" to-layer="849" to-port="2"/>
		<edge from-layer="848" from-port="0" to-layer="849" to-port="3"/>
		<edge from-layer="849" from-port="4" to-layer="851" to-port="0"/>
		<edge from-layer="850" from-port="0" to-layer="851" to-port="1"/>
		<edge from-layer="851" from-port="2" to-layer="853" to-port="0"/>
		<edge from-layer="852" from-port="0" to-layer="853" to-port="1"/>
		<edge from-layer="853" from-port="2" to-layer="854" to-port="1"/>
		<edge from-layer="854" from-port="2" to-layer="855" to-port="0"/>
		<edge from-layer="855" from-port="1" to-layer="862" to-port="0"/>
		<edge from-layer="856" from-port="0" to-layer="859" to-port="1"/>
		<edge from-layer="857" from-port="0" to-layer="859" to-port="2"/>
		<edge from-layer="858" from-port="0" to-layer="859" to-port="3"/>
		<edge from-layer="859" from-port="4" to-layer="861" to-port="0"/>
		<edge from-layer="860" from-port="0" to-layer="861" to-port="1"/>
		<edge from-layer="861" from-port="2" to-layer="862" to-port="1"/>
		<edge from-layer="862" from-port="2" to-layer="864" to-port="0"/>
		<edge from-layer="863" from-port="0" to-layer="864" to-port="1"/>
		<edge from-layer="864" from-port="2" to-layer="866" to-port="0"/>
		<edge from-layer="865" from-port="0" to-layer="866" to-port="1"/>
		<edge from-layer="866" from-port="2" to-layer="868" to-port="0"/>
		<edge from-layer="867" from-port="0" to-layer="868" to-port="1"/>
		<edge from-layer="868" from-port="2" to-layer="869" to-port="1"/>
		<edge from-layer="869" from-port="2" to-layer="871" to-port="0"/>
		<edge from-layer="869" from-port="2" to-layer="877" to-port="0"/>
		<edge from-layer="870" from-port="0" to-layer="871" to-port="1"/>
		<edge from-layer="871" from-port="2" to-layer="873" to-port="0"/>
		<edge from-layer="872" from-port="0" to-layer="873" to-port="1"/>
		<edge from-layer="873" from-port="2" to-layer="874" to-port="0"/>
		<edge from-layer="874" from-port="1" to-layer="876" to-port="0"/>
		<edge from-layer="875" from-port="0" to-layer="876" to-port="1"/>
		<edge from-layer="876" from-port="2" to-layer="877" to-port="1"/>
		<edge from-layer="877" from-port="2" to-layer="879" to-port="0"/>
		<edge from-layer="878" from-port="0" to-layer="879" to-port="1"/>
		<edge from-layer="879" from-port="2" to-layer="881" to-port="0"/>
		<edge from-layer="880" from-port="0" to-layer="881" to-port="1"/>
		<edge from-layer="881" from-port="2" to-layer="883" to-port="0"/>
		<edge from-layer="882" from-port="0" to-layer="883" to-port="1"/>
		<edge from-layer="883" from-port="2" to-layer="884" to-port="0"/>
		<edge from-layer="884" from-port="1" to-layer="886" to-port="0"/>
		<edge from-layer="885" from-port="0" to-layer="886" to-port="1"/>
		<edge from-layer="886" from-port="2" to-layer="887" to-port="0"/>
		<edge from-layer="887" from-port="1" to-layer="889" to-port="0"/>
		<edge from-layer="888" from-port="0" to-layer="889" to-port="1"/>
		<edge from-layer="889" from-port="2" to-layer="891" to-port="0"/>
		<edge from-layer="890" from-port="0" to-layer="891" to-port="1"/>
		<edge from-layer="891" from-port="2" to-layer="893" to-port="0"/>
		<edge from-layer="892" from-port="0" to-layer="893" to-port="1"/>
		<edge from-layer="893" from-port="2" to-layer="895" to-port="0"/>
		<edge from-layer="894" from-port="0" to-layer="895" to-port="1"/>
		<edge from-layer="895" from-port="2" to-layer="897" to-port="0"/>
		<edge from-layer="896" from-port="0" to-layer="897" to-port="1"/>
		<edge from-layer="897" from-port="2" to-layer="898" to-port="0"/>
		<edge from-layer="898" from-port="1" to-layer="899" to-port="0"/>
	</edges>
	<meta_data>
		<MO_version value="2022.1.0-7019-cdb9bec7210-releases/2022/1"/>
		<Runtime_version value="2022.1.0-7019-cdb9bec7210-releases/2022/1"/>
		<legacy_path value="False"/>
		<cli_parameters>
			<caffe_parser_path value="DIR"/>
			<compress_fp16 value="False"/>
			<data_type value="float"/>
			<disable_nhwc_to_nchw value="False"/>
			<disable_omitting_optional value="False"/>
			<disable_resnet_optimization value="False"/>
			<disable_weights_compression value="False"/>
			<enable_concat_optimization value="False"/>
			<enable_flattening_nested_params value="False"/>
			<enable_ssd_gluoncv value="False"/>
			<extensions value="DIR"/>
			<framework value="onnx"/>
			<freeze_placeholder_with_value value="{}"/>
			<input_model value="DIR\SVTR_Tiny.onnx"/>
			<input_model_is_text value="False"/>
			<input_shape value="(1,3,64,256)"/>
			<k value="DIR\CustomLayersMapping.xml"/>
			<layout value="()"/>
			<layout_values value="{}"/>
			<legacy_mxnet_model value="False"/>
			<log_level value="ERROR"/>
			<mean_scale_values value="{}"/>
			<mean_values value="()"/>
			<model_name value="SVTR_Tiny"/>
			<output_dir value="DIR"/>
			<placeholder_data_types value="{}"/>
			<placeholder_shapes value="(1, 3, 64, 256)"/>
			<progress value="False"/>
			<remove_memory value="False"/>
			<remove_output_softmax value="False"/>
			<reverse_input_channels value="False"/>
			<save_params_from_nd value="False"/>
			<scale_values value="()"/>
			<silent value="False"/>
			<source_layout value="()"/>
			<static_shape value="False"/>
			<stream_output value="False"/>
			<target_layout value="()"/>
			<transform value=""/>
			<use_legacy_frontend value="False"/>
			<use_new_frontend value="False"/>
			<unset unset_cli_parameters="batch, counts, disable_fusing, finegrain_fusing, input, input_checkpoint, input_meta_graph, input_proto, input_symbol, mean_file, mean_file_offsets, nd_prefix_name, output, pretrained_model_name, saved_model_dir, saved_model_tags, scale, tensorboard_logdir, tensorflow_custom_layer_libraries, tensorflow_custom_operations_config_update, tensorflow_object_detection_api_pipeline_config, tensorflow_use_custom_operations_config, transformations_config"/>
		</cli_parameters>
	</meta_data>
</net>
